exp/code_for_Boids/Models_16birds_2groups/compare_model/NISplus_model_400000.pkl (torch, 548793 bytes, 196 tensors)

flows.0.mask f4 [6, 64]
000000 00 00 00 00 00 00 00 00 00 00 00 00 00 00 00 00
       0.0 0.0 0.0 0.0
000010 00 00 00 00 00 00 00 00 00 00 00 00 00 00 00 00
       0.0 0.0 0.0 0.0
000020 00 00 00 00 00 00 00 00 00 00 00 00 00 00 00 00
       0.0 0.0 0.0 0.0
000030 00 00 00 00 00 00 00 00 00 00 00 00 00 00 00 00
       0.0 0.0 0.0 0.0
000040 00 00 00 00 00 00 00 00 00 00 00 00 00 00 00 00
       0.0 0.0 0.0 0.0
000050 00 00 00 00 00 00 00 00 00 00 00 00 00 00 00 00
       0.0 0.0 0.0 0.0
000060 00 00 00 00 00 00 00 00 00 00 00 00 00 00 00 00
       0.0 0.0 0.0 0.0
000070 00 00 00 00 00 00 00 00 00 00 00 00 00 00 00 00
       0.0 0.0 0.0 0.0
000080 00 00 80 3f 00 00 80 3f 00 00 80 3f 00 00 80 3f
       1.0 1.0 1.0 1.0
000090 00 00 80 3f 00 00 80 3f 00 00 80 3f 00 00 80 3f
       1.0 1.0 1.0 1.0
0000a0 00 00 80 3f 00 00 80 3f 00 00 80 3f 00 00 80 3f
       1.0 1.0 1.0 1.0
0000b0 00 00 80 3f 00 00 80 3f 00 00 80 3f 00 00 80 3f
       1.0 1.0 1.0 1.0
0000c0 00 00 80 3f 00 00 80 3f 00 00 80 3f 00 00 80 3f
       1.0 1.0 1.0 1.0
0000d0 00 00 80 3f 00 00 80 3f 00 00 80 3f 00 00 80 3f
       1.0 1.0 1.0 1.0
0000e0 00 00 80 3f 00 00 80 3f 00 00 80 3f 00 00 80 3f
       1.0 1.0 1.0 1.0
0000f0 00 00 80 3f 00 00 80 3f 00 00 80 3f 00 00 80 3f
       1.0 1.0 1.0 1.0
000100 00 00 80 3f 00 00 80 3f 00 00 80 3f 00 00 80 3f
       1.0 1.0 1.0 1.0
000110 00 00 80 3f 00 00 80 3f 00 00 80 3f 00 00 80 3f
       1.0 1.0 1.0 1.0
000120 00 00 80 3f 00 00 80 3f 00 00 80 3f 00 00 80 3f
       1.0 1.0 1.0 1.0
000130 00 00 80 3f 00 00 80 3f 00 00 80 3f 00 00 80 3f
       1.0 1.0 1.0 1.0
000140 00 00 80 3f 00 00 80 3f 00 00 80 3f 00 00 80 3f
       1.0 1.0 1.0 1.0
000150 00 00 80 3f 00 00 80 3f 00 00 80 3f 00 00 80 3f
       1.0 1.0 1.0 1.0
000160 00 00 80 3f 00 00 80 3f 00 00 80 3f 00 00 80 3f
       1.0 1.0 1.0 1.0
000170 00 00 80 3f 00 00 80 3f 00 00 80 3f 00 00 80 3f
       1.0 1.0 1.0 1.0
000180 00 00 00 00 00 00 00 00 00 00 00 00 00 00 00 00
       0.0 0.0 0.0 0.0
000190 00 00 00 00 00 00 00 00 00 00 00 00 00 00 00 00
       0.0 0.0 0.0 0.0
0001a0 00 00 00 00 00 00 00 00 00 00 00 00 00 00 00 00
       0.0 0.0 0.0 0.0
0001b0 00 00 00 00 00 00 00 00 00 00 00 00 00 00 00 00
       0.0 0.0 0.0 0.0
0001c0 00 00 00 00 00 00 00 00 00 00 00 00 00 00 00 00
       0.0 0.0 0.0 0.0
0001d0 00 00 00 00 00 00 00 00 00 00 00 00 00 00 00 00
       0.0 0.0 0.0 0.0
0001e0 00 00 00 00 00 00 00 00 00 00 00 00 00 00 00 00
       0.0 0.0 0.0 0.0
0001f0 00 00 00 00 00 00 00 00 00 00 00 00 00 00 00 00
       0.0 0.0 0.0 0.0
000200 00 00 00 00 00 00 00 00 00 00 00 00 00 00 00 00
       0.0 0.0 0.0 0.0
000210 00 00 00 00 00 00 00 00 00 00 00 00 00 00 00 00
       0.0 0.0 0.0 0.0
000220 00 00 00 00 00 00 00 00 00 00 00 00 00 00 00 00
       0.0 0.0 0.0 0.0
000230 00 00 00 00 00 00 00 00 00 00 00 00 00 00 00 00
       0.0 0.0 0.0 0.0
000240 00 00 00 00 00 00 00 00 00 00 00 00 00 00 00 00
       0.0 0.0 0.0 0.0
000250 00 00 00 00 00 00 00 00 00 00 00 00 00 00 00 00
       0.0 0.0 0.0 0.0
000260 00 00 00 00 00 00 00 00 00 00 00 00 00 00 00 00
       0.0 0.0 0.0 0.0
000270 00 00 00 00 00 00 00 00 00 00 00 00 00 00 00 00
       0.0 0.0 0.0 0.0
000280 00 00 80 3f 00 00 80 3f 00 00 80 3f 00 00 80 3f
       1.0 1.0 1.0 1.0
000290 00 00 80 3f 00 00 80 3f 00 00 80 3f 00 00 80 3f
       1.0 1.0 1.0 1.0
0002a0 00 00 80 3f 00 00 80 3f 00 00 80 3f 00 00 80 3f
       1.0 1.0 1.0 1.0
0002b0 00 00 80 3f 00 00 80 3f 00 00 80 3f 00 00 80 3f
       1.0 1.0 1.0 1.0
0002c0 00 00 80 3f 00 00 80 3f 00 00 80 3f 00 00 80 3f
       1.0 1.0 1.0 1.0
0002d0 00 00 80 3f 00 00 80 3f 00 00 80 3f 00 00 80 3f
       1.0 1.0 1.0 1.0
0002e0 00 00 80 3f 00 00 80 3f 00 00 80 3f 00 00 80 3f
       1.0 1.0 1.0 1.0
0002f0 00 00 80 3f 00 00 80 3f 00 00 80 3f 00 00 80 3f
       1.0 1.0 1.0 1.0
000300 00 00 80 3f 00 00 80 3f 00 00 80 3f 00 00 80 3f
       1.0 1.0 1.0 1.0
000310 00 00 80 3f 00 00 80 3f 00 00 80 3f 00 00 80 3f
       1.0 1.0 1.0 1.0
000320 00 00 80 3f 00 00 80 3f 00 00 80 3f 00 00 80 3f
       1.0 1.0 1.0 1.0
000330 00 00 80 3f 00 00 80 3f 00 00 80 3f 00 00 80 3f
       1.0 1.0 1.0 1.0
000340 00 00 80 3f 00 00 80 3f 00 00 80 3f 00 00 80 3f
       1.0 1.0 1.0 1.0
000350 00 00 80 3f 00 00 80 3f 00 00 80 3f 00 00 80 3f
       1.0 1.0 1.0 1.0
000360 00 00 80 3f 00 00 80 3f 00 00 80 3f 00 00 80 3f
       1.0 1.0 1.0 1.0
000370 00 00 80 3f 00 00 80 3f 00 00 80 3f 00 00 80 3f
       1.0 1.0 1.0 1.0
000380 00 00 00 00 00 00 00 00 00 00 00 00 00 00 00 00
       0.0 0.0 0.0 0.0
000390 00 00 00 00 00 00 00 00 00 00 00 00 00 00 00 00
       0.0 0.0 0.0 0.0
0003a0 00 00 00 00 00 00 00 00 00 00 00 00 00 00 00 00
       0.0 0.0 0.0 0.0
0003b0 00 00 00 00 00 00 00 00 00 00 00 00 00 00 00 00
       0.0 0.0 0.0 0.0
0003c0 00 00 00 00 00 00 00 00 00 00 00 00 00 00 00 00
       0.0 0.0 0.0 0.0
0003d0 00 00 00 00 00 00 00 00 00 00 00 00 00 00 00 00
       0.0 0.0 0.0 0.0
0003e0 00 00 00 00 00 00 00 00 00 00 00 00 00 00 00 00
       0.0 0.0 0.0 0.0
0003f0 00 00 00 00 00 00 00 00 00 00 00 00 00 00 00 00
       0.0 0.0 0.0 0.0

flows.0.t.0.0.weight f4 [32, 64]
000000 ce a7 ce bd b8 f1 79 3d 60 99 f2 bd 8e 1a c7 3d
       -0.100906 0.061021537 -0.1184566 0.09721862
000010 60 69 9e 3c 30 35 0e bc e0 91 8f 3d 28 03 81 3c
       0.019337356 -0.008679673 0.07010245 0.015748575
000020 70 3d c6 bc 40 46 20 3b 44 3c 12 3d a0 5a 92 bd
       -0.024199218 0.0024455935 0.035702005 -0.071461916
000030 f6 e8 bd 3d 24 46 5c 3d 70 ad 96 bc 50 67 e5 bc
       0.092729494 0.05377783 -0.018393248 -0.028003365
000040 ba e2 a9 bd c8 45 e6 3c a0 f4 13 3c c0 bf 9f bb
       -0.08295198 0.028109446 0.009030491 -0.0048751533
000050 cc 26 9e bd b8 f9 84 3d 24 c9 45 bd 98 a1 c4 bd
       -0.07722244 0.064929426 -0.048287526 -0.09601134
000060 ac 45 37 3d 2e 25 ed bd 9e 8e ec bd f8 0c df 3d
       0.04474418 -0.11579357 -0.115506396 0.108911455
000070 92 85 8a bd 1a 36 d5 bd a6 19 ff bd 30 40 3a 3d
       -0.06763758 -0.1041071 -0.12456064 0.04547137
000080 49 df b0 3d 99 00 9c 3d 12 ad 39 3d cd 4f 7a 3c
       0.08636338 0.076173015 0.04533107 0.015277815
000090 28 02 a3 bd c0 27 b0 3d cf c1 31 3c 47 a8 e1 bd
       -0.07959396 0.08601332 0.01084943 -0.110184245
0000a0 23 ec c3 3c cd 30 89 3b 63 5a 11 be 5d 69 1a be
       0.02391631 0.0041867257 -0.14194636 -0.15079255
0000b0 01 85 d5 bb f7 34 56 bc 6d 91 82 3c 0c d4 11 3e
       -0.0065160994 -0.013074151 0.015938485 0.14241046
0000c0 8c 95 ff 3d fe 29 49 bd 80 37 50 bd 1d 3c b2 bd
       0.12479696 -0.049112312 -0.05083418 -0.08702872
0000d0 0f 15 d8 3c 78 2f 02 3d 8c bf ef 3d 8a a6 0a be
       0.026377229 0.03178355 0.117064565 -0.13540092
0000e0 c6 07 45 bc 02 2f 64 3c 2f c9 57 be b7 55 3b bd
       -0.012025779 0.013927223 -0.21072839 -0.04573604
0000f0 84 61 ea bd 99 71 50 3c 68 1d c1 be ad 36 84 3d
       -0.11444381 0.012722396 -0.37717748 0.06455741
000100 98 39 2d bd 3c 9b 4e bd b0 d3 46 bc 00 03 67 3a
       -0.042291254 -0.05044101 -0.012135431 0.0008812398
000110 34 51 e6 bd 08 5c 5f bd c0 b7 76 3d 54 2a 4f bd
       -0.11245957 -0.054531127 0.06023383 -0.050577477
000120 a0 31 f5 bc 9c d8 2a bd 38 04 cb bc 76 8c 8f 3d
       -0.02993089 -0.04171048 -0.024782285 0.07009213
000130 8c 7a d7 bd 76 4d ac bd 9c 7a 8d bd 5c 97 12 bd
       -0.10521421 -0.08413212 -0.069081515 -0.03578888
000140 c0 fe 15 bd d0 a6 83 bc ea c4 bc 3d 66 78 ca bd
       -0.0366199 -0.016070753 0.09217246 -0.098862454
000150 38 a2 fd bd 8a 84 ca 3d 6e cc a8 bd 9a cc d8 bd
       -0.123844564 0.09888561 -0.08242117 -0.105859
000160 7c f2 d1 bd ec 7c 0a 3d 1a 50 c1 3d 9a ee bf bd
       -0.10251328 0.03381054 0.09439106 -0.093716815
000170 20 92 c5 3b e8 e1 e7 bc 20 82 c6 3c 28 8a 26 3d
       0.0060293823 -0.028305963 0.02423197 0.0406591
000180 a4 e0 8e 3e 03 a6 85 bd c7 34 b9 3f fe f6 b5 be
       0.27905762 -0.06525805 1.4469231 -0.35540003
000190 79 0e 0e bf 1d 65 26 bd be 1c 22 be 6f 3a f6 3e
       -0.55490834 -0.040623773 -0.15831277 0.48091456
0001a0 35 d8 25 3e ea f0 6a be 35 74 df 3d d4 cd 8c 3e
       0.16195758 -0.22943464 0.109108366 0.27500784
0001b0 d7 95 0e bc a3 3b 63 bd 5b 6e a9 3e 06 5b 91 be
       -0.008702717 -0.055476796 0.33092007 -0.28389758
0001c0 12 91 df bd b1 02 95 bd ac d1 9d 3d ea 28 83 be
       -0.10916342 -0.07275904 0.07706007 -0.25617152
0001d0 46 46 44 3e 89 30 5e 3e e3 58 1b 3f ba af b4 3e
       0.19167432 0.21698202 0.60682505 0.3529032
0001e0 74 49 05 be c5 c9 b6 bc 35 c7 18 be 09 40 8f be
       -0.13016301 -0.022313008 -0.14919741 -0.27978542
0001f0 22 1c 91 bd e0 d2 40 3d ed e3 b0 bd 61 fe 8a 3e
       -0.07085444 0.047076106 -0.086372234 0.271472
000200 94 15 58 bd de 50 a7 3d 18 e0 99 3c ea 98 8c 3d
       -0.052754954 0.08169721 0.018783614 0.068651035
000210 00 9f 98 3b bc 48 9a bd c6 f6 a3 3d 0a 4d f1 3d
       0.004657626 -0.07533404 0.08006053 0.11782272
000220 50 29 9a bc 00 67 91 ba e4 01 09 bd 18 fd e0 3c
       -0.018818527 -0.0011093318 -0.03344907 0.027464435
000230 be a9 bf bd 10 bd 4a 3d ba f9 be 3d 9a 5a 99 3d
       -0.09358548 0.04949671 0.09324975 0.07487984
000240 fa c6 8f bd 90 7e 87 bd d0 1c c9 bc 50 84 ce 3c
       -0.07020374 -0.06615937 -0.024549872 0.025209576
000250 3e d4 bb 3d d0 26 83 bd 56 bd fd 3d f0 2d 59 bd
       0.09171341 -0.06403887 0.123896286 -0.053022325
000260 e2 29 ff bd d4 2f 7d 3d 3c 4e 4b bd 00 c4 5f bb
       -0.124591604 0.06181319 -0.049635157 -0.0034143925
000270 80 e1 60 bd 3a 22 c4 bd 90 e4 1a 3c 38 c0 ce 3d
       -0.054902554 -0.09576841 0.009453908 0.100952566
000280 98 e4 4c 3c f4 d9 85 3b 9b b6 47 be 3e 57 d3 bc
       0.012505673 0.00408482 -0.19503252 -0.025798436
000290 1b fc 3a 3c cc 7a 50 3d 63 7a 73 be f5 87 22 be
       0.011412646 0.05089836 -0.23777156 -0.15872176
0002a0 1c fb 9b bd cf dc 2e 3d ae 90 ee bc 52 6e 81 be
       -0.07616255 0.04269105 -0.029121723 -0.2527948
0002b0 5c e0 04 be d6 5a 5d bd ce 32 02 be 6c fb 24 3d
       -0.12976211 -0.054041706 -0.12714693 0.040278837
0002c0 34 ba a8 bd 23 3a 2d be 4d 03 3d be 44 db ca 3d
       -0.082386404 -0.16916709 -0.1845829 0.09905103
0002d0 0f 3f 3e bd 54 85 20 3d 5c 24 29 3e a1 49 e5 3d
       -0.046446856 0.03918965 0.16517776 0.11195684
0002e0 10 fa e9 bd bb c9 06 3e cf 99 b3 3e 34 75 3c be
       -0.11424649 0.13162892 0.35078284 -0.18404084
0002f0 bf 21 70 bd f3 0b f7 3d 66 96 e9 3d 49 5c da bc
       -0.058625933 0.12062826 0.11405639 -0.026655333
000300 00 26 b4 ba c4 fb 7e 3d 14 93 4b 3d 20 47 78 3d
       -0.0013744235 0.06225182 0.04970081 0.060614705
000310 92 d8 ab bd 36 71 81 bd 68 dc 5a bd a0 f9 7a 3d
       -0.08390917 -0.063204214 -0.053432852 0.061273217
000320 10 4f 4b 3c 8a 4d b7 bd 54 51 c5 3d 30 66 b1 3c
       0.012408987 -0.08950336 0.09634653 0.021655172
000330 0c 97 bd bd be 44 a4 bd 1c 3f 13 bd 7c 98 f7 bd
       -0.092573255 -0.08020924 -0.035948858 -0.12089631
000340 20 73 20 bd 08 ab 91 bd bc 7f eb bd 18 e2 86 bc
       -0.03917229 -0.071127 -0.11498973 -0.016465232
000350 d4 b1 33 3d 9e 5d 88 bd 98 a9 3e 3d c8 d8 e2 3d
       0.043870762 -0.06658481 0.046548456 0.11076504
000360 ac 9d fe 3d 10 7f 3f 3c 60 a2 6c bd 18 99 ba 3c
       0.12432417 0.011688009 -0.05777204 0.022778079
000370 5c 00 52 3d fe a7 84 3d ac 05 cb bd 02 dd b2 3d
       0.051269874 0.064773545 -0.09913191 0.0873356
000380 5f 7d 35 3d a0 d5 63 bd 7e a5 26 bf 49 81 03 3e
       0.044309016 -0.05562365 -0.6509627 0.12842287
000390 53 f0 b5 bd 93 c5 ef 3c b6 e0 41 be c7 63 91 3e
       -0.08883729 0.029269015 -0.18933377 0.28396437
0003a0 11 37 25 3c 46 12 b2 3c 08 18 a5 3e 28 de 1f 3e
       0.01008393 0.02173723 0.32244897 0.1561209
0003b0 fb 3e c2 3d 43 05 00 3d 58 9f 6e be b9 f1 c5 3e
       0.09484669 0.031255018 -0.23302972 0.38660982
0003c0 99 35 c7 3d ba 68 30 3d 50 db c6 3d b5 85 4f 3e
       0.0972702 0.043068625 0.09709799 0.20265849
0003d0 2c a2 30 bd d1 25 c9 3c 42 c1 42 3d 21 bf d3 3d
       -0.04312341 0.024554165 0.047547586 0.10339189
0003e0 39 75 6e ba ee f5 ac 3c 35 03 8e be 1e 0e f5 3c
       -0.0009096447 0.021113362 -0.27736822 0.029913958
0003f0 a4 9c d6 bd 8d 50 58 3c 94 87 87 be 37 3f 9b 3d
       -0.104790956 0.013202799 -0.26470625 0.07580417

flows.0.t.0.0.bias f4 [32]
000000 22 7f 22 3e 11 45 c4 bd 1a a2 87 be f4 38 3c 3e
       0.1586881 -0.09583486 -0.2649086 0.18381101
000010 8d 74 02 be 98 03 6e bd b3 9a ff bd d3 f0 d4 bc
       -0.12739773 -0.058108896 -0.124806784 -0.02599374
000020 93 d8 7e bd ff 9c 2d 3d a9 2d ec 3d 90 bb 36 3e
       -0.06221826 0.04238605 0.115321465 0.17844987
000030 84 9b 81 3d ca 89 c4 3d 27 96 ee 3b 29 97 90 bd
       0.063284904 0.09596594 0.007281083 -0.070600815
000040 cb 61 e3 3d c5 ce 2e 3e ce 52 a4 3d ee 72 74 3c
       0.11102637 0.17071064 0.08023606 0.0149199795
000050 ce bc 33 3e ab ed 3f be 2e bd 26 3d 96 b2 d9 3d
       0.17552492 -0.18743007 0.04070776 0.10629766
000060 d0 be b4 bd e3 ce c7 bd 6e 8d c2 bd 3e 2c d4 bc
       -0.08825457 -0.097562574 -0.09499632 -0.025900003
000070 77 40 eb 3d f8 90 ce bb f9 c6 4c bd ce 4d 2b 3e
       0.11486905 -0.0063039027 -0.049994443 0.16728899

flows.0.t.0.2.weight f4 [32, 32]
000000 9f af 08 be 82 cc ab 3c af b6 b4 3d 9e 65 3e 3d
       -0.13348244 0.02097154 0.08823907 0.04648363
000010 c6 38 93 3d b0 70 04 3d 0b 96 5a 3e 3b c6 ba 3d
       0.07188563 0.03233403 0.213463 0.09119841
000020 5e b1 3f be 36 3a 39 be 2b 6f c9 3c 95 86 98 bd
       -0.18720004 -0.18088612 0.024589142 -0.074475445
000030 fb 76 1f be ad ac a1 bd 3f 01 78 bd e8 30 8d 3c
       -0.15572731 -0.078942634 -0.060548063 0.017235234
000040 4e 6a 92 3e 79 73 0f 3d a5 03 f4 3b 55 cb 3c 3e
       0.2859673 0.035022233 0.0074467235 0.1843694
000050 d3 22 26 bb a1 e3 08 be d6 9d 56 3b db f6 86 bd
       -0.0025350347 -0.13368084 0.0032747886 -0.06590053
000060 45 ba 3c bb e9 ee 56 bd df 4b 10 be 88 78 2b 3e
       -0.0028797549 -0.052473936 -0.14091443 0.16745198
000070 9e 7a 4b bc e1 86 1c 3d 51 69 86 be 6a 66 89 3e
       -0.012419371 0.038214568 -0.26252225 0.26835948
000080 7c 43 79 3d f7 73 89 3e 86 2b a3 bd b4 8b 9e 3d
       0.060855374 0.26846287 -0.07967286 0.0774149
000090 1e e3 65 3d fa ff 40 3e b1 6c d7 3d 37 d8 5d bd
       0.0561248 0.18847647 0.10518778 -0.054161277
0000a0 02 3d 84 3d 5e 3f 02 3e cb 60 b0 bc cf ed 77 bd
       0.06456949 0.12719485 -0.02153053 -0.060529526
0000b0 e4 6a 3b 3c c8 7d 76 3d 5b e8 ea 3c 26 92 2f bd
       0.011439059 0.060178548 0.028675249 -0.042863987
0000c0 7d 40 1e 3e 9d d4 2a be c1 79 2c be 2e 0b 9a 3c
       0.15454288 -0.16682668 -0.1684332 0.018804159
0000d0 32 06 bb 3d 24 da 35 3d f3 cf 43 3e ce bd 80 3d
       0.09132041 0.04439749 0.19122295 0.06286202
0000e0 5e 17 a9 3c 80 72 ea bd 9a 2b 60 3e 46 80 1d bd
       0.020641025 -0.114476204 0.21891633 -0.03845241
0000f0 92 31 56 bc 64 f8 8f 3d a7 fe e0 bd e4 1a bd 3e
       -0.013073342 0.070297986 -0.10986071 0.36934578
000100 90 0a 97 bc 8d 8a 6a bd d8 7d b8 bd 7d 48 16 3e
       -0.018437654 -0.05726104 -0.09008378 0.1467609
000110 8d a4 05 be f9 47 5a 3e db be 3a be 91 22 1b bd
       -0.13051052 0.21316518 -0.18236868 -0.037874762
000120 81 21 c6 bd b0 00 92 3d 60 3f 54 3e 83 b2 01 be
       -0.09674359 0.071290374 0.207273 -0.12665753
000130 67 63 47 3e 1c 01 64 bd 40 5d da bb a0 d2 38 bd
       0.19471513 -0.05566512 -0.0066639483 -0.045122743
000140 0e 03 16 be 23 15 8d 3d 66 d1 da 3d 80 2a 3b bd
       -0.14649603 0.06888797 0.10684471 -0.045694828
000150 84 ad d8 3d 1a af 30 3d 8b 9f 11 3d f7 9d 03 be
       0.105799705 0.04313574 0.035552543 -0.12853228
000160 19 34 aa bd b4 3e cd bd ed d2 09 3d 05 ff 41 3e
       -0.08310718 -0.10021725 0.03364842 0.18944938
000170 09 88 44 bc f8 38 4a 3e f0 53 6c bd b7 58 6a bc
       -0.011995324 0.19748294 -0.057697237 -0.014303378
000180 a7 cf d8 bd 61 8b 8d bd ac 25 3f be 2d 96 27 be
       -0.105864815 -0.0691135 -0.18666714 -0.16365881
000190 06 02 8d 3d 89 69 bf bc 24 e3 89 bd 70 04 97 3d
       0.068851516 -0.023365753 -0.06732777 0.07373893
0001a0 f5 78 a8 3d eb fc 9e bd fb 1d 54 3e bd d4 a0 3d
       0.08226196 -0.07763084 0.20714562 0.078530766
0001b0 91 15 89 3d e6 38 ae 3d e8 da 53 ba 1d ab d7 3d
       0.066935666 0.08506946 -0.0008081631 0.10530684
0001c0 1c d2 1d 3d 2b 64 5a 3e 40 63 2b 3e cb b2 80 bc
       0.038530454 0.21327274 0.1673708 -0.015710255
0001d0 f6 02 1e 3d b3 3d 44 3d 5f 71 78 3d e0 94 0d bd
       0.038577043 0.047910403 0.060654994 -0.034565806
0001e0 fb 67 ee bc c9 b9 99 38 3b c6 5c bd ed 06 8c bd
       -0.029102316 7.330214e-05 -0.053899985 -0.068372585
0001f0 b6 43 62 3d 21 b6 10 3e a1 a3 0d bc 8d 24 df bd
       0.055240355 0.14131977 -0.008644969 -0.108956434
000200 6f d0 22 be 4a 89 c6 be ff 9b e9 bd c2 98 4c bd
       -0.15899824 -0.38776618 -0.11406707 -0.04995037
000210 e6 76 76 3e 97 1b c4 3d 9c 0d c5 bd 83 d7 da 3c
       0.24068794 0.09575575 -0.096217364 0.026714092
000220 b2 51 d4 bd 8a 9d ce bd fa 3a 3a bc 87 b4 96 3d
       -0.10367145 -0.10088642 -0.0113666 0.073586516
000230 82 ab fc bd e8 f9 32 be 1b d2 16 be 12 82 00 be
       -0.123374 -0.17478144 -0.14728586 -0.12549618
000240 49 69 44 3e 64 8f 07 be 63 77 5f be 82 67 1f be
       0.19180788 -0.13238293 -0.21822886 -0.15566829
000250 80 83 c3 bd 77 13 39 3e 87 09 4a be fe cf b1 3c
       -0.09546566 0.18073831 -0.19730197 0.021705624
000260 53 4e 16 bf 5c 86 e8 3b 4e 84 26 bc 9c 76 ac bd
       -0.58713263 0.007096095 -0.01016338 -0.084210604
000270 ff 3f 06 3e 78 00 0c be ff 62 6d be 83 4e b0 3e
       0.1311035 -0.13672054 -0.23182295 0.344349
000280 02 d3 ae bd ab 59 83 3c e1 c4 7c 3c 55 a8 51 bf
       -0.0853634 0.016033968 0.015427799 -0.8189748
000290 cd 49 35 3e 87 be 33 be 2b 81 b3 3d b9 23 27 3e
       0.17703934 -0.17553149 0.08764871 0.16322221
0002a0 d2 e0 ff bd b0 7b e6 bd 54 14 83 bd 36 f4 31 3d
       -0.12494053 -0.1125406 -0.06400362 0.04344579
0002b0 47 d4 35 be a4 aa 8e be 47 39 7c 3e a8 3a 2c be
       -0.17756759 -0.27864563 0.24631225 -0.1681925
0002c0 36 07 38 3e de 90 1f 3d 82 d9 3e be 74 6a ad 3e
       0.17971501 0.038956515 -0.1863766 0.3387028
0002d0 0e a9 80 be d3 8b e7 bd 37 38 a0 3c b9 2f 03 3d
       -0.25128978 -0.11305966 0.019558055 0.032027934
0002e0 6e b1 ce be ba 45 7a 3d c9 9b 91 bd 1c fd 03 be
       -0.40369743 0.061101653 -0.07109792 -0.12889522
0002f0 55 b5 e4 3e 62 77 2c 3d 95 fb 5a 3d de e8 27 3e
       0.44669595 0.04210604 0.053462584 0.16397426
000300 e7 b0 f0 3d a5 b6 5e 3c 5e 45 00 be 4e fc ec bd
       0.117524914 0.013593351 -0.12526461 -0.11571561
000310 fe 28 da 3d ef 28 92 bd 1e 6f e5 3d 61 26 43 be
       0.1065235 -0.07136714 0.112028345 -0.19057609
000320 98 2c 27 be 90 a5 9f 3d 3c ab b8 3d 96 6b 3c bd
       -0.16325605 0.077952504 0.09017035 -0.04600104
000330 8c 13 12 3e e2 2b 15 be d8 dd 14 3e 4e 52 86 3d
       0.14265269 -0.14567521 0.14537752 0.06558667
000340 7e 62 90 3c d1 c5 0d bb cb ae 61 bd de 14 29 3e
       0.01762509 -0.00216328 -0.055098336 0.16511866
000350 73 27 42 3d af 89 6f 3e 27 da fc 3d 19 3b 98 bc
       0.047400903 0.23392366 0.12346297 -0.018582867
000360 69 d9 03 bd 7a 79 1c bd c6 43 c0 3d 00 25 91 bd
       -0.03218976 -0.038201787 0.09387927 -0.07087135
000370 5b 8c 4c bd fc 93 bb 3d bc 3a 69 3c 45 dd 39 be
       -0.04993854 0.09159085 0.014235195 -0.18150814
000380 04 89 95 bd 9a 57 54 3d a5 b5 47 bd 1a 75 eb 3d
       -0.07301524 0.051841356 -0.048757214 0.11496945
000390 6f 7d 4c 3e 58 7f 25 3e 14 fc 21 bd 5b 9f b1 3d
       0.19969724 0.16161859 -0.03954704 0.08672973
0003a0 28 7b ed bd 0b 40 ab bd dd 27 93 3d 89 4f 98 be
       -0.11595756 -0.083618246 0.07185338 -0.2974818
0003b0 01 8b 92 bc 08 53 cf 3c 36 07 5d bd 3e 33 cd bc
       -0.017888548 0.025308147 -0.053961955 -0.025048848
0003c0 a9 7c cc 3c d0 2c 20 be be fe ac 3c 5c 9a 00 bf
       0.024961786 -0.15642095 0.021117564 -0.50235534
0003d0 53 3a cd 3e 98 b8 2f bc 2d 7c fe 3d fd ef c4 bd
       0.4008356 -0.010725163 0.124260284 -0.09616087
0003e0 6e ed c1 bd 1f eb b8 bc a3 e8 3e bd bf 3a 68 3c
       -0.09469114 -0.022573052 -0.04660858 0.014174162
0003f0 c3 4d 1d be a7 36 0c be 30 10 52 be 41 e4 81 3d
       -0.15361695 -0.13692723 -0.20513988 0.06342364

flows.0.t.0.2.bias f4 [32]
000000 e5 5a 46 3e b3 bf e5 3b de 72 69 3e d6 80 a0 3e
       0.19370611 0.0070113777 0.22797725 0.31348294
000010 99 0a 94 be 66 3e 20 3d f2 da 44 3e ea d0 86 be
       -0.28914335 0.039122008 0.19224146 -0.26331264
000020 58 3d 67 3e 99 8d e5 3d d9 89 d6 bc 46 73 24 3d
       0.22581995 0.11208648 -0.026188778 0.040148996
000030 e9 82 6c 3d 36 bf 79 be ff c3 9d 3e 62 65 93 3e
       0.057742033 -0.24389347 0.30813596 0.28788286
000040 73 00 33 3d 50 aa a0 bc e2 f4 6f be 94 89 4f bd
       0.0437016 -0.019612461 -0.23433259 -0.050668314
000050 3d a4 36 3e 46 20 91 3d 93 3c ce 3e 1c 61 af bd
       0.1783609 0.07086234 0.4028059 -0.08563444
000060 dd 2f ed 3d 28 a4 5f 3e c6 52 3d be 4a 30 9e 3d
       0.11581395 0.21839964 -0.18488607 0.07724054
000070 9f b2 41 be 6f 8c 70 3c 07 4f 27 bc 20 97 a7 3b
       -0.18915795 0.0146819195 -0.010211713 0.005114451

flows.0.t.0.4.weight f4 [64, 32]
000000 05 a7 d2 3c 87 a0 9e 3d c9 4b 05 3d f6 01 c5 3d
       0.025714407 0.07745462 0.032542977 0.09619515
000010 d1 2c e9 3c 5d bd 81 bd 96 e0 22 be 83 b7 fe bd
       0.028463753 -0.06334946 -0.15905985 -0.12437346
000020 91 69 d5 3c c5 a7 ba bd a3 dd 3c bd 98 69 2b bb
       0.026051315 -0.09114031 -0.046109807 -0.0026155468
000030 12 04 c1 bb c5 4d 09 bc 0a 6c 8a bd dc 94 54 3e
       -0.005890378 -0.008380358 -0.06758888 0.2075991
000040 95 a2 c5 bd c6 c4 21 3e 2f 94 61 be b0 d0 da bc
       -0.09650151 0.1579772 -0.22029184 -0.026710838
000050 8b a9 f1 bc 7b 7c 7a 3b 0e 09 20 3e 27 f0 85 3d
       -0.02949979 0.0038221169 0.15628454 0.06539946
000060 b8 be f2 3c 8c ad 09 3d 43 f5 23 3d 3a 15 50 3e
       0.029631957 0.033612773 0.04002882 0.20320597
000070 c4 b7 df 3d 4e 15 94 3c 29 bb fa bc 51 56 21 be
       0.109237224 0.018076565 -0.030606823 -0.15755583
000080 49 57 86 3d b1 de 35 be ed e7 7e bd 7e 47 03 3e
       0.06559617 -0.17760731 -0.0622329 0.12820241
000090 8f 01 51 be 1e b7 ba 3b ef 42 cd bd f5 34 e9 3d
       -0.20410751 0.005698099 -0.10022532 0.11387054
0000a0 de 7a da 3d f8 42 0f bd 65 de 36 3e 93 80 85 3d
       0.10667966 -0.034975976 0.17858274 0.06518664
0000b0 36 44 b1 3d 68 9c aa 3d 6a 5e 7f 3d 90 03 5c 3e
       0.08655588 0.083306134 0.0623459 0.21485734
0000c0 80 81 63 bd 69 6f 9b 3e b5 39 23 3d 03 bc 2d 3d
       -0.055543423 0.30358437 0.039849956 0.04241563
0000d0 94 cd 4b be 5d af 7c bd e2 30 ed 3d 05 9e 3c bd
       -0.1990264 -0.061690677 0.11581589 -0.046049137
0000e0 eb 4e 14 bd 32 a0 89 3e 43 a3 37 be bf 1a 9e 3e
       -0.036208075 0.26880032 -0.17933373 0.3087978
0000f0 13 e0 b8 bc f0 66 82 be c9 00 42 be 5d 3d b0 3c
       -0.022567784 -0.2546916 -0.18945612 0.021513635
000100 e3 08 01 3d b7 38 bf bd 2e 02 a5 bd 0c da 39 3e
       0.031502616 -0.093369894 -0.08057056 0.18149585
000110 d8 66 c8 bd f1 41 3e 3d ff 66 ac bd b9 b6 de bd
       -0.09785241 0.046449605 -0.084180824 -0.10874695
000120 22 23 d0 3a 4e 3a 98 bd 38 4e 4e be 84 f0 92 3d
       0.0015879611 -0.07432996 -0.20147026 0.07174781
000130 95 c2 71 bd 26 c4 38 be 27 2c 8a bc 46 b6 23 bc
       -0.05902346 -0.18043575 -0.016866757 -0.009992188
000140 9e c7 da bd 5d 96 dc 3c 37 e9 a3 bd d6 00 43 3c
       -0.10682605 0.026927168 -0.080034666 0.011902055
000150 88 c2 16 3d bb d1 9a bd fe 14 a1 bd 33 c4 d0 bc
       0.036806613 -0.07559534 -0.07865332 -0.02548418
000160 05 83 16 3c 0b 4e 44 3d fe b3 97 3d 12 65 3b be
       0.009186511 0.04792599 0.07407378 -0.18300274
000170 fe b8 b6 3d 9a b1 67 bd fd de 7b bc 73 bf ed 3d
       0.08922003 -0.05656586 -0.015372989 0.11608782
000180 7f 40 29 bc d7 0b b4 bd 02 b5 91 be 3c 3f 8e be
       -0.0103303185 -0.08791321 -0.2845841 -0.2778262
000190 23 26 7b 3d fd 2a 95 3c f0 07 d4 bd 32 4f 16 be
       0.061315667 0.018208975 -0.103530765 -0.14678648
0001a0 01 56 b4 3c ad d5 27 be 23 e2 eb bd 42 14 d4 3c
       0.022013666 -0.16390105 -0.115177415 0.025888566
0001b0 9b 59 45 bc 7c 06 1d 3e 93 cf 3d be ab ee 7f 3d
       -0.012045289 0.15334505 -0.18536215 0.06248347
0001c0 bd 12 17 be 9c 36 c8 bc 36 ea 0b 3d de 56 f7 3c
       -0.14753242 -0.024440102 0.034158908 0.030192789
0001d0 f7 fc b0 bd fc bb ff 3c cd b2 47 3c 44 20 54 bd
       -0.08641999 0.031217568 0.0121886255 -0.051788583
0001e0 5d c8 a8 bc 2e e1 ef bd 5e 5e 8a 3e e3 23 f0 bd
       -0.020603353 -0.117128715 0.2702512 -0.11725595
0001f0 4c af cf bd 2b 51 24 3e 73 58 82 3d 68 af 26 3e
       -0.10140857 0.16046588 0.063645266 0.1627785
000200 9f 46 e2 3d 24 55 0a be d6 17 63 3d 29 f5 e1 bd
       0.11048626 -0.13509041 0.055442654 -0.11033089
000210 98 d5 26 3d d2 29 1c 3e a5 29 5a bd 88 34 7f be
       0.040731043 0.15250328 -0.05326237 -0.24922383
000220 19 a7 31 3d bf a1 05 be 6b 58 8b 3d 1a a3 e1 3b
       0.043372247 -0.13049982 0.06803974 0.0068858983
000230 4b eb a8 3c 8b 85 24 3e 92 b9 0e 3d 29 45 83 3d
       0.020620009 0.16066568 0.034844942 0.06409676
000240 80 15 db 3d 04 18 60 3e 44 28 a8 bd 28 0e 3c 3e
       0.1069746 0.21884161 -0.08210805 0.18364775
000250 96 45 8a bd c6 90 0a be 82 a2 8c 3d 9c 44 63 3d
       -0.06751554 -0.13531789 0.068669334 0.055485353
000260 ab e2 fb 3c 5d 02 b6 3d b5 80 cb 3d 0a d4 e7 3d
       0.030747732 0.088871695 0.09936658 0.1131974
000270 af b7 06 3e 3e 10 03 be ab 90 36 be bf 84 dd 3d
       0.13156007 -0.12799165 -0.17828624 0.10816335
000280 c3 54 68 3c 7e 7f a2 bc 7a 5d dd 3a ae 98 49 bd
       0.014180365 -0.019836184 0.001688882 -0.049217872
000290 0e d9 bc 3d 09 2a bb 3c a5 f1 1a 3d b9 e1 bf bd
       0.092210874 0.022847192 0.037828106 -0.09369225
0002a0 43 08 0f bc f6 76 1c 3b ed e7 4f bd df 06 35 bd
       -0.008729997 0.0023874617 -0.05075829 -0.044196006
0002b0 0a 8e 16 3c 37 82 77 be 1a a9 f1 3d 65 2b 95 bd
       0.009189138 -0.24170767 0.11799832 -0.072836675
0002c0 90 5b 97 3a a2 1a a3 3c 94 a1 13 3d 15 32 48 3d
       0.0011547673 0.01991016 0.036042765 0.048875887
0002d0 d8 b7 02 3e 84 7a 0a 3c b5 66 54 3c 21 0d ba b9
       0.12765443 0.008452062 0.01296394 -0.00035486466
0002e0 ca 46 03 bc e1 ad 55 bd 89 6f 07 be d4 67 6c 3d
       -0.008012483 -0.052167777 -0.13226141 0.057716206
0002f0 1a 17 63 3c fd 84 db bc 18 f2 46 3c 55 e4 39 3d
       0.013860488 -0.026796812 0.012142681 0.04538377
000300 d8 2f 35 3e 6d f0 20 3c 7e 00 33 be ce 03 99 3d
       0.17694032 0.009822947 -0.17480657 0.07471429
000310 04 a8 8e 3d fb 0d 17 3e 19 bd de bd ae d6 75 3c
       0.0696564 0.14751427 -0.10875911 0.015004797
000320 3c 29 0e bd f3 aa cc 3d eb 10 14 3e 34 d8 06 be
       -0.034707293 0.099935435 0.14459579 -0.13168412
000330 da 7e 02 bc ad 67 24 3d b6 81 ff bc eb 36 39 bd
       -0.007964814 0.040137935 -0.03118978 -0.04521839
000340 60 a1 45 3d f3 98 8b 3b d5 6d f7 3d 7f 62 38 3e
       0.048249602 0.0042601763 0.12081496 0.18006323
000350 69 b6 b5 bd 4a 30 57 bd c4 8c f9 3c f6 de 6e bd
       -0.088726826 -0.052536286 0.03046263 -0.0583181
000360 c4 a3 de bd 42 d6 0f 3d 4f 24 11 3e 6f ec 0b 3d
       -0.108710796 0.03511644 0.14174007 0.034161028
000370 78 88 2c be cf a0 86 3c 5a a2 d7 3d 5a b1 2b 3e
       -0.16848934 0.016434101 0.10529013 0.16766873
000380 f5 02 b2 3a cd a4 01 bd 2f 45 fd 3d 8f 36 6a 3e
       0.0013581204 -0.031651307 0.12366711 0.22872375
000390 23 e4 b5 bd bc cc 81 be 8f 29 13 3e 49 b6 4a 3e
       -0.08881404 -0.25351512 0.14371322 0.19796099
0003a0 41 6a ef bd fa d7 88 3d 4d b4 c7 3d 91 45 49 be
       -0.11690188 0.06681819 0.097511865 -0.19655444
0003b0 b9 4c 36 be 2a c6 96 3e cc d6 d5 bb b8 43 eb 3d
       -0.17802705 0.29448062 -0.00652585 0.11487526
0003c0 0a 97 75 3d 4d 12 19 3e 8a d6 1f be fc fe 9d be
       0.059958495 0.14948387 -0.15609184 -0.308586
0003d0 cd e9 09 bc 07 9f 71 3e a7 c9 00 3e ad 71 ba ba
       -0.008417559 0.2359582 0.12576924 -0.0014224552
0003e0 36 40 32 3e a1 cf ff 3c 17 81 7b be 08 1c 96 3c
       0.17407307 0.031226935 -0.24560963 0.018323913
0003f0 da 84 5e bd 07 2b 1e be 67 e0 f2 be 51 4d cb bd
       -0.054325916 -0.15446101 -0.4743683 -0.09926856

flows.0.t.0.4.bias f4 [64]
000000 4c dc c7 3d 94 87 00 3f d2 d6 01 3f 12 f7 a3 bd
       0.09758815 0.50206876 0.50718415 -0.08006109
000010 ce f3 71 3e 31 eb 70 3e a3 3f bb bd 7e 3d 8a 3e
       0.2362816 0.23527218 -0.09142997 0.2700004
000020 c1 db ec 3e 06 94 cd 3d 4b f2 58 3e 68 13 13 bd
       0.4626141 0.10037999 0.21186177 -0.03590718
000030 7b df 4b 3e 17 5d 56 3e c7 7a 11 be 3b 0e 0d be
       0.1990947 0.20933948 -0.14206992 -0.1377496
000040 95 df 4a 3e fb f9 5f 3e cf 90 f7 bd a2 6d a1 bd
       0.19811852 0.21872704 -0.12088167 -0.07882239
000050 2e 47 36 3d 51 b5 54 3d 3b c5 24 be 45 a8 bc be
       0.044501476 0.05193073 -0.16090862 -0.3684713
000060 13 1a 24 3e 9a d0 b0 bd 13 72 2b be 49 c6 96 3d
       0.16025572 -0.086335376 -0.16742735 0.07362039
000070 64 57 16 bd a1 97 9a bd c7 45 c3 3d 01 82 ab 3e
       -0.036704436 -0.07548452 0.09534793 0.33497623
000080 00 c7 1f be e5 20 ae 3b ca b2 2d be e3 4b 22 3e
       -0.15603256 0.00531398 -0.16962734 0.15849261
000090 f3 4b ce 3d f9 b0 27 be c4 8a a3 3d 29 33 da bd
       0.1007308 -0.16376103 0.07985452 -0.10654289
0000a0 85 bd 8c bc a5 75 9c 3d ee 85 2e 3e e8 18 c7 3d
       -0.017180214 0.076396264 0.17043278 0.09721547
0000b0 5b 4d 1a 3e 24 bc 51 3d 7f 94 88 3d 96 b3 d0 bd
       0.15068571 0.051204816 0.066689484 -0.10190503
0000c0 c4 db 8f 3d 16 79 5c bc 32 40 d8 3d fe 6e 9c ba
       0.07024339 -0.0134566035 0.10559119 -0.0011934934
0000d0 50 50 b3 bd 7e 6a 0c 3e 2c 8c b5 bd d5 0d 89 3d
       -0.08755553 0.13712499 -0.08864626 0.066920914
0000e0 63 2a 30 be c7 96 21 3e 19 fa 30 3d 8a f3 0e 3d
       -0.17203669 0.15780173 0.04320726 0.034900226
0000f0 c2 0a 4f 3d 2b 0b d1 bd ac a4 9b 3d f8 64 af bc
       0.05054737 -0.10207208 0.07599768 -0.02141045

flows.0.t.1.0.weight f4 [32, 64]
000000 9d 47 07 3d 48 62 bb 3c c1 25 93 3e 71 fd 84 be
       0.03302728 0.022874013 0.2873974 -0.2597461
000010 e5 12 95 3d fe 61 7e be 48 1f 89 3e ba a4 15 be
       0.072789945 -0.24842069 0.26781678 -0.1461362
000020 bd d2 7b bd 9a eb e7 3d 67 22 c3 be 83 ca a6 3c
       -0.061480273 0.11324234 -0.38112184 0.020360237
000030 b0 03 0a 3e c2 85 88 3d a1 33 9c bc d9 d5 66 be
       0.13477969 0.06666137 -0.019067587 -0.22542514
000040 76 bb 08 be e2 e0 d5 3c 67 97 02 3e 4a 32 7d 3e
       -0.1335276 0.026108209 0.12753068 0.24726215
000050 cf 38 6c bd 8f 6c 7b bd b8 3c a0 3e 77 d6 1d be
       -0.057671364 -0.061382826 0.31296325 -0.15413843
000060 ea cd 86 bd e1 a9 f3 b7 53 f9 b7 be 2b 83 92 3e
       -0.06582244 -2.9046963e-05 -0.35932407 0.28615698
000070 fd 99 d2 bd 99 24 19 3c bd 6e 82 be b1 2b 9b bd
       -0.10283277 0.0093471045 -0.25475112 -0.07576693
000080 b4 ad a5 bd 38 0f ed 3c 00 75 a0 ba e0 d7 9c bd
       -0.08089772 0.02893792 -0.00122419 -0.076583624
000090 24 c2 77 bd 10 65 a0 3d 00 8c 16 bc 50 35 91 3c
       -0.06048788 0.07831776 -0.009188652 0.017725617
0000a0 46 6a 99 3d 30 76 df bc ea 2f 9a bd 7a 95 84 bd
       0.07490973 -0.027278036 -0.0752867 -0.06473823
0000b0 d0 56 41 3d d8 4c 85 bd 40 8b 68 bb 54 43 a3 bd
       0.04720193 -0.065087974 -0.003548339 -0.07971826
0000c0 48 78 d7 3c d2 a9 d6 3d 80 aa 2d 3c 68 9e 91 3c
       0.026302472 0.104816094 0.010599732 0.01777573
0000d0 18 ed ac 3c ce 95 e7 3d 14 da bf bd ac 3d 1d bd
       0.021109149 0.1130787 -0.09367767 -0.038388893
0000e0 70 e5 b9 3c 26 da 8a 3d 34 63 4f bd 30 ea 41 3d
       0.022692412 0.0677989 -0.050631717 0.04734248
0000f0 90 5b 6e 3d 1e 4c e3 3d 42 41 ca 3d c0 79 a3 3d
       0.05819279 0.110985026 0.09875728 0.07982206
000100 16 b1 97 bd 2d c9 0d 3e e3 09 0e be 4b 6a 77 3e
       -0.07406823 0.13846274 -0.13870959 0.24161641
000110 b1 68 19 3c b6 c3 88 3e 1c 5d 14 be ad a8 fc 3b
       0.009363339 0.26711816 -0.14488643 0.0077105374
000120 14 63 ec bc 0d 43 1d be 36 a0 9f 3d 1f 34 96 3e
       -0.028855838 -0.15357609 0.0779423 0.2933664
000130 0c 57 33 bd c2 df 15 bd aa ac de bd 30 87 e2 3d
       -0.043784186 -0.036590345 -0.10872777 0.11060941
000140 98 e7 b1 bd a7 1c 37 3d d4 af 2d 3e e2 66 7d 3e
       -0.08686751 0.04470506 0.16961604 0.24746278
000150 7c b4 02 be 29 16 6a 3e 8a 2a 71 be 26 ff 31 3e
       -0.12764162 0.22860016 -0.23551384 0.17382488
000160 78 0d 47 bd 2e 61 87 3e 32 3f 8c ba 6b 0b 06 bf
       -0.04859683 0.2644133 -0.0010699986 -0.5236117
000170 3d 85 b2 bc df 13 12 3e 57 f1 21 be 4e f5 a6 bc
       -0.021792049 0.14265393 -0.1581472 -0.020380642
000180 86 ad ed bd a4 aa 7d bd c8 a0 e1 bd 2c 46 5b 3d
       -0.116053626 -0.061930314 -0.11016995 0.053533718
000190 ce a4 c3 3d 86 12 af bd 0a d9 b3 3d a0 99 17 bd
       0.095529184 -0.08548455 0.08781631 -0.037011743
0001a0 f4 23 0b bd 40 61 0b bb 20 96 70 3d c0 5a c7 bc
       -0.033969834 -0.0021267682 0.05873692 -0.024335265
0001b0 64 8c 4b 3d 80 9c c2 3a 40 52 dd bb 82 dc 9d 3d
       0.049694434 0.0014847666 -0.0067541897 0.07708074
0001c0 5a d6 c7 bd 24 bc 69 bd f0 fd 2d 3d 20 3c 8b 3d
       -0.09757681 -0.05706419 0.0424785 0.06798577
0001d0 fc f3 6a bd 24 d4 ad bd 9c 9f 0e bd 6c af f9 bd
       -0.057361588 -0.08487728 -0.034820184 -0.12191662
0001e0 b8 cc cd bd 1a 6e b7 3d ba d3 dd bd ec 37 8d bd
       -0.10048813 0.08956547 -0.10831399 -0.06895432
0001f0 90 8b 8c bc 1e 37 ef 3d c0 52 e8 3d 50 68 21 3c
       -0.017156392 0.11680435 0.11343908 0.00985153
000200 87 30 3f bd a7 07 dd 3c d9 e3 1a 3e 1d 50 e7 3c
       -0.04667714 0.026981188 0.1512598 0.028236443
000210 ce b1 c6 3d ff f0 9b be 1e ed c5 3e d0 c1 06 be
       0.09701882 -0.30457303 0.3865747 -0.13159871
000220 2a ef ef bd a6 4f a3 3c 15 54 42 bf 9e 9a d4 be
       -0.11715539 0.01993544 -0.7590955 -0.41524214
000230 24 31 a1 bd 20 4d 5a bd 8d 59 1e be fb dc 0b 3e
       -0.07870701 -0.05329621 -0.15463848 0.13658516
000240 60 37 ff bd c4 4a 38 bd 97 00 69 3e 6b 1e 10 3f
       -0.12461734 -0.044993177 0.22754131 0.56296414
000250 ed d3 aa bc ac e0 25 3d 4f 04 91 bd f3 d8 b3 bc
       -0.020853007 0.040497467 -0.070809 -0.021954035
000260 68 2d 50 bd 09 88 96 3d e7 9f 10 be 21 b1 e2 be
       -0.050824553 0.073501654 -0.14123498 -0.44275764
000270 53 4d 1f bd 43 a7 03 bc bc f0 f5 bd 8e db 1c be
       -0.0388921 -0.008035484 -0.12008807 -0.15318128
000280 94 ae ee 3d 84 e3 45 3d 2c c7 3d 3d d0 58 11 3c
       0.11654392 0.04831268 0.046332523 0.008871272
000290 42 b9 8e 3d e0 02 9e 3b 60 ad c7 bc e6 b0 96 3d
       0.06968929 0.00482212 -0.024374664 0.073579594
0002a0 b8 24 a5 3c de ca 9a bd 80 1e a3 3b 80 b3 4c 3b
       0.02015911 -0.07558225 0.004978001 0.003123492
0002b0 90 6f da 3c 28 63 8f bd b0 60 22 3c fa db fd bd
       0.026664525 -0.070013344 0.009910747 -0.12395473
0002c0 48 32 33 3d bc 00 1d bd c4 d2 88 bd a0 20 77 bd
       0.043749124 -0.03833078 -0.06680825 -0.060333848
0002d0 9a 76 ed bd 66 59 c9 bd 04 8e b9 bd 00 55 62 ba
       -0.11594887 -0.098315045 -0.090602905 -0.0008633882
0002e0 d0 cb 4f 3d 5a e7 8f 3d c8 90 c9 3c ba 06 99 bd
       0.05073148 0.07026549 0.02460517 -0.07471986
0002f0 7c 17 4c bd 16 82 e4 bd 88 ec 37 3d e2 0a bc bd
       -0.049827084 -0.111576244 0.04490331 -0.09181763
000300 19 7d ff 3c 85 b7 91 3d f3 4e 3e be af 8c 88 3d
       0.03118758 0.07115082 -0.18584804 0.06667458
000310 bb 72 fc bd 73 fa 80 bd 42 12 5b 3d ff d0 29 3d
       -0.123265706 -0.062977694 0.05348421 0.04145908
000320 00 9a f7 bc 8b 0d 98 bd 22 9c 9a 3e 4a a3 c2 3d
       -0.0302248 -0.07424458 0.30197245 0.09503801
000330 37 04 23 be 38 a0 03 be a4 85 e0 be a8 1c 49 be
       -0.15919577 -0.12854087 -0.4385196 -0.19639838
000340 53 44 0a be a2 e6 31 3e 83 3a 8e 3e 40 90 20 bc
       -0.13502626 0.17373136 0.27779016 -0.009800017
000350 01 93 01 be 8c dd ba 3d af 0c 4b bd 84 ec 9f bd
       -0.12653734 0.09124288 -0.049572643 -0.07808784
000360 a4 37 1d 3e de 3a d6 bd 49 00 d9 bd e3 05 e2 3e
       0.15353256 -0.10460447 -0.105957575 0.44145116
000370 31 59 ef bc e3 9c 7a bd eb 86 42 3e 30 10 42 3d
       -0.029217334 -0.061184775 0.1899678 0.04737872
000380 8e 61 cf bd 8a 15 9a bd d4 83 a6 3d 40 42 13 bd
       -0.10126029 -0.075236395 0.08130613 -0.035951853
000390 74 04 cf 3d 30 55 07 3d 34 c8 9e bd c0 f7 35 3d
       0.10108271 0.033040226 -0.077530295 0.044425726
0003a0 40 e6 c5 bd 04 00 be bd f0 39 38 bc 9c e4 58 3d
       -0.09663057 -0.09277347 -0.011244282 0.052952394
0003b0 8a 64 b5 bd 40 e1 df bc 8c 17 77 3d 10 66 48 3d
       -0.08857067 -0.027329087 0.06032519 0.04892546
0003c0 ba 51 c3 bd d8 9a 8c 3d 8c f1 59 bd 14 f3 09 3d
       -0.095370725 0.068654716 -0.053208873 0.033679083
0003d0 c8 73 83 bd e0 92 7f 3d 40 0d 34 bd fe 1d ed 3d
       -0.06418568 0.06239593 -0.04395795 0.11577986
0003e0 60 8c c1 bc 38 4d da bd 22 8e 81 3d 68 f7 bc bc
       -0.023626506 -0.106592596 0.06325938 -0.023067191
0003f0 00 d9 eb bc e0 9f f6 3c e2 41 a6 bd 8e be 89 bd
       -0.028789997 0.030105531 -0.08118035 -0.067257985

flows.0.t.1.0.bias f4 [32]
000000 b6 8d b2 3e 0b 21 44 be 0d e1 77 3d 33 a0 f6 bd
       0.34873742 -0.1915323 0.06051736 -0.12042274
000010 9a 50 85 bd 58 39 7f 3d d2 cb 57 3e 33 79 81 3e
       -0.06509514 0.062310547 0.21073845 0.2528778
000020 50 fe 3a 3b ea 29 8d 3e 6f 89 03 3e 57 a9 9b 3e
       0.002853293 0.2757104 0.12845396 0.30402634
000030 43 b4 89 3e 1f e0 a5 3e b2 da 0f 3e 4b 89 77 3e
       0.2689534 0.32397553 0.1404827 0.24173467
000040 83 b4 9d 3e 05 ea 89 bd c5 0b 64 3e 67 b7 22 3e
       0.30801782 -0.06734089 0.22270115 0.15890275
000050 c1 51 16 bd 2b 15 fa bc 1f 7c bc bc 96 ca 08 3d
       -0.03669906 -0.030527672 -0.023008404 0.033396326
000060 49 dd cd bd a3 61 05 3d 4d 2f 1f be 78 bd 5c 3e
       -0.100519724 0.032563817 -0.15545388 0.21556652
000070 ff 73 85 3e e5 d4 34 3d 9d f8 ca 3e 10 67 4d 3d
       0.2606506 0.044148345 0.39642802 0.050147116

flows.0.t.1.2.weight f4 [32, 32]
000000 18 91 1c 3e e3 2a a8 3c 3d d3 9b bb 36 d8 12 3e
       0.15289724 0.020528262 -0.004755406 0.1434029
000010 06 e8 8b 3c f6 a6 11 be cd 15 24 3d a1 8d e8 bc
       0.01707841 -0.14223847 0.040059853 -0.028387846
000020 8a 37 fa bd cf e3 c0 3d 89 a7 02 be 70 82 14 3e
       -0.122176245 0.09418451 -0.12759222 0.14502883
000030 a5 c1 59 3d 66 1b 2a be 2a 26 e2 bd 8b 42 6d 3d
       0.05316319 -0.16612014 -0.110424355 0.05792479
000040 d3 aa 2a bc d5 f0 98 bd e2 43 68 bd 37 06 5c bb
       -0.010416704 -0.0746781 -0.056705363 -0.003357304
000050 34 c5 44 be 57 7b b0 bc 9c 46 e0 bc b7 0e 16 3d
       -0.19215852 -0.021543188 -0.02737742 0.036635127
000060 d9 ee b4 be b7 81 18 bb 56 04 16 be 7a d9 47 3c
       -0.35338476 -0.0023270675 -0.14650092 0.012197847
000070 63 35 de bd e4 ff 49 3e 26 90 c4 bd 51 1e 19 3c
       -0.108500265 0.19726521 -0.09597807 0.009345607
000080 b0 92 8b 3d 33 f1 47 be 3d c4 b7 bc 40 2b 17 3d
       0.06815088 -0.19525604 -0.02243244 0.03690648
000090 07 bf 37 3e ec 2c 2f 3e 54 12 81 3e b5 03 28 3e
       0.17943965 0.1710698 0.25209296 0.16407664
0000a0 3a 7e 74 3e 53 70 c1 3d d1 f9 a2 be e1 30 80 bd
       0.23876277 0.09445252 -0.3183122 -0.06259323
0000b0 f0 68 fd 3b d6 17 20 3d d7 c2 8f bd 43 48 b2 3d
       0.007733457 0.03908523 -0.070195846 0.08705189
0000c0 45 28 c1 bd ed 47 37 3e 52 23 34 3e cc 53 4b bd
       -0.09431509 0.17898531 0.17591599 -0.04964046
0000d0 f7 ef f1 3d 89 2a 37 3e 27 0e b8 3e 30 48 a3 3d
       0.11813348 0.1788732 0.35948297 0.07972753
0000e0 8c 39 f6 3d 2d d2 ef bd b0 3b 33 be 09 ab a9 3c
       0.12022695 -0.1171001 -0.17503238 0.020711439
0000f0 0c bf 02 be 28 bd 4d bd c3 89 de bd 32 80 01 bd
       -0.12768191 -0.05022922 -0.1086612 -0.031616397
000100 60 b7 2d be bc ea f2 bd 7b 5d 7a be 8e ad 3b 3e
       -0.16964483 -0.11861178 -0.24449722 0.18327925
000110 41 36 d4 3d e3 45 5d be bf 49 33 be 33 81 a4 bd
       0.103619106 -0.21608691 -0.175086 -0.08032455
000120 66 59 6f bb 5c e7 10 3e 45 ae 34 bd 31 6d f9 3c
       -0.0036521791 0.14150757 -0.04411151 0.030447574
000130 ca da 61 3e 9c 7e f0 bd e3 36 88 bc 8e b2 60 3d
       0.22056118 -0.11742899 -0.016627735 0.054857783
000140 dc b6 a2 3d 15 31 0b b9 1f 67 c6 bb 42 22 7e 3e
       0.07945034 -0.00013274357 -0.0060547735 0.24817756
000150 6c 85 09 bf 63 12 ac 3d 5a ba 15 be 63 4e ac 3c
       -0.5371921 0.084019445 -0.14621869 0.021033471
000160 22 ab 97 be ac af f1 3d 38 ab 0c 3e a4 c8 f5 3d
       -0.2962275 0.11801085 0.1373719 0.1200116
000170 53 69 17 3e 38 86 bf be 5f 8e 41 be 3d 6c eb 3d
       0.14786272 -0.37407088 -0.18901967 0.11495254
000180 fe 9e 17 3d 88 2d ab 3d bc cf 26 bd 7e 9d 17 be
       0.03701686 0.08358294 -0.040725455 -0.14806172
000190 6e c9 2a 3d 40 bf 99 3c 4d f5 77 3d 39 6a fa bd
       0.041696005 0.018767953 0.06053667 -0.122272916
0001a0 11 9a 2d be a3 00 a0 3d 34 ba ce 3d 82 fe 1a 3d
       -0.16953303 0.078126214 0.10094109 0.037840374
0001b0 df 54 5b bd 1b 1c 62 bd 5d d6 2b bd 71 b7 25 bd
       -0.053547736 -0.055202585 -0.04195248 -0.040458146
0001c0 84 20 e4 3d 62 a3 27 be 8b 4d 27 3d 87 f1 c2 3d
       0.11139014 -0.1637092 0.040845435 0.09518724
0001d0 1d 59 87 be d9 d0 3a be a7 a6 e4 bd 50 cb 76 bd
       -0.26435176 -0.18243732 -0.11164599 -0.060252488
0001e0 bf a5 ae 3d 86 d4 73 3c ef 17 c0 39 b1 bd b8 bd
       0.08527707 0.0148822125 0.00036638926 -0.09020556
0001f0 b8 46 33 3e 7a fb 40 be 49 1f b9 bb 79 fd f1 bc
       0.17507446 -0.1884593 -0.0056494814 -0.02953981
000200 79 87 62 bd cd 94 ab be d3 7a 08 be c7 cd 6c be
       -0.055304978 -0.33511963 -0.13328104 -0.23125373
000210 59 f9 47 be e4 ae 32 3e e1 dd 73 bc 2f f4 0e 3e
       -0.19528712 0.17449528 -0.014884443 0.13960336
000220 d9 95 9d bd be 42 46 3e a0 d6 88 be 9f 2b fc 3c
       -0.07694597 0.19361398 -0.26726246 0.030782519
000230 63 59 8c 3e 76 f4 ab 3d 89 ea a1 3d af db 30 3e
       0.27411947 0.083962366 0.07906062 0.17271303
000240 1d d2 cb 3d 48 e6 30 be f3 40 28 be b4 ae 4c 3e
       0.09952185 -0.17275345 -0.16431026 0.19988519
000250 28 fc 73 3d d1 53 85 bd 5b d4 7d bb 65 4e 0d bd
       0.059566647 -0.06510127 -0.003873131 -0.03449859
000260 85 4e 46 be a7 82 93 bc 2f 7a 8a bc 68 4f da 3a
       -0.1936589 -0.018006636 -0.016903965 0.0016655745
000270 78 9d 23 3e 10 32 8d 3d 46 26 07 3e 74 d6 45 bd
       0.15978038 0.06894314 0.13198194 -0.04830022
000280 aa db 9e 3e 3d f2 42 be a1 fa be 3d 5d c5 67 be
       0.31026965 -0.19037719 0.093251474 -0.22633882
000290 16 98 8b be 5e cb 3f 3d 6b e2 35 3e d3 46 e7 3d
       -0.2726447 0.046824805 0.17762153 0.112928055
0002a0 96 b7 cb bd 1a 35 29 3b 70 68 20 3e a8 f2 eb 3d
       -0.099471256 0.0025819005 0.1566484 0.115208924
0002b0 95 30 8f bc f4 17 72 3e 41 a4 80 3c 40 9d 8b 3d
       -0.01747922 0.2364195 0.015703322 0.068171024
0002c0 ab 64 90 3e a7 55 f5 3b d3 02 54 3e 9d db 70 be
       0.28201804 0.007487017 0.20704202 -0.23521276
0002d0 6f d2 d9 3c ea 25 1b be 83 a9 45 3d d2 95 b5 bd
       0.0265896 -0.15151182 0.048257362 -0.088664666
0002e0 6d 36 07 3e 65 d3 c2 3c 81 0d 86 3c 27 58 36 3e
       0.13204356 0.023782441 0.016363861 0.17807065
0002f0 f4 a2 f4 3d 1c 5f e8 bc b7 4f 88 3e 4b cc 6c 3e
       0.11945143 -0.028365664 0.26623318 0.23124807
000300 dc 61 ed bd 5e d3 90 3e 01 98 04 bd 0c 1e c7 3b
       -0.11590931 0.2828626 -0.032371525 0.00607658
000310 5c 95 e3 bd 8e 3f 3d bd 25 21 3f 3d 73 2d cd 3d
       -0.111124724 -0.04620319 0.04666247 0.100184344
000320 02 f5 ab bd 11 bc 4c 3e dc f0 18 3e ed 2e 7d 3d
       -0.08396341 0.19993617 0.1493563 0.06181233
000330 4a 2e 7e bd f3 11 22 3d 4b 98 ef bc bf 58 df 3d
       -0.062055863 0.0395679 -0.029247424 0.10905599
000340 02 e9 9a bd 1c e9 15 be d7 c9 b0 3c 97 ab d4 3c
       -0.07563974 -0.14639705 0.02158062 0.025960727
000350 8e ae 19 3b 7f ff 5a 3d 2b 04 44 be 6e 35 80 3d
       0.002344999 0.053466316 -0.19142215 0.06260191
000360 88 63 0d bd eb b1 15 3e fb 74 76 3d 65 d7 86 bd
       -0.03451875 0.14618652 0.060170155 -0.06584052
000370 9c eb 0f 3e e7 84 49 be 2b 24 87 3d 41 8f af bd
       0.14054722 -0.19679604 0.06598695 -0.085722454
000380 81 92 69 be 77 be c8 3d b9 db 93 bd 32 76 cd bc
       -0.22809793 0.09801953 -0.07219643 -0.025080774
000390 ce 39 1d 3d 91 4a 94 3e ec b7 68 be 09 76 c0 bc
       0.038385205 0.2896314 -0.2272641 -0.023493784
0003a0 33 6a 24 be 15 15 8e bd 30 3a 63 bf 4b fb 3f bb
       -0.16056137 -0.06937615 -0.8876066 -0.002929407
0003b0 8b 43 ab 3e 16 d0 e7 3d 6f e0 ff 3d fc 2f 14 bd
       0.3344997 0.11318986 0.12493979 -0.036178574
0003c0 93 e1 17 3d 73 8a c9 be e9 9d 86 bd 1b 15 10 be
       0.03708036 -0.3936344 -0.06573088 -0.14070551
0003d0 81 d6 7f be 83 0a 4e bd 0e dc 5e 3d 3f 85 a4 be
       -0.2498417 -0.050302994 0.05440908 -0.3213291
0003e0 8a 45 80 3d 65 49 2d bc be a7 15 3d f6 80 6b bd
       0.062632635 -0.010576581 0.036536925 -0.057496034
0003f0 c0 eb 4a 3e 56 dd 32 be cf 56 d4 3d 6e 12 97 3c
       0.19816494 -0.17467245 0.1036812 0.018441405

flows.0.t.1.2.bias f4 [32]
000000 e4 72 98 3e cc dc 61 bd 32 59 01 be 3c f3 e0 3d
       0.29775155 -0.05514221 -0.12631682 0.10983893
000010 8d 83 5f 3e 7f c9 d1 3e 11 8d 82 3d 73 e3 9f 3d
       0.21827526 0.40974042 0.063745625 0.07807054
000020 4c 2d 18 3e 6a 5e fb 3d ed 36 3e 3d c0 93 a2 3c
       0.1486103 0.122738674 0.0464391 0.019845843
000030 62 e1 0d be 6d 04 0a 3e 54 32 6e 3e e7 43 a0 3e
       -0.13855508 0.13478251 0.23261386 0.31301805
000040 14 da c0 be 9a 40 69 3e d3 67 24 3d 01 9d 8b 3c
       -0.3766638 0.2277855 0.040138077 0.017042639
000050 d8 db 35 be 2d fe c3 3c ed 49 cb 3e b9 e4 45 3e
       -0.17759645 0.023924911 0.39704838 0.19325532
000060 2c bb 03 3e 9d 6c a3 3e 70 89 98 bd e4 ad c7 bd
       0.12864369 0.31918803 -0.07448089 -0.09749964
000070 90 58 6f bd b0 bd 6d be 4a cf 17 3e 4d e1 0f be
       -0.05843407 -0.23216891 0.14825168 -0.14050789
