code_for_Boids/Models_16birds_2groups/model_16birds_2groups_straight_tensor_kde_4batch_4layer_lr5_931000.pkl (torch, 548793 bytes, 196 tensors)

flows.0.mask f4 [6, 64]
000000 00 00 00 00 00 00 00 00 00 00 00 00 00 00 00 00
       0.0 0.0 0.0 0.0
000010 00 00 00 00 00 00 00 00 00 00 00 00 00 00 00 00
       0.0 0.0 0.0 0.0
000020 00 00 00 00 00 00 00 00 00 00 00 00 00 00 00 00
       0.0 0.0 0.0 0.0
000030 00 00 00 00 00 00 00 00 00 00 00 00 00 00 00 00
       0.0 0.0 0.0 0.0
000040 00 00 00 00 00 00 00 00 00 00 00 00 00 00 00 00
       0.0 0.0 0.0 0.0
000050 00 00 00 00 00 00 00 00 00 00 00 00 00 00 00 00
       0.0 0.0 0.0 0.0
000060 00 00 00 00 00 00 00 00 00 00 00 00 00 00 00 00
       0.0 0.0 0.0 0.0
000070 00 00 00 00 00 00 00 00 00 00 00 00 00 00 00 00
       0.0 0.0 0.0 0.0
000080 00 00 80 3f 00 00 80 3f 00 00 80 3f 00 00 80 3f
       1.0 1.0 1.0 1.0
000090 00 00 80 3f 00 00 80 3f 00 00 80 3f 00 00 80 3f
       1.0 1.0 1.0 1.0
0000a0 00 00 80 3f 00 00 80 3f 00 00 80 3f 00 00 80 3f
       1.0 1.0 1.0 1.0
0000b0 00 00 80 3f 00 00 80 3f 00 00 80 3f 00 00 80 3f
       1.0 1.0 1.0 1.0
0000c0 00 00 80 3f 00 00 80 3f 00 00 80 3f 00 00 80 3f
       1.0 1.0 1.0 1.0
0000d0 00 00 80 3f 00 00 80 3f 00 00 80 3f 00 00 80 3f
       1.0 1.0 1.0 1.0
0000e0 00 00 80 3f 00 00 80 3f 00 00 80 3f 00 00 80 3f
       1.0 1.0 1.0 1.0
0000f0 00 00 80 3f 00 00 80 3f 00 00 80 3f 00 00 80 3f
       1.0 1.0 1.0 1.0
000100 00 00 80 3f 00 00 80 3f 00 00 80 3f 00 00 80 3f
       1.0 1.0 1.0 1.0
000110 00 00 80 3f 00 00 80 3f 00 00 80 3f 00 00 80 3f
       1.0 1.0 1.0 1.0
000120 00 00 80 3f 00 00 80 3f 00 00 80 3f 00 00 80 3f
       1.0 1.0 1.0 1.0
000130 00 00 80 3f 00 00 80 3f 00 00 80 3f 00 00 80 3f
       1.0 1.0 1.0 1.0
000140 00 00 80 3f 00 00 80 3f 00 00 80 3f 00 00 80 3f
       1.0 1.0 1.0 1.0
000150 00 00 80 3f 00 00 80 3f 00 00 80 3f 00 00 80 3f
       1.0 1.0 1.0 1.0
000160 00 00 80 3f 00 00 80 3f 00 00 80 3f 00 00 80 3f
       1.0 1.0 1.0 1.0
000170 00 00 80 3f 00 00 80 3f 00 00 80 3f 00 00 80 3f
       1.0 1.0 1.0 1.0
000180 00 00 00 00 00 00 00 00 00 00 00 00 00 00 00 00
       0.0 0.0 0.0 0.0
000190 00 00 00 00 00 00 00 00 00 00 00 00 00 00 00 00
       0.0 0.0 0.0 0.0
0001a0 00 00 00 00 00 00 00 00 00 00 00 00 00 00 00 00
       0.0 0.0 0.0 0.0
0001b0 00 00 00 00 00 00 00 00 00 00 00 00 00 00 00 00
       0.0 0.0 0.0 0.0
0001c0 00 00 00 00 00 00 00 00 00 00 00 00 00 00 00 00
       0.0 0.0 0.0 0.0
0001d0 00 00 00 00 00 00 00 00 00 00 00 00 00 00 00 00
       0.0 0.0 0.0 0.0
0001e0 00 00 00 00 00 00 00 00 00 00 00 00 00 00 00 00
       0.0 0.0 0.0 0.0
0001f0 00 00 00 00 00 00 00 00 00 00 00 00 00 00 00 00
       0.0 0.0 0.0 0.0
000200 00 00 00 00 00 00 00 00 00 00 00 00 00 00 00 00
       0.0 0.0 0.0 0.0
000210 00 00 00 00 00 00 00 00 00 00 00 00 00 00 00 00
       0.0 0.0 0.0 0.0
000220 00 00 00 00 00 00 00 00 00 00 00 00 00 00 00 00
       0.0 0.0 0.0 0.0
000230 00 00 00 00 00 00 00 00 00 00 00 00 00 00 00 00
       0.0 0.0 0.0 0.0
000240 00 00 00 00 00 00 00 00 00 00 00 00 00 00 00 00
       0.0 0.0 0.0 0.0
000250 00 00 00 00 00 00 00 00 00 00 00 00 00 00 00 00
       0.0 0.0 0.0 0.0
000260 00 00 00 00 00 00 00 00 00 00 00 00 00 00 00 00
       0.0 0.0 0.0 0.0
000270 00 00 00 00 00 00 00 00 00 00 00 00 00 00 00 00
       0.0 0.0 0.0 0.0
000280 00 00 80 3f 00 00 80 3f 00 00 80 3f 00 00 80 3f
       1.0 1.0 1.0 1.0
000290 00 00 80 3f 00 00 80 3f 00 00 80 3f 00 00 80 3f
       1.0 1.0 1.0 1.0
0002a0 00 00 80 3f 00 00 80 3f 00 00 80 3f 00 00 80 3f
       1.0 1.0 1.0 1.0
0002b0 00 00 80 3f 00 00 80 3f 00 00 80 3f 00 00 80 3f
       1.0 1.0 1.0 1.0
0002c0 00 00 80 3f 00 00 80 3f 00 00 80 3f 00 00 80 3f
       1.0 1.0 1.0 1.0
0002d0 00 00 80 3f 00 00 80 3f 00 00 80 3f 00 00 80 3f
       1.0 1.0 1.0 1.0
0002e0 00 00 80 3f 00 00 80 3f 00 00 80 3f 00 00 80 3f
       1.0 1.0 1.0 1.0
0002f0 00 00 80 3f 00 00 80 3f 00 00 80 3f 00 00 80 3f
       1.0 1.0 1.0 1.0
000300 00 00 80 3f 00 00 80 3f 00 00 80 3f 00 00 80 3f
       1.0 1.0 1.0 1.0
000310 00 00 80 3f 00 00 80 3f 00 00 80 3f 00 00 80 3f
       1.0 1.0 1.0 1.0
000320 00 00 80 3f 00 00 80 3f 00 00 80 3f 00 00 80 3f
       1.0 1.0 1.0 1.0
000330 00 00 80 3f 00 00 80 3f 00 00 80 3f 00 00 80 3f
       1.0 1.0 1.0 1.0
000340 00 00 80 3f 00 00 80 3f 00 00 80 3f 00 00 80 3f
       1.0 1.0 1.0 1.0
000350 00 00 80 3f 00 00 80 3f 00 00 80 3f 00 00 80 3f
       1.0 1.0 1.0 1.0
000360 00 00 80 3f 00 00 80 3f 00 00 80 3f 00 00 80 3f
       1.0 1.0 1.0 1.0
000370 00 00 80 3f 00 00 80 3f 00 00 80 3f 00 00 80 3f
       1.0 1.0 1.0 1.0
000380 00 00 00 00 00 00 00 00 00 00 00 00 00 00 00 00
       0.0 0.0 0.0 0.0
000390 00 00 00 00 00 00 00 00 00 00 00 00 00 00 00 00
       0.0 0.0 0.0 0.0
0003a0 00 00 00 00 00 00 00 00 00 00 00 00 00 00 00 00
       0.0 0.0 0.0 0.0
0003b0 00 00 00 00 00 00 00 00 00 00 00 00 00 00 00 00
       0.0 0.0 0.0 0.0
0003c0 00 00 00 00 00 00 00 00 00 00 00 00 00 00 00 00
       0.0 0.0 0.0 0.0
0003d0 00 00 00 00 00 00 00 00 00 00 00 00 00 00 00 00
       0.0 0.0 0.0 0.0
0003e0 00 00 00 00 00 00 00 00 00 00 00 00 00 00 00 00
       0.0 0.0 0.0 0.0
0003f0 00 00 00 00 00 00 00 00 00 00 00 00 00 00 00 00
       0.0 0.0 0.0 0.0

flows.0.t.0.0.weight f4 [32, 64]
000000 ce a7 ce bd b8 f1 79 3d 60 99 f2 bd 8e 1a c7 3d
       -0.100906 0.061021537 -0.1184566 0.09721862
000010 60 69 9e 3c 30 35 0e bc e0 91 8f 3d 28 03 81 3c
       0.019337356 -0.008679673 0.07010245 0.015748575
000020 70 3d c6 bc 40 46 20 3b 44 3c 12 3d a0 5a 92 bd
       -0.024199218 0.0024455935 0.035702005 -0.071461916
000030 f6 e8 bd 3d 24 46 5c 3d 70 ad 96 bc 50 67 e5 bc
       0.092729494 0.05377783 -0.018393248 -0.028003365
000040 ba e2 a9 bd c8 45 e6 3c a0 f4 13 3c c0 bf 9f bb
       -0.08295198 0.028109446 0.009030491 -0.0048751533
000050 cc 26 9e bd b8 f9 84 3d 24 c9 45 bd 98 a1 c4 bd
       -0.07722244 0.064929426 -0.048287526 -0.09601134
000060 ac 45 37 3d 2e 25 ed bd 9e 8e ec bd f8 0c df 3d
       0.04474418 -0.11579357 -0.115506396 0.108911455
000070 92 85 8a bd 1a 36 d5 bd a6 19 ff bd 30 40 3a 3d
       -0.06763758 -0.1041071 -0.12456064 0.04547137
000080 e1 6c a8 3c 01 0a 07 3e 2a e6 b6 bd 69 3c 8e 3d
       0.02055973 0.1318741 -0.08930619 0.06945116
000090 a9 09 a4 bd de 0f fb 3d f5 9e 76 bd 03 3d b7 bd
       -0.08009655 0.12258886 -0.060210187 -0.08947184
0000a0 65 d6 00 be 69 65 2f 3c 2a 99 01 3d 04 21 86 bd
       -0.12581785 0.01070533 0.03164021 -0.06549266
0000b0 55 ec 66 3b 49 76 b7 3d eb b6 81 bd 1d 4e b6 bc
       0.003523608 0.08958108 -0.06333717 -0.022254044
0000c0 c7 3c 69 bd e2 bb 99 3d ab 36 a4 3d 8d ce 4d bd
       -0.056942727 0.07506539 0.080182396 -0.05024581
0000d0 34 2c be 3d a2 1f 45 3d 0c 45 28 bd dd 14 26 3e
       0.09285775 0.04812587 -0.041081473 0.16218896
0000e0 d7 d6 70 bd f2 a9 53 bd 54 33 fd 3c c8 c3 05 be
       -0.058798637 -0.051675744 0.030908264 -0.13062966
0000f0 fe 74 26 bd 7c aa 12 3e af 63 92 bd 4e 88 bb bd
       -0.040638916 0.14322847 -0.071479194 -0.091568574
000100 98 39 2d bd 3c 9b 4e bd b0 d3 46 bc 00 03 67 3a
       -0.042291254 -0.05044101 -0.012135431 0.0008812398
000110 34 51 e6 bd 08 5c 5f bd c0 b7 76 3d 54 2a 4f bd
       -0.11245957 -0.054531127 0.06023383 -0.050577477
000120 a0 31 f5 bc 9c d8 2a bd 38 04 cb bc 76 8c 8f 3d
       -0.02993089 -0.04171048 -0.024782285 0.07009213
000130 8c 7a d7 bd 76 4d ac bd 9c 7a 8d bd 5c 97 12 bd
       -0.10521421 -0.08413212 -0.069081515 -0.03578888
000140 c0 fe 15 bd d0 a6 83 bc ea c4 bc 3d 66 78 ca bd
       -0.0366199 -0.016070753 0.09217246 -0.098862454
000150 38 a2 fd bd 8a 84 ca 3d 6e cc a8 bd 9a cc d8 bd
       -0.123844564 0.09888561 -0.08242117 -0.105859
000160 7c f2 d1 bd ec 7c 0a 3d 1a 50 c1 3d 9a ee bf bd
       -0.10251328 0.03381054 0.09439106 -0.093716815
000170 20 92 c5 3b e8 e1 e7 bc 20 82 c6 3c 28 8a 26 3d
       0.0060293823 -0.028305963 0.02423197 0.0406591
000180 ed 2b bc 3d 09 59 8b bd 69 2d 22 bd f4 08 3d bd
       0.09188066 -0.068040915 -0.039594088 -0.046151116
000190 b4 69 98 bc f0 06 cb bd 2d dd 08 bb ae dc 91 bd
       -0.01860509 -0.099134326 -0.0020883784 -0.071221694
0001a0 d2 17 99 3c 36 21 c9 bc 10 64 53 bd 2e 27 0f 3e
       0.018688116 -0.024551969 -0.0516091 0.1397979
0001b0 82 3b dd 3b 4c 7c a2 bd 4e 4a 9c 3b f8 ee 9d 3c
       0.0067514786 -0.07933864 0.0047696 0.019278988
0001c0 3e a4 98 3c 03 39 a8 bd 1d bd 2d bd 0a be b0 bd
       0.018633004 -0.08213999 -0.04241668 -0.08629997
0001d0 dc 8a 09 3e 91 6b b9 3d 10 09 9f 3d d8 91 ad 3d
       0.13431877 0.0905372 0.077654004 0.08475083
0001e0 db 42 62 bd 13 1b 89 3d 18 da 1d bd 53 e0 71 3d
       -0.05523954 0.06694617 -0.03853807 0.059051823
0001f0 07 72 0e ba 85 dc d8 3c 3b af f3 bc 55 65 9d 3d
       -0.00054338615 0.02647234 -0.029746642 0.07685343
000200 94 15 58 bd de 50 a7 3d 18 e0 99 3c ea 98 8c 3d
       -0.052754954 0.08169721 0.018783614 0.068651035
000210 00 9f 98 3b bc 48 9a bd c6 f6 a3 3d 0a 4d f1 3d
       0.004657626 -0.07533404 0.08006053 0.11782272
000220 50 29 9a bc 00 67 91 ba e4 01 09 bd 18 fd e0 3c
       -0.018818527 -0.0011093318 -0.03344907 0.027464435
000230 be a9 bf bd 10 bd 4a 3d ba f9 be 3d 9a 5a 99 3d
       -0.09358548 0.04949671 0.09324975 0.07487984
000240 fa c6 8f bd 90 7e 87 bd d0 1c c9 bc 50 84 ce 3c
       -0.07020374 -0.06615937 -0.024549872 0.025209576
000250 3e d4 bb 3d d0 26 83 bd 56 bd fd 3d f0 2d 59 bd
       0.09171341 -0.06403887 0.123896286 -0.053022325
000260 e2 29 ff bd d4 2f 7d 3d 3c 4e 4b bd 00 c4 5f bb
       -0.124591604 0.06181319 -0.049635157 -0.0034143925
000270 80 e1 60 bd 3a 22 c4 bd 90 e4 1a 3c 38 c0 ce 3d
       -0.054902554 -0.09576841 0.009453908 0.100952566
000280 07 7e 5f bc a4 21 78 3d 0b 52 18 3e 76 3d 0e bb
       -0.013640887 0.060578957 0.14875047 -0.0021704114
000290 7b 20 5a bd 9c 1a 92 3d d9 5a ab bd 33 c0 d8 bd
       -0.053253632 0.071339816 -0.08366937 -0.10583534
0002a0 94 e6 89 bb e6 42 32 38 a6 30 39 3d 21 95 de bd
       -0.0042083953 4.250081e-05 0.04521241 -0.10868288
0002b0 08 1b 57 bd 92 ca 0c 3d 5d 7e ed bd 1f df 86 3d
       -0.052516013 0.034372874 -0.115963675 0.06585526
0002c0 49 5d be bd 9a 05 f3 bd 2a a0 e0 3b 18 b4 ba 3c
       -0.092951365 -0.11866303 0.0068550305 0.022790954
0002d0 fe d4 9e bd ed d0 48 3d e8 d3 8b 3d d1 f5 4f 3d
       -0.07755469 0.049027372 0.06827527 0.05077154
0002e0 1b 72 af bd d4 b6 5a 3e f4 02 e5 bd eb fc 07 3e
       -0.08566686 0.21358806 -0.11182204 0.13280074
0002f0 a3 4c 28 3d de b9 22 3d f2 4d eb bd c7 82 79 3d
       0.04108871 0.039728038 -0.11489476 0.060915735
000300 00 26 b4 ba c4 fb 7e 3d 14 93 4b 3d 20 47 78 3d
       -0.0013744235 0.06225182 0.04970081 0.060614705
000310 92 d8 ab bd 36 71 81 bd 68 dc 5a bd a0 f9 7a 3d
       -0.08390917 -0.063204214 -0.053432852 0.061273217
000320 10 4f 4b 3c 8a 4d b7 bd 54 51 c5 3d 30 66 b1 3c
       0.012408987 -0.08950336 0.09634653 0.021655172
000330 0c 97 bd bd be 44 a4 bd 1c 3f 13 bd 7c 98 f7 bd
       -0.092573255 -0.08020924 -0.035948858 -0.12089631
000340 20 73 20 bd 08 ab 91 bd bc 7f eb bd 18 e2 86 bc
       -0.03917229 -0.071127 -0.11498973 -0.016465232
000350 d4 b1 33 3d 9e 5d 88 bd 98 a9 3e 3d c8 d8 e2 3d
       0.043870762 -0.06658481 0.046548456 0.11076504
000360 ac 9d fe 3d 10 7f 3f 3c 60 a2 6c bd 18 99 ba 3c
       0.12432417 0.011688009 -0.05777204 0.022778079
000370 5c 00 52 3d fe a7 84 3d ac 05 cb bd 02 dd b2 3d
       0.051269874 0.064773545 -0.09913191 0.0873356
000380 61 86 99 bc 5a 8a 2d bd 98 5a 7f 3d d8 2c d5 bc
       -0.018740835 -0.04236827 0.062342256 -0.02602236
000390 90 6f 46 bd a9 30 7b 3c a7 e9 1a 3e 94 7e 21 be
       -0.048446238 0.015331426 0.15128194 -0.15770942
0003a0 0b e5 10 3d 7c c5 60 3d 9c 7b b6 3d a8 d2 0f 3e
       0.035374682 0.054875836 0.08910295 0.14045203
0003b0 97 b5 7f 3d 77 4b ec 3d c8 0a 4a 3c ad 10 4e 3d
       0.062429037 0.11537831 0.012331672 0.050308872
0003c0 28 a7 ea 3d 43 96 46 3d 2a 94 91 bd 2c f1 1d bc
       0.11457664 0.048483144 -0.07108338 -0.009640019
0003d0 2f 08 c1 3d d3 31 b3 3d 62 92 1a bd 0c 5c 7f 3d
       0.09425389 0.087497376 -0.037737258 0.062343642
0003e0 58 c0 33 bb 28 e4 c7 bc 3b 4d 21 bd e8 37 fe 3c
       -0.0027427878 -0.024400786 -0.039380293 0.031032518
0003f0 9b 7e 86 bd 0b 72 8f 3d cf f0 df 3c 03 00 69 bd
       -0.06567117 0.07004174 0.027336506 -0.056884777

flows.0.t.0.0.bias f4 [32]
000000 31 1a 08 3e 90 dd e5 bc ab ea ec bd d5 f1 d4 3d
       0.13291241 -0.02805975 -0.11568197 0.10397688
000010 69 a8 ff bb 93 85 48 bd 98 79 51 bd 9a 63 92 3d
       -0.0078020585 -0.04895551 -0.05114135 0.07147904
000020 62 f3 83 bd 4e 94 90 3d 16 b7 a4 3d c7 1f 4d 3e
       -0.06442906 0.07059537 0.08042733 0.20031653
000030 70 68 c5 3d 91 88 c9 bd 4a 1c 24 bd 83 df a5 bd
       0.096390605 -0.09840501 -0.04006604 -0.08099272
000040 2e 58 e7 3d f0 19 d2 3c a1 6b eb 3d c5 29 a8 bc
       0.11296116 0.025647134 0.11495138 -0.02052773
000050 3a d3 fd 3d 07 8b 8a bd ac 07 a8 bc e3 7e 97 3d
       0.12393804 -0.067647986 -0.02051147 0.073972486
000060 7c 7f b2 bd 00 74 1b 3d f2 bd a4 bd 72 b1 69 3d
       -0.08715722 0.037952423 -0.08044042 0.05705399
000070 fc f6 85 3d 16 0c b2 bd 20 08 9d bb b2 c9 61 3d
       0.06541249 -0.086937115 -0.0047922283 0.055123992

flows.0.t.0.2.weight f4 [32, 32]
000000 79 67 12 be d0 4a 23 be 84 16 d5 3c b4 ad 07 3e
       -0.14297284 -0.15946507 0.026011713 0.13249856
000010 e5 56 82 bd a4 a6 f1 3d 3e bf 09 3e bd 47 58 3c
       -0.0636423 0.11799362 0.1345186 0.0132006975
000020 04 d7 f6 bd 71 50 20 be 00 5b 7a 3d e2 64 1a bd
       -0.1205273 -0.15655686 0.06112194 -0.037693866
000030 5c 19 04 3e cc 9e 58 bd 93 b7 ce bd 0a f1 18 3e
       0.12900299 -0.052885816 -0.10093608 0.14935699
000040 eb 62 03 3e 60 92 c3 3d 94 af 5e 3d ad 3a fc bb
       0.12830703 0.09549403 0.054366663 -0.0076974244
000050 00 8c 05 bd 79 bc 27 3c 27 e3 af 3c 09 68 ac bd
       -0.032604218 0.0102378065 0.02147062 -0.08418281
000060 f3 14 57 3d 11 b2 bb 3d 4b b7 11 3e 1d 00 72 3e
       0.052510213 0.09164823 0.14230077 0.23632856
000070 de 06 99 3d 29 15 9c 3c 19 d6 51 be 05 24 21 3e
       0.07472013 0.019053059 -0.20491828 0.15736397
000080 ea 45 c1 3d 85 89 20 3e 6e a7 6e bc 3c c3 26 ba
       0.09437163 0.1567746 -0.014566286 -0.00063614896
000090 a7 b2 df 3d 47 7a fb 3c f6 28 2a bd 36 6a ea b9
       0.10922747 0.030697955 -0.04154297 -0.0004471109
0000a0 58 10 2f 3d 96 26 14 3e 36 eb be bc 8a 32 99 3d
       0.042740196 0.14467844 -0.023305517 0.07480343
0000b0 c1 1d 10 be 85 8e 3c 3d 09 af 95 3d 6b f5 00 be
       -0.1407385 0.046034355 0.07308776 -0.1259362
0000c0 a4 40 5e 3e c8 2e 08 be 39 58 f1 bd fe fe 24 3e
       0.21704346 -0.13299096 -0.11784405 0.16112897
0000d0 71 d1 9e 3d 3c 50 c0 3c 9a bb 6d 3e 36 78 ec 3d
       0.077547915 0.023475759 0.23216096 0.11546366
0000e0 ac 92 c5 3d 31 22 29 be 6d 56 31 3e f9 8d bc bd
       0.09647116 -0.16516949 0.17318125 -0.09206767
0000f0 1b 3c b8 3d de df 8d 3d 82 90 ae 3b 82 5c e8 3d
       0.08995839 0.06927465 0.0053272853 0.113457695
000100 e0 42 6d bd 34 48 62 3c 0a 4f 5e bc 37 ed ee 3d
       -0.057925105 0.01381116 -0.013568649 0.11666339
000110 85 03 db 3d a8 41 33 3d fd 28 1d bb b1 85 a5 39
       0.10694031 0.043763787 -0.002398073 0.0003157086
000120 0d 4a ba bd f6 c1 5f 3c bb 29 3a 3e ff ff 37 bd
       -0.09096155 0.013657084 0.18179981 -0.04492187
000130 97 dc 3a 3e 1a c2 84 bb ba 27 3d bd 2e 35 2b 3d
       0.18248211 -0.004051459 -0.046180464 0.041798763
000140 02 7d 22 3e af c6 11 bd c2 10 cf 3d 37 1b 4a bd
       0.15867999 -0.03558987 0.10110618 -0.04934236
000150 6f e4 8e 3d b3 bd bd 3c 21 76 47 3c 99 54 0e be
       0.06977164 0.023161745 0.01217416 -0.13899459
000160 0b b3 15 bd f6 81 73 be 85 1a 1b be 8d 30 bd 3d
       -0.0365477 -0.23780045 -0.15146835 0.09237776
000170 3b da 4c bd 2f 90 46 3e 0d b3 98 bd 6e 7b aa bd
       -0.05001281 0.19390939 -0.07456026 -0.083243236
000180 3b 5b cd bd 07 0b 87 bd e6 00 27 be 2d 43 e6 bd
       -0.100271665 -0.065939 -0.16308936 -0.112432815
000190 17 6e 08 3d 3f 3b aa 3c 45 90 19 be b6 34 23 3e
       0.033308115 0.020780204 -0.1499644 0.15938076
0001a0 0f b7 26 3e 3e 74 e6 bd 50 84 60 3e 6a 68 2f 3e
       0.16280769 -0.1125264 0.21925473 0.17129675
0001b0 e2 64 59 3e 15 34 8d 3d f0 f2 2b 3d 45 6f 01 3e
       0.2122989 0.068946995 0.04197973 0.12640102
0001c0 8b 2e ef 3d 2b 1b 50 3e 7d 6e 39 3e 4a 14 1e 3e
       0.11678799 0.20322864 0.18108554 0.15437427
0001d0 56 d8 55 3d 3a ee 8d bc 4b d5 ab 3d 8d 7e 83 3d
       0.052208267 -0.01732551 0.08390292 0.06420622
0001e0 5d 45 f4 bd ef 40 11 3a 55 50 e7 bd 1d a4 07 be
       -0.119272925 0.0005540987 -0.11294619 -0.13246198
0001f0 42 f7 07 bc 13 c6 28 3e 94 53 81 3d 62 63 32 be
       -0.008298697 0.1648181 0.063147694 -0.17420724
000200 ec 76 af bd 83 0c 17 be b8 3f 46 be d6 31 03 3e
       -0.085676044 -0.14750867 -0.19360244 0.1281198
000210 e8 77 5d 3d c0 82 a6 3d 8d cd 57 bd 29 66 0e be
       0.05406943 0.08130407 -0.052686263 -0.13906159
000220 4f 65 df bd ed b9 a5 3d db bd ba 3d b4 a4 a7 3d
       -0.10907995 0.08092103 0.09118243 0.081857115
000230 cf dc 5c bd e5 f4 e8 3d 54 90 3c bc cf ab 27 be
       -0.053921517 0.11374835 -0.01150902 -0.16374134
000240 8a cf ef 3d f3 44 9d 3d 46 4e b0 bd 66 62 e1 bd
       0.11709507 0.07679167 -0.086086795 -0.11005096
000250 eb c0 eb bc 51 c4 8a 3d a1 60 d1 bd 82 48 19 3c
       -0.028778514 0.06775726 -0.102235086 0.009355666
000260 0c b5 38 be 8a cb 41 3d ff 23 16 3d d2 c2 25 bc
       -0.18037814 0.04731325 0.036655422 -0.01011725
000270 aa 9d a4 3d 16 32 d2 bd 0e 6a 57 be 01 71 d3 3d
       0.080378845 -0.102634594 -0.2103655 0.10324288
000280 56 d2 b6 bd 26 1c 48 bd 8b 44 c9 3d 7c 8e 12 be
       -0.08926837 -0.04885497 0.09827527 -0.14312166
000290 ac ba 10 3d ae 97 e1 bd 9a ba b9 bc da 57 e1 3d
       0.035334274 -0.11015259 -0.022671986 0.110030845
0002a0 ea f2 3a bd c5 af 04 be fc ea 1a 3b 0c a9 8f bd
       -0.045641817 -0.12957676 0.0023638597 -0.07014665
0002b0 38 c6 d9 bd 9e d5 f8 bd c2 27 6c 3d 5d f7 b7 bd
       -0.1063351 -0.12150119 0.057655104 -0.08982728
0002c0 c9 8a 0b bd d5 2e da 3c 72 c1 a8 bd 06 06 94 3d
       -0.034067903 0.02663366 -0.08240022 0.072277114
0002d0 19 69 0d be 06 d5 93 bd 55 d1 eb bd 6b d2 19 bc
       -0.13809623 -0.07218365 -0.11514536 -0.009388546
0002e0 b1 62 22 be 87 ff bc 3d b7 95 f9 bc a8 6c 29 be
       -0.1585796 0.092284255 -0.030466897 -0.16545355
0002f0 01 02 09 3c 42 a2 e2 bc d4 f0 55 3d 87 df 05 bd
       0.008362294 -0.027665261 0.052231625 -0.032683875
000300 7d 94 df 3d ef 2b fa 3d b0 d8 23 bd 98 5a 46 bd
       0.10916994 0.12215411 -0.04000157 -0.04842624
000310 59 87 1a 3e 44 4c 37 bd 6d ef 44 3e 04 fa db bd
       0.15090694 -0.044750467 0.19231959 -0.10741046
000320 17 b3 72 bd b0 b2 00 3d d5 91 36 3d 93 80 90 bc
       -0.059252825 0.03142041 0.04457267 -0.017639434
000330 3a f5 f7 3c 23 68 3d be 6a fd ff 3d 9e b6 6e 3d
       0.0302683 -0.18496756 0.12499507 0.058279626
000340 b3 e1 d3 3d 2e 3a b8 bd 7d a0 56 ba 2d 05 3d bc
       0.10345783 -0.08995472 -0.0008187367 -0.0115368785
000350 85 df 9b 3c a3 8d 20 be 4e 71 cc 3d c9 e1 b8 bb
       0.01902748 -0.1567903 0.09982549 -0.00564215
000360 ce 57 ff 3d 93 ea 18 be 53 8e 06 3e cc 8b 4b bd
       0.12467919 -0.14933233 0.1314023 -0.049693868
000370 c9 01 d9 bd e8 99 d4 3d 8e ac 96 3c f4 88 00 be
       -0.105960436 0.10380918 0.018392827 -0.12552243
000380 18 ab 87 bd 70 b1 c8 3d 7a ae 9e bd 52 8d 64 bd
       -0.066244304 0.097994685 -0.077481225 -0.055798836
000390 a4 77 04 3e 02 af 13 3e 96 a7 98 3c b0 f0 6f 3d
       0.12936264 0.14422229 0.018634599 0.058579147
0003a0 bc c3 99 bc 8f dc 25 be 75 20 a8 bb a8 17 65 be
       -0.018770091 -0.16197418 -0.0051308223 -0.22372305
0003b0 c0 7d 3d 3c 25 6b 88 bd 2e 4c d8 3d 3c dd 3a 3e
       0.011565626 -0.06661061 0.10561405 0.18248457
0003c0 e9 9b 06 be 06 df e3 bd 1c bf 35 3d c3 c1 a0 bd
       -0.13145413 -0.11126523 0.04437171 -0.07849457
0003d0 0e af a6 3e 45 0b c8 bc c0 c2 08 3e 68 3f 8f bd
       0.3255543 -0.024419436 0.13355541 -0.06994516
0003e0 46 9c 31 bd d8 ff f0 3d f3 f2 2b 3d 63 b1 86 bc
       -0.043361925 0.11767548 0.04197974 -0.016442006
0003f0 d0 a8 05 be 92 07 bc bd fa f3 3a be 67 04 ee 3b
       -0.13052678 -0.091811314 -0.18257132 0.0072637084

flows.0.t.0.2.bias f4 [32]
000000 99 1e 30 3e 82 2d 06 bd 93 fa 25 3e 81 ff 54 3e
       0.17199172 -0.032758243 0.16208868 0.20800592
000010 38 aa 9e bd 78 ae 2f bd 18 e0 00 3e 1e b3 06 be
       -0.077473104 -0.042890996 0.12585485 -0.13154265
000020 cc e0 12 3e 8e 9c 32 3d 78 c4 b6 bd 70 30 d9 3d
       0.14343566 0.043606333 -0.08924192 0.10604942
000030 b4 c2 b1 3d 86 ee ac bc 7f fc 55 3e 99 b6 d1 3d
       0.08679715 -0.02110983 0.20897101 0.10239906
000040 2e 41 8b bd f9 0a 26 be 2c 4d 30 be 15 39 ac 3d
       -0.067995414 -0.16215123 -0.17216939 0.08409325
000050 f5 b4 6d 3b f6 85 13 bc 49 93 86 3e 3c 66 28 bd
       0.003627119 -0.009004107 0.26284245 -0.041113123
000060 3c 70 20 3e 97 32 44 3d 61 1b da bd 76 a7 84 3b
       0.15667814 0.04789981 -0.10649753 0.004048283
000070 1c 30 e8 bd 9c f0 b8 bc 8d 80 4a bc 7c 61 86 3d
       -0.11337301 -0.022575669 -0.01235975 0.065615624

flows.0.t.0.4.weight f4 [64, 32]
000000 5d 8a 35 be ee fa f0 bc 2c 2d a6 3d 94 13 2b 3e
       -0.17728563 -0.029416528 0.081140846 0.16706687
000010 d7 0d ee 3c 6a 06 b8 bd fa 4a 3a bd ed a5 24 bd
       0.029059334 -0.089855984 -0.04548166 -0.0401973
000020 57 de fd 3c 85 f3 c0 bd d8 dc 76 bd 23 83 e4 bd
       0.030989809 -0.09421448 -0.060269207 -0.11157825
000030 b1 1c 65 be 23 40 fc bd 6f f5 e2 bd ee 08 6a 3d
       -0.22374226 -0.123169206 -0.11081969 0.057137422
000040 d8 a3 c8 bd de fc f7 bd e1 3e b0 bd 61 9f 14 bd
       -0.09796876 -0.121087775 -0.08605743 -0.036284808
000050 f8 9c 2d 3c 3c 10 03 be 92 2f 0b bd bb 9d 90 3d
       0.010596506 -0.12799162 -0.033980913 0.07061335
000060 ff c5 91 3c 69 74 e5 b9 a2 36 a9 3d 9f b5 68 3d
       0.017794607 -0.00043765016 0.082623735 0.056813832
000070 89 a3 e1 bd 33 8f 43 be 23 e7 a5 3d e0 10 1c bd
       -0.1101752 -0.19097595 0.081007265 -0.03810203
000080 17 ac 63 3d d2 a5 a7 bd 21 f9 bd bd d7 81 95 3d
       0.05558404 -0.081859246 -0.09276033 0.073001556
000090 f7 ed bb bd c4 bc 25 3d 16 96 ed bd bc 1e 28 3e
       -0.091762476 0.040463224 -0.11600892 0.16417974
0000a0 af 90 25 3e eb fc be bc 8a 70 04 3d e1 2a 90 bd
       0.16168474 -0.02331396 0.032333888 -0.070394285
0000b0 35 61 fd 3d c5 ee 84 3d cf 17 a9 bd 86 04 0d be
       0.123720564 0.06490854 -0.08256494 -0.13771257
0000c0 b1 4a c8 bd 91 49 ea 3d 9f d9 1c 3e ed 01 9b 3d
       -0.09779871 0.11439813 0.15317391 0.07568727
0000d0 ec fd d0 bd d3 e2 86 3d 9e 1f 24 3e df 8b 5b bc
       -0.10204682 0.06586232 0.16027686 -0.013400047
0000e0 54 d6 ee bd 74 60 77 3e 3d 5b 2a bd d2 e9 71 3d
       -0.116619736 0.24157888 -0.041590918 0.05906088
0000f0 de f4 06 be 4a 34 61 3e 3b 90 ba bd 41 63 d6 3d
       -0.13179347 0.21992603 -0.09109541 0.1046815
000100 d5 6d 54 bd 92 6a 17 be e9 53 b2 bd e8 ee 4a 3e
       -0.051862556 -0.14786747 -0.08707411 0.19817698
000110 92 d0 89 bd b5 b5 61 3d ff 82 a3 bd 27 f2 a1 bd
       -0.06729235 0.05510493 -0.0798397 -0.07907515
000120 ba b6 30 3e 0d a8 7c bd 84 4f ca bd 95 a5 19 3e
       0.17257205 -0.061683703 -0.09878448 0.15004571
000130 ea 7b fc 3d a4 78 ee bd 47 e3 a3 bc 51 b9 99 3d
       0.12328322 -0.11644104 -0.020005835 0.075060494
000140 cb 0d 9b 3d 8d cd 11 be ce 74 67 bc d4 0d 38 3e
       0.0757099 -0.14238568 -0.0141269695 0.17974025
000150 e0 58 d7 3c 02 6b 00 bd 72 b5 94 bd 3b 11 a6 bc
       0.026287496 -0.03135205 -0.072611704 -0.020271888
000160 24 c3 0a be 0f b0 00 3d 2a 90 d9 3d b5 00 97 bd
       -0.13551003 0.031417903 0.106232 -0.07373182
000170 cc d2 86 3d 2f 14 36 3e 8b 63 ac 3d 08 c6 16 3e
       0.06583175 0.17781137 0.08417424 0.1472398
000180 4e ce ca 3d 85 02 ab bd 72 94 55 be a5 cf 66 be
       0.09902631 -0.0835009 -0.20857409 -0.22540148
000190 57 db 22 bc 27 7c 3d bc 2f 00 45 bd 77 30 80 bd
       -0.00993999 -0.011565245 -0.04809588 -0.06259244
0001a0 f8 0b 8b bb c3 8b c1 bd 9e 8a 23 be e9 bb 5c 3d
       -0.00424337 -0.094504856 -0.15970847 0.053890143
0001b0 ce 0f e5 3d b9 43 e9 3d c9 5a 04 be bd a2 c8 3d
       0.11184655 0.1138987 -0.12925257 0.09796665
0001c0 32 bf 15 be 69 e2 aa 3d 41 19 b8 3b 4d 2e 4f bd
       -0.14623716 0.083439656 0.005618245 -0.050581265
0001d0 0b 0f 40 bb 4e 62 b7 bd 4d ab a9 3d c3 b8 ae bd
       -0.0029305841 -0.08954297 0.08284626 -0.08531334
0001e0 af a6 a7 3d b6 45 3b bd 1c aa 3d 3e 27 99 9e bd
       0.08186089 -0.04572078 0.18521923 -0.07744055
0001f0 6a 0d 4a bd 36 f6 0d 3e 70 8f f8 3b 9d 9d ce 3d
       -0.0493292 0.13863453 0.0075854585 0.10088656
000200 ca e4 e8 3d 0d aa 77 bd fd f2 c7 3d 65 67 08 be
       0.11371763 -0.060464907 0.09763143 -0.13320692
000210 7e 67 5c 3d 65 74 84 3d 9b cd 49 bd 4d d5 52 be
       0.053809635 0.06467513 -0.049268346 -0.2058918
000220 61 0b 78 bd 18 b2 a5 bd 14 ca 1d 3e 89 f4 3b 3d
       -0.060557727 -0.08090609 0.15409118 0.045887504
000230 1c a2 88 bd f7 e4 19 3e 8e fd 8e 3c fa a7 93 3d
       -0.06671545 0.1502875 0.017454889 0.07209773
000240 40 16 11 3e 84 ef ee 3d 6c ee cd bd 60 f1 08 3e
       0.14168644 0.11666778 -0.10055241 0.13373327
000250 48 32 95 3b 03 f6 42 be 37 9e 22 3d c0 5d 59 bd
       0.004553113 -0.19039159 0.039701667 -0.053067923
000260 66 60 1d be 4b 16 f9 3d 72 f6 1e 3e f4 1a 73 3b
       -0.15368804 0.12162455 0.15523699 0.0037094923
000270 e7 c4 31 3e 27 c8 d1 bd a0 c5 0c be 66 94 2c 3e
       0.17360269 -0.10243254 -0.13747263 0.16853485
000280 f3 9b c4 3d 1b 8d 45 bd 50 74 e5 3c 7f a7 df bc
       0.096000575 -0.04823027 0.028009564 -0.027301548
000290 9e b8 3d bc 33 96 9a 3d fe 6f 24 3e d6 96 2b be
       -0.011579661 0.075481795 0.16058347 -0.16756758
0002a0 63 2d 66 3d 6a d0 f4 bc 7d 3a eb bd 43 94 17 3e
       0.056195628 -0.029884536 -0.11485765 0.14802651
0002b0 63 c3 39 bd 00 95 13 bd 15 14 2f 3e b7 35 0b be
       -0.04535235 -0.03603077 0.17097504 -0.1359471
0002c0 83 c5 e8 bd 90 11 94 bd 88 3c 54 bb 62 32 9d 3d
       -0.11365797 -0.07229912 -0.0032384712 0.076756254
0002d0 d1 34 29 3e a5 90 11 bc a9 2f 01 be a0 8f ba bc
       0.16524054 -0.008884584 -0.12615837 -0.022773564
0002e0 e3 0e 11 3e ab 85 7b bd 9a 5d 01 be ac 31 db 3d
       0.14165835 -0.061406773 -0.12633362 0.107028335
0002f0 23 b3 11 bd 23 fc f4 bd 9f e6 c4 3b ef da 37 3d
       -0.03557123 -0.11962154 0.0060089375 0.044886526
000300 65 e9 ec 3d fb 90 90 3c 69 db f0 bd 07 6f fa 3d
       0.11567954 0.017647257 -0.11760599 0.12228208
000310 7a 74 9c 3b c4 7e b3 3d f8 51 35 be 1c bd d0 3c
       0.0047746273 0.08764413 -0.1770705 0.0254808
000320 3a 4e 26 be ad 27 0f 3e 10 1b b0 3d b7 9f f8 bd
       -0.16240779 0.13979979 0.08598912 -0.12139838
000330 36 a5 2b 3e 94 f0 05 bd 92 0c e9 3c aa 79 a0 bd
       0.16762242 -0.032700136 0.028448377 -0.078357056
000340 cd 78 88 3c 54 26 86 bd 17 e2 85 3c dd a2 18 3e
       0.016659165 -0.06550279 0.01634316 0.14905877
000350 56 91 49 bd e1 bc d9 3d 5f 9d 98 3d b7 6c b1 bd
       -0.04921087 0.10631729 0.07451891 -0.08663314
000360 db 7b 12 bd 99 33 49 3d 08 bf 0b 3e fe d1 b6 3d
       -0.03576265 0.049121473 0.13647091 0.089267716
000370 d4 03 99 bd 57 c0 22 3e 78 25 4a 3e 22 f5 f5 3d
       -0.07471433 0.15893684 0.19740856 0.12009646
000380 88 3c 11 bd bf 34 bd bd 60 07 00 3d d3 bb 27 3e
       -0.035458118 -0.09238576 0.031257033 0.16380243
000390 35 99 32 be 96 21 21 be b0 3a cd 3d 83 c6 98 3d
       -0.17441256 -0.15735468 0.100209594 0.07459738
0003a0 9b 77 8e 3b 08 b7 c0 bd 9e d5 8d 3d 1a df 7b bb
       0.004347754 -0.094099104 0.0692551 -0.003843254
0003b0 33 24 7a bd 17 e1 02 3e 7c 9d dc bd 1f 17 8c bc
       -0.06106968 0.12781177 -0.10772225 -0.017100869
0003c0 90 98 32 3d a9 c2 3d bd fb b2 1a bd dd 9a 21 be
       0.043602526 -0.04632822 -0.037768345 -0.15781732
0003d0 c1 0b d6 bd 0a 58 10 3d bf 93 40 3e 0e c6 05 bd
       -0.10451461 0.03524021 0.1880636 -0.032659583
0003e0 08 28 30 3e 8c dd 81 bc 69 7c a3 bd 56 b6 ad bd
       0.1720277 -0.015852712 -0.07982714 -0.084820434
0003f0 6b 0c 57 3c 05 65 02 3e 82 17 f8 bd 9c 4a 2a 3d
       0.013125519 0.12733848 -0.12113859 0.04157506

flows.0.t.0.4.bias f4 [64]
000000 c2 55 4f bd c0 cc 29 3e 1c d7 51 3e f1 d0 83 3d
       -0.050618894 0.16582012 0.20492214 0.06436337
000010 0b 68 e6 3d 49 2a b9 3d 09 fb e9 bc b7 f5 0b 3e
       0.11250313 0.090412684 -0.028562086 0.13667952
000020 a4 1b 19 3e c8 19 02 be 5b 7c ca 3d a1 50 bf 3d
       0.1495195 -0.12705147 0.09887 0.093415506
000030 ef 5b 72 bd 8b e7 fc 3d c1 4b 24 be c7 7a 65 bd
       -0.059169706 0.12348851 -0.16044523 -0.056025293
000040 42 00 74 bd 6d 6d 20 bc 2c 2c 40 bd fa ae 95 bc
       -0.05957056 -0.009791714 -0.046917126 -0.018271912
000050 ae a0 d5 ba 29 c8 09 3c f8 11 c4 bd 10 88 ac bd
       -0.0016298497 0.008409538 -0.0957374 -0.08424389
000060 7a e4 e3 3c 70 ef 15 bd b0 e0 49 bd e0 59 a8 3d
       0.027818907 -0.0366053 -0.049286544 0.08220267
000070 f6 9e 27 be 9e 58 4a bb 29 5f 7f 3d 71 df 68 3e
       -0.16369233 -0.0030875574 0.06234661 0.22741486
000080 00 c7 1f be e5 20 ae 3b ca b2 2d be e3 4b 22 3e
       -0.15603256 0.00531398 -0.16962734 0.15849261
000090 f3 4b ce 3d f9 b0 27 be c4 8a a3 3d 29 33 da bd
       0.1007308 -0.16376103 0.07985452 -0.10654289
0000a0 85 bd 8c bc a5 75 9c 3d ee 85 2e 3e e8 18 c7 3d
       -0.017180214 0.076396264 0.17043278 0.09721547
0000b0 5b 4d 1a 3e 24 bc 51 3d 7f 94 88 3d 96 b3 d0 bd
       0.15068571 0.051204816 0.066689484 -0.10190503
0000c0 c4 db 8f 3d 16 79 5c bc 32 40 d8 3d fe 6e 9c ba
       0.07024339 -0.0134566035 0.10559119 -0.0011934934
0000d0 50 50 b3 bd 7e 6a 0c 3e 2c 8c b5 bd d5 0d 89 3d
       -0.08755553 0.13712499 -0.08864626 0.066920914
0000e0 63 2a 30 be c7 96 21 3e 19 fa 30 3d 8a f3 0e 3d
       -0.17203669 0.15780173 0.04320726 0.034900226
0000f0 c2 0a 4f 3d 2b 0b d1 bd ac a4 9b 3d f8 64 af bc
       0.05054737 -0.10207208 0.07599768 -0.02141045

flows.0.t.1.0.weight f4 [32, 64]
000000 57 0c d7 3c 17 fd f5 3d 17 66 67 3e a0 cc b6 bd
       0.026251001 0.12011164 0.22597538 -0.08925748
000010 38 8b d3 3c 33 0e 1b 3e 48 95 8f 3e d0 44 a6 bc
       0.02582322 0.15142135 0.2804358 -0.020296484
000020 3a ab 83 bd 0e 49 11 3d 1f 10 31 3e 3e ba 8a bd
       -0.06429143 0.03547006 0.17291306 -0.06773804
000030 cc 75 a8 3d 00 db a4 3c 7d 3b eb bc 0e 13 0b be
       0.08225593 0.020123959 -0.02871489 -0.13581488
000040 e0 63 14 be 7c 51 26 3d be 58 41 3e 7b 04 b9 3c
       -0.14491224 0.040605053 0.18881509 0.022585144
000050 5e 79 dc bd 37 42 21 be 0f 10 3a 3d e7 3c ea bd
       -0.107653365 -0.15747915 0.04542547 -0.114373975
000060 c0 91 12 3d 01 c4 1c be 61 94 3a bd a8 e7 b3 ba
       0.03578353 -0.15309145 -0.04555166 -0.0013725655
000070 93 95 1b be e9 ae 61 bd d2 27 fe bd fd 39 33 3d
       -0.15193777 -0.055098448 -0.12409939 0.043756474
000080 b4 ad a5 bd 38 0f ed 3c 00 75 a0 ba e0 d7 9c bd
       -0.08089772 0.02893792 -0.00122419 -0.076583624
000090 24 c2 77 bd 10 65 a0 3d 00 8c 16 bc 50 35 91 3c
       -0.06048788 0.07831776 -0.009188652 0.017725617
0000a0 46 6a 99 3d 30 76 df bc ea 2f 9a bd 7a 95 84 bd
       0.07490973 -0.027278036 -0.0752867 -0.06473823
0000b0 d0 56 41 3d d8 4c 85 bd 40 8b 68 bb 54 43 a3 bd
       0.04720193 -0.065087974 -0.003548339 -0.07971826
0000c0 48 78 d7 3c d2 a9 d6 3d 80 aa 2d 3c 68 9e 91 3c
       0.026302472 0.104816094 0.010599732 0.01777573
0000d0 18 ed ac 3c ce 95 e7 3d 14 da bf bd ac 3d 1d bd
       0.021109149 0.1130787 -0.09367767 -0.038388893
0000e0 70 e5 b9 3c 26 da 8a 3d 34 63 4f bd 30 ea 41 3d
       0.022692412 0.0677989 -0.050631717 0.04734248
0000f0 90 5b 6e 3d 1e 4c e3 3d 42 41 ca 3d c0 79 a3 3d
       0.05819279 0.110985026 0.09875728 0.07982206
000100 49 39 00 bd 4a 51 3b 3d b8 97 aa bd 7c 68 4b 3c
       -0.03130463 0.04573182 -0.08329719 0.012415048
000110 8c 2f 62 3d 92 fa 15 be e4 6b d2 bd 7c c4 aa bd
       0.055221125 -0.14646366 -0.10274485 -0.08338258
000120 39 e3 1e 3d 27 7e 56 bd 02 05 2b be 3d 54 06 3e
       0.038790915 -0.052366402 -0.16701129 0.13118072
000130 37 f8 aa 3d 5d c0 ae bb 6b 77 82 bd 7a bd 0f 3d
       0.083481245 -0.00533299 -0.063704334 0.03509281
000140 34 7c bb bd 70 bd bb 3b a4 7a 13 bd cb 2a 1a 3e
       -0.09154549 0.00572937 -0.03600563 0.15055387
000150 36 18 9a bd df 39 05 3d fb 8c 71 3d 64 4c f5 3d
       -0.07524149 0.032525893 0.05897234 0.11977461
000160 19 b1 a8 bd 4a 6d 6b bb e0 87 47 3d 4c 6c 14 3e
       -0.08236904 -0.0035923296 0.048713565 0.14494437
000170 da 53 86 bd 11 24 71 bc 7b 9f 9c 3d aa 84 a5 bd
       -0.06558962 -0.014718072 0.07647606 -0.08081944
000180 86 ad ed bd a4 aa 7d bd c8 a0 e1 bd 2c 46 5b 3d
       -0.116053626 -0.061930314 -0.11016995 0.053533718
000190 ce a4 c3 3d 86 12 af bd 0a d9 b3 3d a0 99 17 bd
       0.095529184 -0.08548455 0.08781631 -0.037011743
0001a0 f4 23 0b bd 40 61 0b bb 20 96 70 3d c0 5a c7 bc
       -0.033969834 -0.0021267682 0.05873692 -0.024335265
0001b0 64 8c 4b 3d 80 9c c2 3a 40 52 dd bb 82 dc 9d 3d
       0.049694434 0.0014847666 -0.0067541897 0.07708074
0001c0 5a d6 c7 bd 24 bc 69 bd f0 fd 2d 3d 20 3c 8b 3d
       -0.09757681 -0.05706419 0.0424785 0.06798577
0001d0 fc f3 6a bd 24 d4 ad bd 9c 9f 0e bd 6c af f9 bd
       -0.057361588 -0.08487728 -0.034820184 -0.12191662
0001e0 b8 cc cd bd 1a 6e b7 3d ba d3 dd bd ec 37 8d bd
       -0.10048813 0.08956547 -0.10831399 -0.06895432
0001f0 90 8b 8c bc 1e 37 ef 3d c0 52 e8 3d 50 68 21 3c
       -0.017156392 0.11680435 0.11343908 0.00985153
000200 e9 3f ad bc fc 40 28 3e 1a db 19 3e 57 5e 97 3d
       -0.021148639 0.1643104 0.15024987 0.07391041
000210 6a 2d e4 3d 01 5b 80 3b c9 26 8c 3e 3b 37 9d bd
       0.111414745 0.0039170985 0.2737334 -0.0767655
000220 28 83 81 bd 90 db 08 3a 30 f4 a3 bc 53 7b c2 bd
       -0.06323844 0.00052207056 -0.020013899 -0.094961785
000230 96 ff 15 bd 27 8c a6 3c dc b1 44 3d 01 3b 8b 3d
       -0.0366207 0.020330502 0.048021182 0.067983635
000240 6d aa 97 bd a1 cd dc bc e0 e2 45 3e 54 fc 34 3d
       -0.07405553 -0.02695352 0.19324827 0.04418595
000250 00 fb d0 bc a9 ca ef bd 33 50 5c 3d 54 d7 5f bc
       -0.025510311 -0.11708576 0.05378742 -0.013662178
000260 94 8f 97 3c f2 64 26 3d 9d 8c c5 3b fa ae 81 3c
       0.01850108 0.040623613 0.0060287253 0.015830506
000270 a9 cd 1b bd 3e 65 c5 bd c5 04 9b 3d d5 54 b1 bc
       -0.03803793 -0.09638451 0.07569269 -0.021646896
000280 94 ae ee 3d 84 e3 45 3d 2c c7 3d 3d d0 58 11 3c
       0.11654392 0.04831268 0.046332523 0.008871272
000290 42 b9 8e 3d e0 02 9e 3b 60 ad c7 bc e6 b0 96 3d
       0.06968929 0.00482212 -0.024374664 0.073579594
0002a0 b8 24 a5 3c de ca 9a bd 80 1e a3 3b 80 b3 4c 3b
       0.02015911 -0.07558225 0.004978001 0.003123492
0002b0 90 6f da 3c 28 63 8f bd b0 60 22 3c fa db fd bd
       0.026664525 -0.070013344 0.009910747 -0.12395473
0002c0 48 32 33 3d bc 00 1d bd c4 d2 88 bd a0 20 77 bd
       0.043749124 -0.03833078 -0.06680825 -0.060333848
0002d0 9a 76 ed bd 66 59 c9 bd 04 8e b9 bd 00 55 62 ba
       -0.11594887 -0.098315045 -0.090602905 -0.0008633882
0002e0 d0 cb 4f 3d 5a e7 8f 3d c8 90 c9 3c ba 06 99 bd
       0.05073148 0.07026549 0.02460517 -0.07471986
0002f0 7c 17 4c bd 16 82 e4 bd 88 ec 37 3d e2 0a bc bd
       -0.049827084 -0.111576244 0.04490331 -0.09181763
000300 b6 ea 35 3b 12 52 cf bd 1e 73 2f be 9c f1 48 bd
       0.0027758307 -0.101230755 -0.17133757 -0.04905854
000310 72 74 bb bd 06 c7 d8 bc 99 fe 48 bc 95 d3 0d be
       -0.091530696 -0.02646209 -0.012267732 -0.13850243
000320 e1 0d 2e bd 8e 7e 7c bd 4b 90 4b be 85 b6 1a 3e
       -0.042493705 -0.06164413 -0.19879262 0.15108688
000330 13 57 07 be 24 3b a6 bd 15 2f aa bd f7 bb ab 3d
       -0.1321681 -0.08116749 -0.083097614 0.08385461
000340 34 ff f3 bd 5e 2b 7e 3d d3 bc 4b 3d b1 f0 9e bc
       -0.119139105 0.062053077 0.049740624 -0.01940188
000350 43 bf da bd 50 ee 0f 3d 80 94 a7 bd 2b 33 56 bd
       -0.106810115 0.035139382 -0.08182621 -0.05229489
000360 66 6d b0 3d 11 b7 9c 3d 97 65 7d bb 3a af 04 bd
       0.08614616 0.07652105 -0.0038665289 -0.03239367
000370 82 14 c5 3d a8 9c 30 3d 38 50 01 bd dd a4 d0 bd
       0.09623052 0.04311815 -0.031570643 -0.10187695
000380 8e 61 cf bd 8a 15 9a bd d4 83 a6 3d 40 42 13 bd
       -0.10126029 -0.075236395 0.08130613 -0.035951853
000390 74 04 cf 3d 30 55 07 3d 34 c8 9e bd c0 f7 35 3d
       0.10108271 0.033040226 -0.077530295 0.044425726
0003a0 40 e6 c5 bd 04 00 be bd f0 39 38 bc 9c e4 58 3d
       -0.09663057 -0.09277347 -0.011244282 0.052952394
0003b0 8a 64 b5 bd 40 e1 df bc 8c 17 77 3d 10 66 48 3d
       -0.08857067 -0.027329087 0.06032519 0.04892546
0003c0 ba 51 c3 bd d8 9a 8c 3d 8c f1 59 bd 14 f3 09 3d
       -0.095370725 0.068654716 -0.053208873 0.033679083
0003d0 c8 73 83 bd e0 92 7f 3d 40 0d 34 bd fe 1d ed 3d
       -0.06418568 0.06239593 -0.04395795 0.11577986
0003e0 60 8c c1 bc 38 4d da bd 22 8e 81 3d 68 f7 bc bc
       -0.023626506 -0.106592596 0.06325938 -0.023067191
0003f0 00 d9 eb bc e0 9f f6 3c e2 41 a6 bd 8e be 89 bd
       -0.028789997 0.030105531 -0.08118035 -0.067257985

flows.0.t.1.0.bias f4 [32]
000000 f5 8c 4a 3e 76 c3 bf bb ad 5c 0d bd 2c cd 92 bc
       0.19780333 -0.005852158 -0.03451221 -0.0179201
000010 93 3b 8d 3d 53 e0 89 3d 9d 47 5b 3c 3a 27 0a 3e
       0.068961285 0.067322396 0.013383773 0.13491526
000020 7a c8 da 3d 8f c1 92 3d 39 e2 05 3e 67 8c ba 3d
       0.10682769 0.071658246 0.13074578 0.09108811
000030 a2 f4 0e 3e b2 f7 05 3e 95 9a 6c bd 80 90 48 3d
       0.13960508 0.1308277 -0.05776461 0.04896593
000040 cb 94 c0 3d 42 cf 3e bc 91 92 a3 3d 19 71 9f 3d
       0.0940338 -0.011646094 0.0798694 0.077852435
000050 80 ab d1 3d b8 53 14 3c 69 57 83 bd c6 e8 92 bd
       0.10237789 0.009053163 -0.064131565 -0.07173304
000060 af 26 b7 bc 2d 16 6e bd a3 f2 51 3d 14 cd 84 3b
       -0.022357313 -0.058126617 0.051256787 0.0040527675
000070 70 3c ac 3d ae 71 d0 3c 2f ad 4a 3e 12 b6 85 bd
       0.08409965 0.025444832 0.19792627 -0.06528868

flows.0.t.1.2.weight f4 [32, 32]
000000 c7 93 0e 3e 3a 6a 10 3e 0b ab 95 3d 43 45 2d 3e
       0.1392356 0.14103022 0.073080145 0.16920952
000010 63 51 32 3d 72 13 35 be 27 c2 88 3d 86 e1 90 3d
       0.043534648 -0.17683199 0.066776566 0.07074265
000020 b2 a6 c9 bd 73 08 a7 3d e1 6f 20 be b9 bb 18 3e
       -0.09846248 0.081559084 -0.15667678 0.1491536
000030 08 c0 f7 3d fc 8d 10 be 7a 3c a5 bd b1 bf af 3d
       0.12097174 -0.14116663 -0.080681756 0.08581484
000040 c6 41 6b bc ed 0b 9b bc 6f ff 0d bd ac 24 6a 3b
       -0.014358943 -0.018926585 -0.03466743 0.0035727425
000050 5d 9a c0 bc 9e b6 f8 bc 36 5e 37 3d b9 6c fa 3d
       -0.023511106 -0.030360516 0.04476758 0.122277685
000060 6f c8 c9 bd 6f 8e 2f bd e5 cc 02 be 49 89 d4 3c
       -0.09852683 -0.042860445 -0.12773474 0.025944369
000070 c1 6c 0e be 4f 5f 09 bd ab 44 e0 bd 85 7c 14 bc
       -0.13908674 -0.03353816 -0.109505974 -0.009062891
000080 d5 80 82 3d 03 dd d8 bc 63 8b 8f 3d 83 af 26 3d
       0.06372229 -0.026472574 0.07009008 0.040694725
000090 ae 5d 3b 3e 38 8f 3e 3e 26 c6 71 3e 9a 2d 39 3e
       0.18297455 0.18609321 0.23610744 0.18083802
0000a0 c7 92 e7 3d 5e e2 e8 3d d3 45 02 be 1a 8c 13 bd
       0.113072924 0.11371301 -0.12721948 -0.036022283
0000b0 83 c7 a1 3d cc 47 8e 3d c5 e9 76 bd c6 a1 b3 3d
       0.07899382 0.06947288 -0.060281534 0.0877109
0000c0 ec 19 d5 bd 53 73 1e 3e 32 28 3a 3e f7 b3 55 bd
       -0.10405335 0.1547368 0.18179396 -0.05217358
0000d0 e2 f8 74 3d 5b 87 24 3e 1d 9c 9e 3e e2 60 10 3e
       0.059807666 0.16067259 0.3097848 0.14099458
0000e0 6e 54 bf 3d 71 9b bd bd 52 c5 36 be e2 a5 d1 3c
       0.093422756 -0.09258164 -0.17848709 0.025591794
0000f0 57 4c e8 bd 0a ec 8c bd 76 ff ed bd 75 db 9a 3c
       -0.11342686 -0.068809584 -0.11620991 0.018903473
000100 36 1c 20 be f1 9f e6 3d 76 df 9a bd 31 30 2a 3e
       -0.15635762 0.11260975 -0.07562153 0.16619946
000110 97 4a 1d 3e 91 0f 2d be 99 2d 1f be 62 82 b8 bd
       0.15360485 -0.1690047 -0.15544738 -0.090092435
000120 ae 6f a3 3d d2 9a 07 3e cc 1f 0c bd 8b b1 02 3c
       0.079802856 0.13242653 -0.03421001 0.0079769
000130 fa a8 6a 3d 40 33 27 be 96 2b eb 3b 13 2b 11 3b
       0.057290055 -0.16328144 0.0071768267 0.0022150918
000140 78 bc 4f 3d 3e 08 0f bb 60 90 91 3d 72 9e 23 3e
       0.050716847 -0.002182498 0.071076155 0.15978411
000150 49 3b 90 3d 6a 46 91 3c e3 5b bf bd 54 b2 ff 3d
       0.07042558 0.017733771 -0.09343698 0.12485185
000160 d1 f4 ee bd 91 f8 e3 3c 68 b8 41 3d 47 dd e2 3d
       -0.11667789 0.027828487 0.047295004 0.110773616
000170 41 87 e1 3d 12 2d cd bd 14 2d 2b be 26 fc a7 3d
       0.11012126 -0.10018362 -0.16716415 0.082023904
000180 b1 5a 78 3d 4d 69 da 3d 75 79 b1 3d e5 24 3b be
       0.060633365 0.10664616 0.08665744 -0.18275793
000190 d5 f4 54 3d cc c4 c6 3c 96 79 bc 3d ef f3 f3 bd
       0.051991303 0.024263762 0.09202878 -0.11911761
0001a0 3c b3 0f be 2d 4e c2 3d 92 f7 97 bd c4 f4 7e 3d
       -0.14033216 0.09487567 -0.07420267 0.062245145
0001b0 53 15 30 bd 0f b3 6c bc 80 4b b9 bc 5c f6 68 bd
       -0.042989086 -0.014446988 -0.022619009 -0.05687557
0001c0 22 d0 f5 3d 5d f9 3b be 7e 58 c0 3d b9 2a b7 3d
       0.12002589 -0.18356843 0.093918785 0.089436956
0001d0 8c 46 6a bd 1d 48 fc bd 96 1a ce bd 4a d2 0f be
       -0.057196185 -0.12318442 -0.100636646 -0.14045063
0001e0 82 f3 91 3d 16 75 25 3c 39 cd 5a bd e4 c8 8d bd
       0.071265236 0.010098716 -0.05341837 -0.069230825
0001f0 d4 38 31 3e 08 4b 06 be e5 2d 7e 3c 41 99 cd bc
       0.17306834 -0.1311456 0.015513872 -0.025097491
000200 b7 0d d7 bd 9b e6 c6 bc ab c7 89 bd c2 dd 29 be
       -0.10500663 -0.024279883 -0.06727537 -0.165885
000210 e8 1f 2e be ea 14 03 3e 4d ae d0 bc a1 44 57 3e
       -0.17004359 0.12800947 -0.025473738 0.21022274
000220 6a 5b 46 bd 3e 34 34 3e 27 20 80 3d 0b 40 33 3d
       -0.048427023 0.17598054 0.062561326 0.043762248
000230 3f 9b 90 3e b2 67 ef 3d 10 cb cc 3d f4 1b 34 3e
       0.28243443 0.116897 0.099996686 0.17588788
000240 e8 69 87 3d 4e d5 01 3d 96 07 1f be db 0b fe 3d
       0.06611997 0.031697564 -0.15530238 0.12404605
000250 fb 41 e6 bc 6c 69 13 be 7b 43 d7 3b 33 8f e7 3c
       -0.028107634 -0.14395684 0.0065693236 0.028266525
000260 c8 35 b9 bd bd ea d9 bd ec 68 91 bd e7 27 ea 3b
       -0.09043461 -0.10640476 -0.071000904 0.00714587
000270 40 dd fc 3d eb cf bd bc f0 9f df 3d a3 c3 d6 bb
       0.123468876 -0.023170432 0.109191775 -0.0065540834
000280 fa 7a 8c 3e 91 89 19 be 62 fe 1f 3e 9d dc 1f be
       0.27437574 -0.14993884 0.15624383 -0.15611501
000290 69 73 37 be 64 87 37 3d 9c 0d 0e 3e 89 e6 0f 3e
       -0.17915119 0.044806853 0.13872379 0.14052786
0002a0 bb c9 13 be 1b 80 59 bd 7c 3c 53 bc a0 53 87 3d
       -0.14432423 -0.053100687 -0.012892839 0.06607747
0002b0 b9 83 e4 3c 49 b8 4a 3e 8e 28 be bc a9 18 2b 3d
       0.027894842 0.19796862 -0.023212697 0.041771565
0002c0 2e de 77 3e 1b 75 cd bd d4 81 4b 3e c6 9e 37 be
       0.24205849 -0.10032102 0.19873744 -0.17931661
0002d0 0a 4a 15 bd 66 1b 8c bd e4 22 33 3d 3c f1 ee bd
       -0.036447562 -0.06841163 0.043734446 -0.116671056
0002e0 0e 09 18 3e 21 a6 93 bd c9 34 c8 3c 6f bb 18 3e
       0.14847204 -0.07209421 0.024439232 0.1491525
0002f0 7b 28 98 3d 3a 46 91 bb df 4a 52 3e e2 a7 31 3e
       0.07429596 -0.0044334205 0.20536374 0.17349198
000300 3d 65 b6 bd ce a4 15 3e 5a 5f 82 3d c0 90 20 3a
       -0.089060284 0.14613649 0.06365843 0.0006125085
000310 71 39 03 be ba 34 5d bd a0 f3 a4 3d 2f 01 01 3e
       -0.12814881 -0.054005362 0.0805428 0.12598108
000320 a9 25 f6 bb 69 36 40 3e 39 cf 9f 3d c2 3f 77 3d
       -0.0075118137 0.18770756 0.078031965 0.06036354
000330 8c cb 72 bc 6e 7f 71 3d 42 ae 40 bd 68 b1 dd 3d
       -0.014819037 0.058959417 -0.047041185 0.10824853
000340 f8 f6 79 bd 07 20 30 be d4 d3 35 3d dc 52 d5 3d
       -0.061026543 -0.17199717 0.04439147 0.10416195
000350 6e 30 bd 3b 62 60 25 3e c9 f8 f8 bd b3 71 9e bc
       0.0057735955 0.16150048 -0.12156827 -0.019341325
000360 99 e0 96 bd 45 9b 27 3e 12 aa 7a 3d 07 f8 5c bd
       -0.07367057 0.16367824 0.061197348 -0.053947475
000370 67 bc fb 3d 2c b7 39 be 61 2a 71 3d 55 d3 e7 bd
       0.12291794 -0.18136281 0.058878306 -0.11319605
000380 ad c9 4c be db 0d 06 3e 7a 6e ce bd 91 d6 36 3d
       -0.19998808 0.13091223 -0.100796655 0.04463822
000390 c5 0f c9 bc 6e 44 de 3d 1c ad 38 be 22 b8 08 3d
       -0.024543652 0.10852896 -0.18034786 0.033378728
0003a0 3d 35 d7 3d f0 5c c4 bd aa b8 31 be 1c e7 78 3c
       0.10508201 -0.09588039 -0.173556 0.0151918195
0003b0 75 2e a5 3d 0b 78 95 3d fb 77 05 3e 38 a7 71 bc
       0.080655016 0.07298287 0.1303405 -0.014749341
0003c0 01 b9 ed 3c 81 0d dc 3c 9e 96 b6 bd 9d e8 48 be
       0.02901888 0.026861908 -0.08915447 -0.19619985
0003d0 59 d2 96 3d 03 54 1e 3b d9 3a b1 3d 69 9e 42 bd
       0.073643394 0.0024158962 0.086538024 -0.047514353
0003e0 5d 2a 94 bd 8b d6 65 3c d1 49 ee 3d 78 ff 09 bd
       -0.07234643 0.014028202 0.11635173 -0.0336909
0003f0 44 0d 15 3e 71 2f 2f bd 17 43 da 3d 2d b9 9d 3c
       0.14555842 -0.042769853 0.106573276 0.019253338

flows.0.t.1.2.bias f4 [32]
000000 a2 70 0b 3e 27 e0 b2 bd f7 fa a6 bd 3e 36 00 3e
       0.13617185 -0.0873416 -0.081533365 0.12520692
000010 7d 8e ba 3d 91 03 40 3e 5f 30 00 bd 74 1f d3 3d
       0.09109209 0.1875136 -0.03129613 0.103087336
000020 cf 75 a4 3d ad 15 b2 3d 81 fc 56 bd ff 90 b2 3d
       0.08030283 0.086955406 -0.0524869 0.08719062
000030 47 20 b3 bd d5 08 40 bd 27 97 cf 3d bb 05 77 3d
       -0.08746391 -0.046883423 0.10136252 0.0603082
000040 b5 5e 55 be 3e 13 dd 3d 98 52 71 bd d9 7f 06 3e
       -0.20836909 0.10794686 -0.05891666 0.13134708
000050 a5 ab 9a bd 18 f6 c3 bb 64 4c 79 3e b5 c1 b7 3d
       -0.0755227 -0.0059802644 0.24345547 0.089724936
000060 ae 5c df bc 05 de 05 3e 70 9f c7 bd e2 67 c2 bc
       -0.027265873 0.13072975 -0.09747207 -0.023731176
000070 0e e6 a8 bc 91 84 33 be 47 bf b1 3d e1 ad 92 bc
       -0.020617511 -0.17531039 0.086790614 -0.017905178
