code_for_Boids/Models_16birds_2groups/model_16birds_2groups_circle_2path_2angle_tensor_kde_4batch_4layer_reweight_REMAKE_358000.pkl (torch, 548793 bytes, 196 tensors)

flows.0.mask f4 [6, 64]
000000 00 00 00 00 00 00 00 00 00 00 00 00 00 00 00 00
       0.0 0.0 0.0 0.0
000010 00 00 00 00 00 00 00 00 00 00 00 00 00 00 00 00
       0.0 0.0 0.0 0.0
000020 00 00 00 00 00 00 00 00 00 00 00 00 00 00 00 00
       0.0 0.0 0.0 0.0
000030 00 00 00 00 00 00 00 00 00 00 00 00 00 00 00 00
       0.0 0.0 0.0 0.0
000040 00 00 00 00 00 00 00 00 00 00 00 00 00 00 00 00
       0.0 0.0 0.0 0.0
000050 00 00 00 00 00 00 00 00 00 00 00 00 00 00 00 00
       0.0 0.0 0.0 0.0
000060 00 00 00 00 00 00 00 00 00 00 00 00 00 00 00 00
       0.0 0.0 0.0 0.0
000070 00 00 00 00 00 00 00 00 00 00 00 00 00 00 00 00
       0.0 0.0 0.0 0.0
000080 00 00 80 3f 00 00 80 3f 00 00 80 3f 00 00 80 3f
       1.0 1.0 1.0 1.0
000090 00 00 80 3f 00 00 80 3f 00 00 80 3f 00 00 80 3f
       1.0 1.0 1.0 1.0
0000a0 00 00 80 3f 00 00 80 3f 00 00 80 3f 00 00 80 3f
       1.0 1.0 1.0 1.0
0000b0 00 00 80 3f 00 00 80 3f 00 00 80 3f 00 00 80 3f
       1.0 1.0 1.0 1.0
0000c0 00 00 80 3f 00 00 80 3f 00 00 80 3f 00 00 80 3f
       1.0 1.0 1.0 1.0
0000d0 00 00 80 3f 00 00 80 3f 00 00 80 3f 00 00 80 3f
       1.0 1.0 1.0 1.0
0000e0 00 00 80 3f 00 00 80 3f 00 00 80 3f 00 00 80 3f
       1.0 1.0 1.0 1.0
0000f0 00 00 80 3f 00 00 80 3f 00 00 80 3f 00 00 80 3f
       1.0 1.0 1.0 1.0
000100 00 00 80 3f 00 00 80 3f 00 00 80 3f 00 00 80 3f
       1.0 1.0 1.0 1.0
000110 00 00 80 3f 00 00 80 3f 00 00 80 3f 00 00 80 3f
       1.0 1.0 1.0 1.0
000120 00 00 80 3f 00 00 80 3f 00 00 80 3f 00 00 80 3f
       1.0 1.0 1.0 1.0
000130 00 00 80 3f 00 00 80 3f 00 00 80 3f 00 00 80 3f
       1.0 1.0 1.0 1.0
000140 00 00 80 3f 00 00 80 3f 00 00 80 3f 00 00 80 3f
       1.0 1.0 1.0 1.0
000150 00 00 80 3f 00 00 80 3f 00 00 80 3f 00 00 80 3f
       1.0 1.0 1.0 1.0
000160 00 00 80 3f 00 00 80 3f 00 00 80 3f 00 00 80 3f
       1.0 1.0 1.0 1.0
000170 00 00 80 3f 00 00 80 3f 00 00 80 3f 00 00 80 3f
       1.0 1.0 1.0 1.0
000180 00 00 00 00 00 00 00 00 00 00 00 00 00 00 00 00
       0.0 0.0 0.0 0.0
000190 00 00 00 00 00 00 00 00 00 00 00 00 00 00 00 00
       0.0 0.0 0.0 0.0
0001a0 00 00 00 00 00 00 00 00 00 00 00 00 00 00 00 00
       0.0 0.0 0.0 0.0
0001b0 00 00 00 00 00 00 00 00 00 00 00 00 00 00 00 00
       0.0 0.0 0.0 0.0
0001c0 00 00 00 00 00 00 00 00 00 00 00 00 00 00 00 00
       0.0 0.0 0.0 0.0
0001d0 00 00 00 00 00 00 00 00 00 00 00 00 00 00 00 00
       0.0 0.0 0.0 0.0
0001e0 00 00 00 00 00 00 00 00 00 00 00 00 00 00 00 00
       0.0 0.0 0.0 0.0
0001f0 00 00 00 00 00 00 00 00 00 00 00 00 00 00 00 00
       0.0 0.0 0.0 0.0
000200 00 00 00 00 00 00 00 00 00 00 00 00 00 00 00 00
       0.0 0.0 0.0 0.0
000210 00 00 00 00 00 00 00 00 00 00 00 00 00 00 00 00
       0.0 0.0 0.0 0.0
000220 00 00 00 00 00 00 00 00 00 00 00 00 00 00 00 00
       0.0 0.0 0.0 0.0
000230 00 00 00 00 00 00 00 00 00 00 00 00 00 00 00 00
       0.0 0.0 0.0 0.0
000240 00 00 00 00 00 00 00 00 00 00 00 00 00 00 00 00
       0.0 0.0 0.0 0.0
000250 00 00 00 00 00 00 00 00 00 00 00 00 00 00 00 00
       0.0 0.0 0.0 0.0
000260 00 00 00 00 00 00 00 00 00 00 00 00 00 00 00 00
       0.0 0.0 0.0 0.0
000270 00 00 00 00 00 00 00 00 00 00 00 00 00 00 00 00
       0.0 0.0 0.0 0.0
000280 00 00 80 3f 00 00 80 3f 00 00 80 3f 00 00 80 3f
       1.0 1.0 1.0 1.0
000290 00 00 80 3f 00 00 80 3f 00 00 80 3f 00 00 80 3f
       1.0 1.0 1.0 1.0
0002a0 00 00 80 3f 00 00 80 3f 00 00 80 3f 00 00 80 3f
       1.0 1.0 1.0 1.0
0002b0 00 00 80 3f 00 00 80 3f 00 00 80 3f 00 00 80 3f
       1.0 1.0 1.0 1.0
0002c0 00 00 80 3f 00 00 80 3f 00 00 80 3f 00 00 80 3f
       1.0 1.0 1.0 1.0
0002d0 00 00 80 3f 00 00 80 3f 00 00 80 3f 00 00 80 3f
       1.0 1.0 1.0 1.0
0002e0 00 00 80 3f 00 00 80 3f 00 00 80 3f 00 00 80 3f
       1.0 1.0 1.0 1.0
0002f0 00 00 80 3f 00 00 80 3f 00 00 80 3f 00 00 80 3f
       1.0 1.0 1.0 1.0
000300 00 00 80 3f 00 00 80 3f 00 00 80 3f 00 00 80 3f
       1.0 1.0 1.0 1.0
000310 00 00 80 3f 00 00 80 3f 00 00 80 3f 00 00 80 3f
       1.0 1.0 1.0 1.0
000320 00 00 80 3f 00 00 80 3f 00 00 80 3f 00 00 80 3f
       1.0 1.0 1.0 1.0
000330 00 00 80 3f 00 00 80 3f 00 00 80 3f 00 00 80 3f
       1.0 1.0 1.0 1.0
000340 00 00 80 3f 00 00 80 3f 00 00 80 3f 00 00 80 3f
       1.0 1.0 1.0 1.0
000350 00 00 80 3f 00 00 80 3f 00 00 80 3f 00 00 80 3f
       1.0 1.0 1.0 1.0
000360 00 00 80 3f 00 00 80 3f 00 00 80 3f 00 00 80 3f
       1.0 1.0 1.0 1.0
000370 00 00 80 3f 00 00 80 3f 00 00 80 3f 00 00 80 3f
       1.0 1.0 1.0 1.0
000380 00 00 00 00 00 00 00 00 00 00 00 00 00 00 00 00
       0.0 0.0 0.0 0.0
000390 00 00 00 00 00 00 00 00 00 00 00 00 00 00 00 00
       0.0 0.0 0.0 0.0
0003a0 00 00 00 00 00 00 00 00 00 00 00 00 00 00 00 00
       0.0 0.0 0.0 0.0
0003b0 00 00 00 00 00 00 00 00 00 00 00 00 00 00 00 00
       0.0 0.0 0.0 0.0
0003c0 00 00 00 00 00 00 00 00 00 00 00 00 00 00 00 00
       0.0 0.0 0.0 0.0
0003d0 00 00 00 00 00 00 00 00 00 00 00 00 00 00 00 00
       0.0 0.0 0.0 0.0
0003e0 00 00 00 00 00 00 00 00 00 00 00 00 00 00 00 00
       0.0 0.0 0.0 0.0
0003f0 00 00 00 00 00 00 00 00 00 00 00 00 00 00 00 00
       0.0 0.0 0.0 0.0

flows.0.t.0.0.weight f4 [32, 64]
000000 ce a7 ce bd b8 f1 79 3d 60 99 f2 bd 8e 1a c7 3d
       -0.100906 0.061021537 -0.1184566 0.09721862
000010 60 69 9e 3c 30 35 0e bc e0 91 8f 3d 28 03 81 3c
       0.019337356 -0.008679673 0.07010245 0.015748575
000020 70 3d c6 bc 40 46 20 3b 44 3c 12 3d a0 5a 92 bd
       -0.024199218 0.0024455935 0.035702005 -0.071461916
000030 f6 e8 bd 3d 24 46 5c 3d 70 ad 96 bc 50 67 e5 bc
       0.092729494 0.05377783 -0.018393248 -0.028003365
000040 ba e2 a9 bd c8 45 e6 3c a0 f4 13 3c c0 bf 9f bb
       -0.08295198 0.028109446 0.009030491 -0.0048751533
000050 cc 26 9e bd b8 f9 84 3d 24 c9 45 bd 98 a1 c4 bd
       -0.07722244 0.064929426 -0.048287526 -0.09601134
000060 ac 45 37 3d 2e 25 ed bd 9e 8e ec bd f8 0c df 3d
       0.04474418 -0.11579357 -0.115506396 0.108911455
000070 92 85 8a bd 1a 36 d5 bd a6 19 ff bd 30 40 3a 3d
       -0.06763758 -0.1041071 -0.12456064 0.04547137
000080 d7 91 38 3d 09 bf 9c 3d f8 4f d6 bd 10 f8 9f bc
       0.04506096 0.076536246 -0.104644716 -0.019527465
000090 69 c3 ac bd d3 48 a7 3d 6f 9e 92 3c ef e0 51 bd
       -0.08435709 0.08168187 0.017897813 -0.051239904
0000a0 7e 2f 1b bc e5 b9 c0 38 71 18 17 be dc b3 fd bd
       -0.009471772 9.189899e-05 -0.14755417 -0.12387821
0000b0 75 4a 70 bc a9 6c a7 bd 22 80 93 3c eb dc 21 3e
       -0.014666189 -0.08175022 0.018005434 0.1580693
0000c0 f6 be ee 3d 2b e0 53 bd 3b 99 1b bd be 14 25 be
       0.11657517 -0.051727455 -0.03798793 -0.16121194
0000d0 8c 96 43 3d ad 7d 30 3c 55 43 a9 3d 47 82 01 be
       0.047750995 0.010772151 0.08264796 -0.12647353
0000e0 11 aa 19 3d 90 2d a6 3d 45 b1 8a be ef 73 40 3b
       0.037515704 0.08114159 -0.2708837 0.0029365977
0000f0 d0 05 d3 bd b8 9b 07 3d 87 f7 98 be 49 a0 13 3d
       -0.10303843 0.03310749 -0.29876348 0.03604153
000100 98 39 2d bd 3c 9b 4e bd b0 d3 46 bc 00 03 67 3a
       -0.042291254 -0.05044101 -0.012135431 0.0008812398
000110 34 51 e6 bd 08 5c 5f bd c0 b7 76 3d 54 2a 4f bd
       -0.11245957 -0.054531127 0.06023383 -0.050577477
000120 a0 31 f5 bc 9c d8 2a bd 38 04 cb bc 76 8c 8f 3d
       -0.02993089 -0.04171048 -0.024782285 0.07009213
000130 8c 7a d7 bd 76 4d ac bd 9c 7a 8d bd 5c 97 12 bd
       -0.10521421 -0.08413212 -0.069081515 -0.03578888
000140 c0 fe 15 bd d0 a6 83 bc ea c4 bc 3d 66 78 ca bd
       -0.0366199 -0.016070753 0.09217246 -0.098862454
000150 38 a2 fd bd 8a 84 ca 3d 6e cc a8 bd 9a cc d8 bd
       -0.123844564 0.09888561 -0.08242117 -0.105859
000160 7c f2 d1 bd ec 7c 0a 3d 1a 50 c1 3d 9a ee bf bd
       -0.10251328 0.03381054 0.09439106 -0.093716815
000170 20 92 c5 3b e8 e1 e7 bc 20 82 c6 3c 28 8a 26 3d
       0.0060293823 -0.028305963 0.02423197 0.0406591
000180 09 c4 d2 3e 4d 72 93 bd 67 d1 bf 3f 98 de c5 be
       0.41165188 -0.071995355 1.498578 -0.38646388
000190 b7 70 09 bf 93 ac 3f bd b6 06 e0 bd dc c9 eb 3e
       -0.53687614 -0.04679544 -0.1093878 0.46052444
0001a0 07 ac 3c 3d 33 01 e0 be 94 a5 bf 3d 8d e0 82 3e
       0.046062496 -0.43750915 0.093577534 0.25561944
0001b0 df 65 31 bc e3 82 07 be fb 11 56 3e 1d 24 a3 be
       -0.010827511 -0.13233523 0.20905297 -0.3186349
0001c0 ee 5e a7 bc 8b b5 95 bd c6 ba 47 bc 04 3b cc bd
       -0.020431008 -0.07310017 -0.012190526 -0.09972194
0001d0 d9 a6 86 3e d6 12 7e 3e f4 8d 06 3f 0d 39 9d 3e
       0.2629917 0.24811873 0.52560353 0.3070759
0001e0 45 11 ae bd 30 80 2b bd 01 eb 95 be 57 5d c1 be
       -0.08499388 -0.041870296 -0.29280856 -0.37766525
0001f0 bb 7a 99 bd 65 4b e3 3d 1b e2 9e 3d 73 bf 5e 3e
       -0.07494112 0.11098365 0.0775797 0.2175272
000200 94 15 58 bd de 50 a7 3d 18 e0 99 3c ea 98 8c 3d
       -0.052754954 0.08169721 0.018783614 0.068651035
000210 00 9f 98 3b bc 48 9a bd c6 f6 a3 3d 0a 4d f1 3d
       0.004657626 -0.07533404 0.08006053 0.11782272
000220 50 29 9a bc 00 67 91 ba e4 01 09 bd 18 fd e0 3c
       -0.018818527 -0.0011093318 -0.03344907 0.027464435
000230 be a9 bf bd 10 bd 4a 3d ba f9 be 3d 9a 5a 99 3d
       -0.09358548 0.04949671 0.09324975 0.07487984
000240 fa c6 8f bd 90 7e 87 bd d0 1c c9 bc 50 84 ce 3c
       -0.07020374 -0.06615937 -0.024549872 0.025209576
000250 3e d4 bb 3d d0 26 83 bd 56 bd fd 3d f0 2d 59 bd
       0.09171341 -0.06403887 0.123896286 -0.053022325
000260 e2 29 ff bd d4 2f 7d 3d 3c 4e 4b bd 00 c4 5f bb
       -0.124591604 0.06181319 -0.049635157 -0.0034143925
000270 80 e1 60 bd 3a 22 c4 bd 90 e4 1a 3c 38 c0 ce 3d
       -0.054902554 -0.09576841 0.009453908 0.100952566
000280 4d 24 d0 bc fd 52 3c 3c a3 28 2f be d6 86 20 bd
       -0.025407935 0.011494395 -0.17105345 -0.03919109
000290 85 57 39 3d ba b3 80 3d 11 33 72 be f7 e3 1f be
       0.04524948 0.0628428 -0.23652293 -0.15614305
0002a0 07 b9 7b bd ca fe 97 3d 81 c1 c8 bb 56 87 68 be
       -0.061455753 0.07421644 -0.006126583 -0.22707877
0002b0 4a 09 ee bd 0e 81 4a bd 5e 19 a0 bd e6 b4 49 3d
       -0.116228655 -0.049439482 -0.078173384 0.049244784
0002c0 c0 7d a2 bd bd 3d 1d be 3c 6b 3b be 76 c4 94 3d
       -0.07934141 -0.15355583 -0.18302625 0.072640345
0002d0 8a 28 d4 bc 3a e6 f9 3c b1 74 4f 3e 62 b4 06 3e
       -0.025898237 0.030505288 0.20259358 0.13154748
0002e0 f1 e2 ca bd 0a e3 1f 3e dd ea c0 3e 05 5d 1f be
       -0.09906567 0.15613952 0.37679186 -0.15562828
0002f0 bf f4 36 bd 0b 15 e0 3d 37 0a 18 3d d2 10 39 3c
       -0.044667 0.10941514 0.037119117 0.011295514
000300 00 26 b4 ba c4 fb 7e 3d 14 93 4b 3d 20 47 78 3d
       -0.0013744235 0.06225182 0.04970081 0.060614705
000310 92 d8 ab bd 36 71 81 bd 68 dc 5a bd a0 f9 7a 3d
       -0.08390917 -0.063204214 -0.053432852 0.061273217
000320 10 4f 4b 3c 8a 4d b7 bd 54 51 c5 3d 30 66 b1 3c
       0.012408987 -0.08950336 0.09634653 0.021655172
000330 0c 97 bd bd be 44 a4 bd 1c 3f 13 bd 7c 98 f7 bd
       -0.092573255 -0.08020924 -0.035948858 -0.12089631
000340 20 73 20 bd 08 ab 91 bd bc 7f eb bd 18 e2 86 bc
       -0.03917229 -0.071127 -0.11498973 -0.016465232
000350 d4 b1 33 3d 9e 5d 88 bd 98 a9 3e 3d c8 d8 e2 3d
       0.043870762 -0.06658481 0.046548456 0.11076504
000360 ac 9d fe 3d 10 7f 3f 3c 60 a2 6c bd 18 99 ba 3c
       0.12432417 0.011688009 -0.05777204 0.022778079
000370 5c 00 52 3d fe a7 84 3d ac 05 cb bd 02 dd b2 3d
       0.051269874 0.064773545 -0.09913191 0.0873356
000380 7e 21 cb 3d 40 34 7f bd 4b f6 35 bf e7 73 34 3e
       0.099184975 -0.06230569 -0.7107894 0.17622338
000390 d9 40 b2 bd 67 52 a1 3c 09 28 70 bd 38 38 29 3e
       -0.08703775 0.019692613 -0.05863193 0.16525352
0003a0 a0 c5 48 bc f1 a2 65 bc af 56 a0 3e a3 b0 1b 3e
       -0.012254149 -0.014015899 0.31316134 0.152041
0003b0 e3 93 bb 3d 4a f4 64 3d fb 0b 58 be 9d 73 8b 3e
       0.091590665 0.055897035 -0.2109832 0.27236643
0003c0 5d df d6 3d c6 60 b7 3c 74 4d 59 3e 75 9e 12 3e
       0.10491822 0.022385012 0.21220952 0.14318259
0003d0 dd f8 6a bd 4e b2 0c 3c 70 e9 35 3e 6d 5e f2 3d
       -0.05736624 0.008587433 0.1776483 0.118344165
0003e0 08 c7 73 3c f3 92 07 3d 7c 45 1d be 97 ea a8 bd
       0.014878996 0.033099126 -0.15358537 -0.082478695
0003f0 f9 4d d1 bd 47 8a 61 3c 90 7a 10 be ff 7b 0a bc
       -0.1021995 0.013765878 -0.14109254 -0.008452415

flows.0.t.0.0.bias f4 [32]
000000 be f9 1b 3e dc 36 c7 bd 07 5d 83 be 97 67 31 3e
       0.15231988 -0.097272605 -0.25656912 0.17324673
000010 bd d0 01 be c9 4c 4e bd cd 71 03 be 79 29 d4 bc
       -0.12677284 -0.050366197 -0.1283638 -0.025898682
000020 a4 87 54 bd e7 d6 23 3d 2e 00 e3 3d 4e b6 32 3e
       -0.05188717 0.03999987 0.11084019 0.17452356
000030 9b d7 88 3d c6 a8 ae 3d c4 72 b1 3b 8d 18 97 bd
       0.066817485 0.08528285 0.0054152925 -0.073777296
000040 44 bd e5 3d f2 d0 2d 3e e8 2a b7 3d 8c 0d 95 3c
       0.1121774 0.16974238 0.089437306 0.018194936
000050 88 b6 3a 3e 1e c5 3f be ed f1 3e 3d d8 7e c8 3d
       0.18233693 -0.18727538 0.046617437 0.097898185
000060 6c 7b d8 bd f6 9e a7 bd 6a c3 b4 bd d2 8e 01 bd
       -0.10570416 -0.08184616 -0.08826335 -0.031630345
000070 ed 5c eb 3d 1c 68 81 b9 af d7 f2 bc f6 17 29 3e
       0.114923336 -0.00024682365 -0.029643862 0.16513047

flows.0.t.0.2.weight f4 [32, 32]
000000 dd 57 22 be a3 f0 7a 3d e3 d5 a6 3d b1 01 84 3d
       -0.1585383 0.061264645 0.081462644 0.06445635
000010 0f d6 a5 3d 7b f1 08 3c c3 49 60 3e f3 90 ff 3d
       0.08097469 0.008358355 0.21903138 0.12478819
000020 cc f5 1e be a0 de 60 be 8b 52 90 3c 13 e4 f8 bd
       -0.15523452 -0.21959925 0.017617485 -0.12152877
000030 ed 87 1d be 6a a2 88 bd 2f 47 7e bd a8 f5 a4 3d
       -0.15383883 -0.06671603 -0.062079605 0.08054668
000040 d7 a2 72 3e 54 d9 21 3d 01 c9 09 3d d0 70 24 3e
       0.23694931 0.0395139 0.033638958 0.1605866
000050 1f 15 0d 3a c6 28 00 be 96 d0 53 bc 58 12 4b bd
       0.00053818704 -0.12515554 -0.012928149 -0.04957804
000060 08 07 28 3d 93 32 08 bc 4d 82 21 be 78 96 46 3e
       0.04102233 -0.008312839 -0.15772362 0.19393337
000070 1d 1e 69 3b 1c 8b 8e 3c f8 f4 74 be 2e cd b3 3e
       0.0035570927 0.017400317 -0.23921573 0.35117477
000080 e1 9e 83 3d 40 b6 8f 3e f2 c4 6b bd 9a 14 59 3d
       0.06426788 0.28068733 -0.05756087 0.052998163
000090 59 06 66 3d eb 9d 76 3e 2c 73 04 3e 02 32 20 3d
       0.056158397 0.24083678 0.1293456 0.03911019
0000a0 53 d2 8d 3d 61 9b c4 3d 88 8b 0f bd 83 55 8b bd
       0.06924882 0.09599949 -0.035045177 -0.068034194
0000b0 54 c7 0c bd b6 fd 3a 3d 1e 48 5f 3d f4 bf e4 bd
       -0.03436978 0.045652114 0.054512136 -0.11169425
0000c0 94 3f e6 3d 5a 61 33 be 5b b6 26 be 7a 18 2a 3d
       0.11242595 -0.17517605 -0.162805 0.04152725
0000d0 3a b2 bd 3d 75 46 31 3d 0c c1 39 3e 5c 12 b5 3d
       0.0926251 0.043280084 0.18140048 0.088413924
0000e0 bc 2c 89 3d ba 3d c1 bd d7 ce 51 3e 2c 8a 05 bd
       0.066979855 -0.094356015 0.2048906 -0.032602474
0000f0 6a 63 ad bc 2f 32 9c 3d fc ea df bd 60 40 be 3e
       -0.021165568 0.07626759 -0.109334916 0.3715849
000100 3a 37 a7 bc b2 8b 80 bd b2 9c 9a bd ad 78 24 3e
       -0.020412076 -0.06276645 -0.075494185 0.16061659
000110 be 8b 03 be 84 68 48 3e 3f 48 2a be d6 81 0c bd
       -0.12846276 0.1957112 -0.16629122 -0.03430351
000120 82 6f c1 bd 49 70 9e 3d c3 cb 55 3e 57 84 be bd
       -0.094450966 0.077362604 0.2087851 -0.093025856
000130 c7 57 49 3e 35 e7 4f bd 57 e9 48 bc 8c 34 59 bd
       0.1966239 -0.050757606 -0.012262664 -0.05302863
000140 86 06 b9 bd 1e 81 96 3d 0f 46 e9 3d e9 f0 3e bd
       -0.09034447 0.07348846 0.11390316 -0.04661647
000150 3a 0c d6 3d 8b 24 45 3d 4f d4 e5 3c 37 9a dd bd
       0.10451551 0.048130553 0.028055338 -0.1082043
000160 08 54 61 bd ae 9d ac bd 80 41 07 3d 2b cb 41 3e
       -0.05501178 -0.084285125 0.03302145 0.18925159
000170 0c 1b 09 bd 45 73 4f 3e d5 05 49 bd 99 2e 7e bd
       -0.03347306 0.20258816 -0.049077827 -0.062056158
000180 58 e4 aa bd 7f a9 53 bd 2c 22 3d be 5e 54 25 be
       -0.08344334 -0.051675316 -0.18470067 -0.16145465
000190 63 9b 85 3d 43 00 1b bd 8a f8 a6 bd 26 56 c7 3d
       0.06523778 -0.037842046 -0.08152874 0.097332284
0001a0 3b b4 b8 3d 77 22 ab bd 72 c2 55 3e 0d f6 d6 3d
       0.09018751 -0.08356183 0.20874956 0.10496149
0001b0 0f 6d 85 3d 0a 7a 98 3d 65 78 85 3b d4 6d f6 3d
       0.06514942 0.07445152 0.00407319 0.12032667
0001c0 24 fa f7 3c 8c ed 5e 3e 26 0a 2e 3e 4f 2e 80 ba
       0.030270644 0.21770304 0.16996059 -0.0009779426
0001d0 94 8f 15 3d 60 77 47 3d 98 ae 82 3d 90 12 13 bd
       0.03651388 0.04869783 0.06380957 -0.035906374
0001e0 01 18 3b bd 65 35 61 3c 2d 55 3c bd b0 1b 97 bd
       -0.04567719 0.01374564 -0.045979667 -0.07378328
0001f0 4e 4d 76 3d 27 18 19 3e 5f eb f8 bb d9 04 01 be
       0.060132317 0.1495062 -0.007596418 -0.12599505
000200 3d f3 23 be 0d 88 c8 be 34 1f d6 bd 82 d4 00 bd
       -0.16010757 -0.39166299 -0.1045517 -0.031452663
000210 76 c9 62 3e 08 f0 28 3e 43 d9 9a bd 8a 1a c6 3c
       0.22147164 0.16497815 -0.07560971 0.024182577
000220 33 1a 13 be 7e 22 ce bd 0b 2b 49 bc de 4b 0c 3d
       -0.14365463 -0.100651726 -0.012278329 0.03425204
000230 a0 b1 e5 bd 32 40 1b be 1d ad 15 be 11 9b 06 be
       -0.1121552 -0.15161207 -0.14616819 -0.1314509
000240 93 e5 3d 3e 53 d9 08 be 72 51 59 be fe e7 29 be
       0.18544607 -0.13364153 -0.21222475 -0.16592404
000250 70 39 c0 bd 1c 42 3e 3e b7 f4 50 be 96 68 1c 3d
       -0.09385955 0.18579906 -0.20405851 0.03818568
000260 a3 c3 18 bf 09 cc 89 bc 79 d6 8b bd d8 97 9f bd
       -0.5967352 -0.016820924 -0.06828017 -0.07792634
000270 6a 31 df 3d 7b 62 13 be 83 e9 7c be ea ba b4 3e
       0.10898097 -0.14393036 -0.24698453 0.35298854
000280 fb e2 8f bd 7f 58 14 3d 56 82 52 bb e2 07 3e bf
       -0.07025715 0.03621721 -0.0032121143 -0.7423078
000290 c5 ed 48 3e d5 78 45 be 98 5a a5 3d 89 d8 26 3e
       0.19621952 -0.19284375 0.0807392 0.16293539
0002a0 34 7b b9 bd 7c 99 0a be 23 25 91 bd 3b 8e fb 3c
       -0.09056702 -0.13535112 -0.070871614 0.03070747
0002b0 37 bd 3c be 2f 0b 8a be 8d f2 5a 3e 6d 23 d7 bd
       -0.18431555 -0.26961657 0.21381588 -0.10504804
0002c0 8c 07 0d 3e da 07 1b 3d b5 65 3c be df ad ab 3e
       0.1377241 0.037849285 -0.18398173 0.3353109
0002d0 e6 30 82 be 31 6c c8 bd 35 79 9d bb b1 3f 72 3b
       -0.25427932 -0.09786261 -0.004805709 0.0036964233
0002e0 92 a8 c7 be a9 15 af 3d be 58 af bd 46 6f 03 be
       -0.38995796 0.08549053 -0.08561848 -0.12835416
0002f0 63 5b e4 3e e1 08 47 3d 82 0d 79 3d 91 39 59 3e
       0.44600973 0.048592452 0.060803898 0.21213366
000300 ec 28 0b 3e 17 08 29 3d e2 cb fa bd ca cc 9d bd
       0.13589829 0.04126748 -0.12245919 -0.07705076
000310 5b 83 f1 3d 06 f2 02 bd 6e 26 fb 3d a9 1c 44 be
       0.11792632 -0.031969093 0.12263189 -0.19151558
000320 ed 1c de bd ce 62 a1 3d db cd a1 3d 70 5a 9d bc
       -0.10845361 0.078801736 0.07900592 -0.019208163
000330 11 34 23 3e 1c e7 25 be da 7c 09 3e b7 a0 8d 3d
       0.1593783 -0.16201442 0.13426533 0.069154195
000340 e4 62 ea 3c 9e 43 df bb 57 80 a6 bd 19 9f 3c 3e
       0.028611608 -0.0068134805 -0.08129948 0.18420066
000350 7b d7 0a 3d c2 d8 6f 3e 39 c6 d4 3d f7 dd c4 bc
       0.033896904 0.2342253 0.103893705 -0.024031622
000360 44 b9 38 bd 51 e6 c1 bb 1a a5 0b 3e 1a 46 87 bd
       -0.045098558 -0.0059173484 0.136372 -0.06605168
000370 f9 59 16 bd c1 98 b9 3d db f7 36 3d e8 ac 5f be
       -0.0367069 0.090623386 0.044669967 -0.21843302
000380 88 68 4b bd 1e 4a 59 3d 62 33 09 bd 07 86 e2 3d
       -0.049660236 0.0530492 -0.033496268 0.1106072
000390 a3 cf 4b 3e 96 d4 50 3e 4d be 14 bd 52 5b 22 3d
       0.19903426 0.20393595 -0.036314297 0.03963787
0003a0 26 ec b1 bd 27 80 c5 bd 15 08 a6 3d fe f5 86 be
       -0.0868762 -0.09643584 0.0810701 -0.26359552
0003b0 a6 c9 9a bc 6a 6f a0 3c b9 be b0 bc 9d f4 8d bd
       -0.018894982 0.019584376 -0.021575319 -0.06931422
0003c0 e3 c1 f4 3c b5 d3 1b be 9e 7d 01 3d ab e4 f0 be
       0.029877609 -0.15217479 0.03161394 -0.4704946
0003d0 4a 8b d0 3e 36 d3 bf ba 9f 12 00 3e 90 8a b0 bd
       0.4073127 -0.0014635089 0.12507103 -0.08620179
0003e0 6a a8 89 bd d3 67 7a 3c 7c 76 1a bd 50 1d d4 bc
       -0.067215756 0.015283543 -0.03771065 -0.025892884
0003f0 f6 0f 21 be 6a 8f 00 be 00 18 41 be 01 24 8d 3c
       -0.15728745 -0.12554708 -0.18856812 0.017229082

flows.0.t.0.2.bias f4 [32]
000000 c4 21 3f 3e f6 ea 07 bc 75 3d 66 3e 0b e7 a0 3e
       0.18665224 -0.008295765 0.22484381 0.31426272
000010 9b 97 94 be a8 45 1b 3d fc d5 3d 3e 1f 98 81 be
       -0.29021916 0.037908226 0.1853866 -0.25311372
000020 e9 f2 4a 3e ad 8a ea 3d 6b 7f 18 bd 61 e8 1e 3d
       0.19819225 0.114522316 -0.03723089 0.038795833
000030 90 77 f0 3c 84 a1 6e be 2e 37 9f 3e 63 76 94 3e
       0.029353887 -0.23303801 0.31096786 0.28996572
000040 cc 21 1a 3d a6 0c 17 bd e5 1c 78 be 08 75 3f bd
       0.037629887 -0.036877297 -0.24229772 -0.04674247
000050 86 88 26 3e f2 28 68 3d 14 1a c8 3e e8 9c b0 bd
       0.16263017 0.056679673 0.39082396 -0.086236775
000060 04 e3 f2 3d 4d a3 65 3e c2 0b 3e be 8c 81 82 3d
       0.11859706 0.22425576 -0.18559173 0.06372365
000070 25 f3 43 be de 19 8f 3b 44 7c 91 bb 33 13 7c ba
       -0.19135721 0.0043670973 -0.0044398624 -0.0009615898

flows.0.t.0.4.weight f4 [64, 32]
000000 35 0c 01 3d ea a5 c5 3d f4 76 fb 3c 7d 79 ba 3d
       0.031505782 0.09650786 0.03069637 0.09105203
000010 91 a2 b7 3d 18 90 52 bd 4c a7 28 be 0c 04 e5 bd
       0.08966554 -0.05140695 -0.16470069 -0.111824125
000020 80 3e 5c bd e5 64 ac bd 7a ab b9 bc 84 89 e6 bc
       -0.053770542 -0.084176816 -0.022664774 -0.028141744
000030 03 9c 7f bb 28 3d 14 3d 14 b2 95 bd 51 34 4f 3e
       -0.0039002902 0.036191136 -0.07309356 0.20234801
000040 e0 5d dd bd 6c 39 2a 3e 02 a1 4a be dd 27 0f bd
       -0.10808921 0.16623467 -0.19787982 -0.034950126
000050 67 97 45 bd 3c bc 41 3c 60 b1 e4 3d 2a 9c e3 3c
       -0.04824009 0.011824664 0.11166644 0.027784426
000060 5a 32 54 3d b1 aa d1 3c 55 d6 16 3d b1 55 64 3e
       0.05180583 0.025594087 0.036825497 0.22298314
000070 fc 27 d0 3d 61 e1 11 bd 0b 39 11 bd e5 0e 11 be
       0.101638764 -0.03561533 -0.03545479 -0.14165838
000080 40 19 30 3d 09 ff 39 be a5 c7 83 bd bd ae fe 3d
       0.04299283 -0.18163694 -0.064345635 0.124356724
000090 f9 14 3c be 66 ca c2 3c a3 f0 af bd 1d 3c ed 3d
       -0.18367375 0.023778152 -0.0859082 0.11583731
0000a0 b0 e9 22 3d ec 26 4f bc 2b 7b 4c 3e 0b ab 89 3d
       0.039773643 -0.012643557 0.1996886 0.06722077
0000b0 24 cf f2 3d 63 78 0f 3e 8a 72 62 3d e3 5c 5a 3e
       0.11855915 0.14010768 0.055285014 0.21324496
0000c0 82 f5 e8 bc 2d 1c 9a 3e e9 eb 58 3d 6d f9 49 3d
       -0.02843738 0.3009962 0.052959356 0.049310137
0000d0 43 32 66 be ac a9 e1 bb df 56 b2 3d 7d fb 0f bd
       -0.22480111 -0.0068866815 0.087079756 -0.035151947
0000e0 89 4a 9f bd e9 d5 8d 3e 2b 5f 30 be c9 4e 9f 3e
       -0.07777888 0.27702263 -0.17223804 0.31114796
0000f0 56 b2 2b bd f7 a5 7a be f2 cf 51 be dd b9 37 3d
       -0.04191812 -0.24477373 -0.20489481 0.044854987
000100 85 00 0d 3d 8d f0 df bd 24 46 b0 bd b6 d9 3d 3e
       0.034424324 -0.10934553 -0.08607128 0.18540081
000110 3c fe c8 bd 2d 6d 83 3d 07 16 b5 bd 92 d9 e4 bd
       -0.09814116 0.06417308 -0.08842092 -0.11174311
000120 db fc 50 bc ac a5 9b bd ea fe 32 be 5e 90 85 3d
       -0.012755598 -0.07599959 -0.17480054 0.065216765
000130 af dd 67 bd 1b 1d 22 be 87 8c ef bb 2b 3d 85 3c
       -0.0566079 -0.15831415 -0.0073104533 0.016264519
000140 c5 8d db bd 0f a4 67 3d ab 86 ad bd fc 45 71 3c
       -0.107204 0.056552943 -0.084729515 0.014726158
000150 9e a0 2d 3d dd bc a2 bd 52 14 da bd ad e0 6a bc
       0.042389505 -0.07946179 -0.10648407 -0.014335793
000160 d5 de 08 bd 5a 12 61 3d 5d e7 a5 3d 41 14 30 be
       -0.033415634 0.054949142 0.0810077 -0.17195226
000170 87 13 ae 3d 99 b6 4b bd 20 3d 09 bd 9a ad e8 3d
       0.08499818 -0.049734686 -0.03350556 0.11361237
000180 b8 70 1c bd a2 28 a9 bd 7a b5 90 be c6 4a 90 be
       -0.038193434 -0.08259703 -0.28263456 -0.28182048
000190 c8 ea 6f 3d e3 0d a7 3c 08 ab cc bd 27 27 11 be
       0.058573514 0.020392364 -0.09993559 -0.14175092
0001a0 b4 c5 5b bb e5 30 26 be fd b3 10 be 61 cf 89 3c
       -0.0033534588 -0.1622959 -0.1413116 0.016822519
0001b0 4a ca 5b bd b3 a6 0d 3e e0 ed 43 be 38 65 20 3d
       -0.053659715 0.13833122 -0.19133711 0.03915903
0001c0 c3 08 30 be 9b 98 4b bb ec 1d 3f 3d 59 65 de 3c
       -0.17190842 -0.0031066302 0.046659395 0.027147936
0001d0 00 e9 90 bd ad 0a 16 3b 2f 11 1d 3d 78 23 aa bd
       -0.07075691 0.0022894547 0.038346466 -0.083075464
0001e0 39 e9 37 3d e5 e0 ed bd 5e 6a 85 3e ea 14 05 be
       0.044900153 -0.11615161 0.26057714 -0.1299626
0001f0 c4 46 bc bd f2 1b 12 3e 07 8b 91 3d 5d 25 2a 3e
       -0.09193185 0.14268473 0.071065955 0.16615815
000200 6c fc fb 3d 9e 2a f6 bd 89 f1 64 3d 5b c1 f7 bd
       0.12304005 -0.12019847 0.05589441 -0.120974265
000210 53 df 88 3d 61 58 17 3e db 7a 70 bd fc 36 62 be
       0.06683221 0.14779808 -0.058710914 -0.22091287
000220 02 2b b0 bd 82 3b ee bd ba 0c ba 3d 46 33 bd 3c
       -0.08601953 -0.11632444 0.09084459 0.023095738
000230 98 1d 4b 3d de 5c 2f 3e 3a e1 cc 3c 65 a1 1a 3d
       0.04958877 0.1712527 0.02500974 0.037751574
000240 70 fd a4 3d 56 33 9a 3e b2 fc 98 bd 47 57 3a 3e
       0.08056152 0.3011729 -0.07470073 0.18197356
000250 df 1f 61 bd f2 3d 13 be 62 10 b4 3d 93 c7 6f 3d
       -0.054962035 -0.14379099 0.08792187 0.05853994
000260 d2 41 10 3d 25 9b 9e 3d cf fa c8 3d 68 35 bf 3d
       0.03521902 0.07744435 0.09813463 0.09336358
000270 69 3f 09 3e 8d 86 2d be b6 b2 31 be 9a 75 e9 3d
       0.13403095 -0.16945858 -0.17353329 0.11399384
000280 b8 ff c6 3c 97 1f 0b bc 16 bb 10 3b d7 ae 23 bd
       0.024291858 -0.008491418 0.0022084168 -0.039961662
000290 4d a5 96 3d a4 1f c5 3c a2 e3 46 3d d8 cb e8 bd
       0.07355747 0.024062939 0.04855693 -0.11367005
0002a0 f3 ee 81 bc 75 a6 d4 3b d5 89 8b bd 9e a1 31 bd
       -0.01586101 0.00648957 -0.06813399 -0.04336702
0002b0 53 44 eb bc c2 4b 5d be d2 70 f9 3d 63 74 8f bd
       -0.028719103 -0.2161093 0.12179722 -0.07004621
0002c0 8a dd 25 bc 3a e6 fe 3b eb 14 e5 3c 1b d2 59 3d
       -0.01012362 0.00777891 0.027964076 0.053178888
0002d0 39 c1 fe 3d bf b4 ba 3c 99 fe ba 3c 9d 7a 26 bb
       0.12439198 0.022791265 0.02282648 -0.0025402673
0002e0 a6 41 96 3b 12 62 3d bd 0e 5b 10 be 24 07 93 3d
       0.0045854626 -0.046236105 -0.14097235 0.07179096
0002f0 e2 a5 2b 3c 0e 70 26 bd c3 d8 b3 3a 25 3d 29 3d
       0.010476561 -0.040634207 0.0013721216 0.041318078
000300 d6 18 30 3e 5e be 1a bc 7c 1a 38 be 7f 10 8d 3d
       0.17196974 -0.009444801 -0.17978853 0.06887912
000310 86 e1 95 3d ec 97 2a 3e d2 41 d9 bd 55 e2 65 3c
       0.07318406 0.16659516 -0.10608257 0.014031013
000320 05 ee eb bb f2 b8 c6 3d 2d 27 29 3e b3 a9 1f be
       -0.007200005 0.09703244 0.1651885 -0.15592079
000330 ff 6f 8d bb 2e c5 8d 3d 6a 64 0d bd f3 a8 1c bd
       -0.0043163295 0.06922375 -0.03451959 -0.03824706
000340 ba f9 79 3d d9 f0 a0 bd 9e 4d 05 3e 62 9e 3e 3e
       0.061029173 -0.07858438 0.1301789 0.18615106
000350 4a ab a0 bd 9d 3d 88 bd 9b f3 3b 3d 23 d7 93 bd
       -0.07845171 -0.06652377 0.045886617 -0.072187684
000360 e1 1f a1 bd 6c de 06 3d ee 8c 0a 3e c9 40 41 3d
       -0.078674085 0.03292696 0.13530323 0.047180925
000370 b7 4b bf bd 6d 0b 9e 3d f4 66 02 3e 58 d3 2b 3e
       -0.09340613 0.07717023 0.12734586 0.1677984
000380 01 b3 68 3b 6d c1 e6 bc 70 38 01 3e 22 55 60 3e
       0.0035507085 -0.028168404 0.12619185 0.21907476
000390 ec c0 23 bd 86 19 3f be c7 28 2c 3e b0 75 54 3e
       -0.039978907 -0.1866208 0.1681243 0.20748019
0003a0 1b 9e 22 be 82 49 92 3d 7b d3 90 3d c5 0d 71 be
       -0.15880625 0.07142927 0.07071587 -0.23540409
0003b0 6d 81 28 be 15 64 a9 3e 4a 41 4a bc c5 7f e8 3d
       -0.16455622 0.3308417 -0.012344668 0.11352495
0003c0 ec 02 1b bd e7 d2 3d 3d 03 ab e2 bd d7 76 97 be
       -0.037844583 0.04634371 -0.11067774 -0.29582855
0003d0 70 71 fb bc 87 13 5f 3e 05 1c 2a 3e ab e2 ac bd
       -0.03069374 0.21784793 0.16612251 -0.08441671
0003e0 2a ad 2b 3e 3c b1 c9 3c 3a 78 65 be 8b 89 56 3c
       0.16765276 0.024620645 -0.22409144 0.013094316
0003f0 ec 15 e5 bd 50 af c5 bd 6b b8 e6 be b8 17 75 bd
       -0.11185822 -0.09652579 -0.45062575 -0.059837073

flows.0.t.0.4.bias f4 [64]
000000 ed 71 c4 3d 0a 30 01 3f 31 d2 01 3f 01 ae a3 bd
       0.09592042 0.50463927 0.5071135 -0.07992173
000010 03 58 70 3e b3 bf 74 3e ff a1 b7 bd ec 53 8e 3e
       0.23471074 0.23901252 -0.08966445 0.27798402
000020 ff a2 ed 3e 99 8a c0 3d e2 3a 55 3e ea 9f 38 bd
       0.4641342 0.094014354 0.20823243 -0.04507438
000030 15 7c 45 3e d3 c0 60 3e 59 76 10 be 69 90 09 be
       0.19285615 0.21948557 -0.14107646 -0.13433994
000040 f3 08 48 3e 0e 90 5b 3e 2e 57 f2 bd 54 a5 9c bd
       0.19534664 0.21441671 -0.118330345 -0.07648721
000050 87 3c 3d 3d b8 16 73 3d cf e9 25 be 04 60 bb be
       0.0462003 0.05934784 -0.16202472 -0.36596692
000060 41 46 2a 3e ed 6e ae bd e9 1d 2c be e9 32 5e 3d
       0.16628362 -0.08517251 -0.16808285 0.05424777
000070 ea cd 12 bd a7 18 93 bd df 39 d3 3d d4 72 b8 3e
       -0.035840906 -0.071824364 0.103137724 0.36025107
000080 00 c7 1f be e5 20 ae 3b ca b2 2d be e3 4b 22 3e
       -0.15603256 0.00531398 -0.16962734 0.15849261
000090 f3 4b ce 3d f9 b0 27 be c4 8a a3 3d 29 33 da bd
       0.1007308 -0.16376103 0.07985452 -0.10654289
0000a0 85 bd 8c bc a5 75 9c 3d ee 85 2e 3e e8 18 c7 3d
       -0.017180214 0.076396264 0.17043278 0.09721547
0000b0 5b 4d 1a 3e 24 bc 51 3d 7f 94 88 3d 96 b3 d0 bd
       0.15068571 0.051204816 0.066689484 -0.10190503
0000c0 c4 db 8f 3d 16 79 5c bc 32 40 d8 3d fe 6e 9c ba
       0.07024339 -0.0134566035 0.10559119 -0.0011934934
0000d0 50 50 b3 bd 7e 6a 0c 3e 2c 8c b5 bd d5 0d 89 3d
       -0.08755553 0.13712499 -0.08864626 0.066920914
0000e0 63 2a 30 be c7 96 21 3e 19 fa 30 3d 8a f3 0e 3d
       -0.17203669 0.15780173 0.04320726 0.034900226
0000f0 c2 0a 4f 3d 2b 0b d1 bd ac a4 9b 3d f8 64 af bc
       0.05054737 -0.10207208 0.07599768 -0.02141045

flows.0.t.1.0.weight f4 [32, 64]
000000 cd c4 09 3d 55 e1 ae 3c 1b 96 94 3e ff 5b 82 be
       0.03363495 0.021347681 0.2902077 -0.25460812
000010 30 02 9f 3d 02 6e 72 be 77 d9 85 3e 8d 07 0e be
       0.07764089 -0.23674777 0.26142475 -0.13870068
000020 34 69 81 bd ea 6b e6 3d 10 2e b3 be ab 1b 52 3d
       -0.06318894 0.11251052 -0.3499608 0.051295917
000030 3a f1 06 3e 1e ac 83 3d 76 3c 62 3a e4 21 4d be
       0.13177958 0.06429313 0.0008630225 -0.2003246
000040 42 60 08 be 1e 3c d5 3c 4d b1 f6 3d 89 ee ab 3e
       -0.1331797 0.026029643 0.12045536 0.33580425
000050 aa 7e 69 bd 69 e0 7f bd e8 4b ab 3e f5 de 1d be
       -0.057005562 -0.062469874 0.3345635 -0.15417083
000060 55 f2 7f bd 47 27 c0 3a f4 d1 90 be 7f 70 44 3e
       -0.062486965 0.0014660143 -0.28285182 0.19183539
000070 29 16 d4 bd da 91 61 3c 84 f7 79 be 1b 5a 93 bd
       -0.10355789 0.013767684 -0.24410826 -0.07194921
000080 b4 ad a5 bd 38 0f ed 3c 00 75 a0 ba e0 d7 9c bd
       -0.08089772 0.02893792 -0.00122419 -0.076583624
000090 24 c2 77 bd 10 65 a0 3d 00 8c 16 bc 50 35 91 3c
       -0.06048788 0.07831776 -0.009188652 0.017725617
0000a0 46 6a 99 3d 30 76 df bc ea 2f 9a bd 7a 95 84 bd
       0.07490973 -0.027278036 -0.0752867 -0.06473823
0000b0 d0 56 41 3d d8 4c 85 bd 40 8b 68 bb 54 43 a3 bd
       0.04720193 -0.065087974 -0.003548339 -0.07971826
0000c0 48 78 d7 3c d2 a9 d6 3d 80 aa 2d 3c 68 9e 91 3c
       0.026302472 0.104816094 0.010599732 0.01777573
0000d0 18 ed ac 3c ce 95 e7 3d 14 da bf bd ac 3d 1d bd
       0.021109149 0.1130787 -0.09367767 -0.038388893
0000e0 70 e5 b9 3c 26 da 8a 3d 34 63 4f bd 30 ea 41 3d
       0.022692412 0.0677989 -0.050631717 0.04734248
0000f0 90 5b 6e 3d 1e 4c e3 3d 42 41 ca 3d c0 79 a3 3d
       0.05819279 0.110985026 0.09875728 0.07982206
000100 d1 1e 92 bd 00 b9 0c 3e 0e 93 0c be 4b d2 6e 3e
       -0.07134784 0.13742447 -0.13727972 0.23322408
000110 4c e5 41 3c 2a eb 87 3e 27 dd 11 be db 65 f5 3b
       0.011834454 0.26546603 -0.14244519 0.0074889488
000120 c4 4a e0 bc 4c cc 1c be 7b b5 1d 3e ed 2f ac 3e
       -0.027379401 -0.15312308 0.1540126 0.33630314
000130 09 39 0f bd b3 f2 07 bd e2 64 2e be 05 d7 e1 3d
       -0.034966502 -0.03319044 -0.17030671 0.1102734
000140 23 cd a1 bd 8b de 3a 3d 3c b5 38 3e 0d 65 93 3e
       -0.07900455 0.04562239 0.18037885 0.28788033
000150 5d ff fb bd 4e 40 64 3e c8 a4 4a be 19 0e 2d 3e
       -0.12304566 0.22290155 -0.19789422 0.16899909
000160 1e e6 82 bd 36 b3 83 3e 62 b0 3e 3d 95 fe 0e bf
       -0.063915476 0.25722665 0.04655493 -0.5585721
000170 29 70 b3 bc be 72 04 3e f1 91 1a be cf 42 b3 bc
       -0.021904068 0.12934396 -0.15094735 -0.021882443
000180 86 ad ed bd a4 aa 7d bd c8 a0 e1 bd 2c 46 5b 3d
       -0.116053626 -0.061930314 -0.11016995 0.053533718
000190 ce a4 c3 3d 86 12 af bd 0a d9 b3 3d a0 99 17 bd
       0.095529184 -0.08548455 0.08781631 -0.037011743
0001a0 f4 23 0b bd 40 61 0b bb 20 96 70 3d c0 5a c7 bc
       -0.033969834 -0.0021267682 0.05873692 -0.024335265
0001b0 64 8c 4b 3d 80 9c c2 3a 40 52 dd bb 82 dc 9d 3d
       0.049694434 0.0014847666 -0.0067541897 0.07708074
0001c0 5a d6 c7 bd 24 bc 69 bd f0 fd 2d 3d 20 3c 8b 3d
       -0.09757681 -0.05706419 0.0424785 0.06798577
0001d0 fc f3 6a bd 24 d4 ad bd 9c 9f 0e bd 6c af f9 bd
       -0.057361588 -0.08487728 -0.034820184 -0.12191662
0001e0 b8 cc cd bd 1a 6e b7 3d ba d3 dd bd ec 37 8d bd
       -0.10048813 0.08956547 -0.10831399 -0.06895432
0001f0 90 8b 8c bc 1e 37 ef 3d c0 52 e8 3d 50 68 21 3c
       -0.017156392 0.11680435 0.11343908 0.00985153
000200 93 45 40 bd 4e 0d d2 3c 08 c5 1f 3e 97 fd 0b 3d
       -0.04694135 0.02564111 0.15602505 0.03417739
000210 0d 63 d5 3d 94 87 9b be b9 93 c3 3e 98 30 f3 bd
       0.10419283 -0.30376875 0.3819864 -0.11874503
000220 5b 1e f4 bd c7 48 a6 3c a0 05 2c bf bf 58 5c be
       -0.11919852 0.020298375 -0.67196083 -0.21518229
000230 ca 02 a6 bd 6c 29 4f bd a3 83 49 be 4a ef 48 3e
       -0.08106001 -0.050576612 -0.19679122 0.19622532
000240 4b e1 f4 bd 73 7d 44 bd a9 59 5d 3e 4c 97 2b 3f
       -0.11957034 -0.0479712 0.21616234 0.67027736
000250 04 8d aa bc 6b ea 2c 3d 65 5d 6c bd 9b 97 d3 bc
       -0.020819195 0.042215746 -0.057706255 -0.025829127
000260 33 5d 8c bd 17 e6 95 3d c4 f1 14 bd 5b dd 1a bf
       -0.06853714 0.07319277 -0.03636338 -0.6049401
000270 85 93 41 bd 42 32 79 bc e0 d1 ca bc 37 d6 0b be
       -0.047259826 -0.015209736 -0.02475828 -0.13655935
000280 94 ae ee 3d 84 e3 45 3d 2c c7 3d 3d d0 58 11 3c
       0.11654392 0.04831268 0.046332523 0.008871272
000290 42 b9 8e 3d e0 02 9e 3b 60 ad c7 bc e6 b0 96 3d
       0.06968929 0.00482212 -0.024374664 0.073579594
0002a0 b8 24 a5 3c de ca 9a bd 80 1e a3 3b 80 b3 4c 3b
       0.02015911 -0.07558225 0.004978001 0.003123492
0002b0 90 6f da 3c 28 63 8f bd b0 60 22 3c fa db fd bd
       0.026664525 -0.070013344 0.009910747 -0.12395473
0002c0 48 32 33 3d bc 00 1d bd c4 d2 88 bd a0 20 77 bd
       0.043749124 -0.03833078 -0.06680825 -0.060333848
0002d0 9a 76 ed bd 66 59 c9 bd 04 8e b9 bd 00 55 62 ba
       -0.11594887 -0.098315045 -0.090602905 -0.0008633882
0002e0 d0 cb 4f 3d 5a e7 8f 3d c8 90 c9 3c ba 06 99 bd
       0.05073148 0.07026549 0.02460517 -0.07471986
0002f0 7c 17 4c bd 16 82 e4 bd 88 ec 37 3d e2 0a bc bd
       -0.049827084 -0.111576244 0.04490331 -0.09181763
000300 97 86 e1 3c aa f3 66 3d 0b 22 47 be a4 9d 8b 3d
       0.027529998 0.05638472 -0.1944658 0.06817177
000310 72 68 03 be 75 7a 71 bd 99 0a 8e 3d 8a 86 e3 3c
       -0.12832811 -0.058954675 0.06935615 0.027774114
000320 48 bd 12 bd 97 06 b0 bd fd a3 99 3e 7c b3 17 3e
       -0.035825044 -0.08595007 0.30007926 0.14814562
000330 2d 62 23 be 9a 0d 18 be 1d 76 bf be ff f1 45 be
       -0.1595542 -0.14848939 -0.373948 -0.19330595
000340 16 d1 0d be ef 3f 23 3e 39 f7 8e 3e e7 f1 8e 3d
       -0.13849291 0.15942357 0.2792299 0.06979733
000350 d6 75 04 be 40 ae 8a 3d 54 96 5c bd c1 0b 97 bd
       -0.12935576 0.06771517 -0.0538543 -0.07375289
000360 7a 33 2a 3e d8 23 ca bd 21 ac ae 3d 02 ae 8d 3e
       0.16621199 -0.09870118 0.08528925 0.2767182
000370 e6 5c e6 bc 9a 60 a2 bd 4d dd 29 3e fe 37 1b 3d
       -0.02812047 -0.079285815 0.16588326 0.037895195
000380 8e 61 cf bd 8a 15 9a bd d4 83 a6 3d 40 42 13 bd
       -0.10126029 -0.075236395 0.08130613 -0.035951853
000390 74 04 cf 3d 30 55 07 3d 34 c8 9e bd c0 f7 35 3d
       0.10108271 0.033040226 -0.077530295 0.044425726
0003a0 40 e6 c5 bd 04 00 be bd f0 39 38 bc 9c e4 58 3d
       -0.09663057 -0.09277347 -0.011244282 0.052952394
0003b0 8a 64 b5 bd 40 e1 df bc 8c 17 77 3d 10 66 48 3d
       -0.08857067 -0.027329087 0.06032519 0.04892546
0003c0 ba 51 c3 bd d8 9a 8c 3d 8c f1 59 bd 14 f3 09 3d
       -0.095370725 0.068654716 -0.053208873 0.033679083
0003d0 c8 73 83 bd e0 92 7f 3d 40 0d 34 bd fe 1d ed 3d
       -0.06418568 0.06239593 -0.04395795 0.11577986
0003e0 60 8c c1 bc 38 4d da bd 22 8e 81 3d 68 f7 bc bc
       -0.023626506 -0.106592596 0.06325938 -0.023067191
0003f0 00 d9 eb bc e0 9f f6 3c e2 41 a6 bd 8e be 89 bd
       -0.028789997 0.030105531 -0.08118035 -0.067257985

flows.0.t.1.0.bias f4 [32]
000000 d8 04 b2 3e 7d 99 3f be 70 3f 79 3d d5 56 00 be
       0.3476932 -0.18710895 0.060851514 -0.12533124
000010 d0 be 83 bd 18 ce 7a 3d f9 8d 52 3e 92 ea 7f 3e
       -0.06432879 0.061231703 0.20561971 0.24991825
000020 27 5e 40 bb c9 01 8d 3e 42 bb 10 3e 27 b2 99 3e
       -0.0029352994 0.27540424 0.14133933 0.30018732
000030 4d 35 8a 3e 96 12 a4 3e 32 04 10 3e 39 42 72 3e
       0.2699379 0.3204543 0.140641 0.23658074
000040 1e 9e 9b 3e f6 85 88 bd 84 63 5e 3e 57 91 2b 3e
       0.3039407 -0.06666176 0.2171765 0.16754662
000050 4e 56 0a bd 07 71 f1 bc 06 89 da bc 31 a6 11 3d
       -0.033773713 -0.029472841 -0.026676666 0.035558883
000060 ac 72 cc bd d8 50 08 3d af 7a 22 be 73 57 5b 3e
       -0.099828094 0.033280224 -0.15867113 0.21420078
000070 31 7f 83 3e d5 be 45 3d 0e e6 cb 3e 9a ed 48 3d
       0.25682977 0.048277695 0.39823955 0.04905472

flows.0.t.1.2.weight f4 [32, 32]
000000 01 85 1d 3e 65 ef 43 3d c6 ce e6 3a 6a 5d 10 3e
       0.15382768 0.047835726 0.0017609231 0.14098135
000010 73 6d 84 3c d6 ae 10 be d2 40 32 3d ef 86 08 bd
       0.01616547 -0.14129195 0.04351885 -0.033331808
000020 f5 62 06 be 83 61 c1 3d bf ab 32 be 8b b6 14 3e
       -0.13123687 0.09442427 -0.17448328 0.1452276
000030 d1 34 90 3d 78 2f 28 be a4 96 db bd 0b 2f 66 3d
       0.07041324 -0.16424358 -0.10722092 0.056197207
000040 15 4d 17 bc fd ad 97 bd 9e ba bf bd 6f 8d 6d bc
       -0.009234686 -0.074062325 -0.09361766 -0.014499052
000050 61 aa 50 be 09 05 30 bd 34 58 cf bc d3 c1 30 3d
       -0.20377494 -0.042973552 -0.025310613 0.043153595
000060 bc 48 ae be 29 75 5a 3b 4e b4 35 be 5c 5e 3c 3c
       -0.34039867 0.0033333993 -0.17744562 0.011497106
000070 49 20 df bd c9 b3 4f 3e c1 75 c3 bd e4 fc 94 3b
       -0.1089483 0.20283426 -0.09543944 0.0045467485
000080 f9 d3 93 3d a3 f4 41 be fa 14 13 bd 26 1b 10 3d
       0.07218165 -0.18940978 -0.035908677 0.03518214
000090 e8 cc 2b 3e d0 f0 28 3e b8 64 82 3e 33 e0 28 3e
       0.16777384 0.16498113 0.25467467 0.16491775
0000a0 4c 5c 74 3e e0 bd cb 3d 60 98 33 be 84 fd 70 bd
       0.23863333 0.09948325 -0.17538595 -0.05883552
0000b0 5e 8a df 3c ba dd 2e 3d d2 79 90 bd 9d 26 ca 3d
       0.027287658 0.042691924 -0.070544854 0.09870646
0000c0 5f f7 b1 bd f9 73 43 3e 96 8e 2f 3e 23 ef 72 bd
       -0.086897604 0.19087209 0.17144236 -0.05931009
0000d0 26 5d dc 3d bf 42 30 3e 77 c1 b1 3e 84 40 83 3d
       0.10759954 0.17212962 0.34717914 0.0640879
0000e0 44 bf 05 3e 6a 9e d8 bd cf cd 19 be f2 be d6 3c
       0.13061243 -0.1057709 -0.15019916 0.026214097
0000f0 63 4b fa bd 35 b5 a5 bd 39 a5 d6 bd 55 ce df bc
       -0.1222141 -0.08091203 -0.104807325 -0.027320066
000100 3a 77 2b be 2a 49 00 be 8c 25 6c be 5b 01 40 3e
       -0.167447 -0.1252791 -0.23061198 0.18750517
000110 d6 e6 d4 3d f4 fe 56 be a1 d4 32 be 10 1d 99 bd
       0.10395591 -0.20995694 -0.17463924 -0.07476246
000120 0e 96 cb bb 7d 87 0f 3e 8d 3d 18 3d bb 3c f5 3c
       -0.0062129563 0.14016528 0.037168074 0.029936185
000130 0b 13 30 3e 63 95 fb bd e8 3d 47 bc 6f 94 62 3d
       0.17194764 -0.12284353 -0.012160756 0.05531734
000140 a1 ef a0 3d 5a b9 eb bb 95 43 dd bb e8 6b 86 3e
       0.078582056 -0.0071937265 -0.006752441 0.262542
000150 dc 1a 08 bf 37 48 bf 3d 5e 2d 11 be 90 48 25 3d
       -0.53165984 0.09339946 -0.14177462 0.040352404
000160 15 a3 9b be a0 3a d3 3d d0 18 24 3e 1f 54 f5 3d
       -0.3039786 0.10313916 0.1602509 0.119789355
000170 da dd 13 3e c3 c9 c4 be d8 af 40 be fc 57 ed 3d
       0.14440098 -0.38435182 -0.18817079 0.11589047
000180 55 85 1d 3d 15 ad bb 3d 78 81 04 bd e3 4c 1f be
       0.038457233 0.09163872 -0.032350034 -0.15556674
000190 c0 27 1e 3d 9f 10 d7 3c c4 52 6f 3d e9 76 02 be
       0.038612127 0.026253043 0.05842854 -0.12740673
0001a0 de d9 22 be 00 04 a1 3d 01 81 78 3d 85 41 18 3d
       -0.15903422 0.07862091 0.060669903 0.03717186
0001b0 c5 82 79 bd b5 5e 75 bd 21 39 25 bd 91 1d 39 bd
       -0.060915727 -0.059904773 -0.040337685 -0.045194212
0001c0 5a e0 e0 3d 06 55 26 be 92 3b fe 3c 26 b2 bb 3d
       0.10980292 -0.16243371 0.031034265 0.091648385
0001d0 e5 b5 7c be 26 c9 45 be fe cb e0 bd 02 fb 30 bd
       -0.24678762 -0.19315013 -0.109764084 -0.04320813
0001e0 20 89 c5 3d c8 61 df 3c 66 98 2f bb 71 e2 b9 bd
       0.09645295 0.027268305 -0.0026793717 -0.090763934
0001f0 78 2f 2d 3e 8f b5 3b be a4 84 31 bb 3e 4a 02 bd
       0.16912639 -0.18330978 -0.0027087117 -0.031809084
000200 19 4b 5e bd 4b 57 a7 be 69 b4 1a be 1f 27 5c be
       -0.054270837 -0.32683787 -0.15107884 -0.21499299
000210 76 86 52 be 47 ed 24 3e bb 82 2f bc b9 f9 0d 3e
       -0.20559105 0.16106139 -0.010712321 0.13864793
000220 f9 14 a2 bd bb c4 42 3e 53 41 b1 bd 84 46 01 3d
       -0.079141565 0.19020359 -0.08655038 0.03156139
000230 c7 6a 95 3e cf 80 b0 3d f1 bd a4 3d 54 2f 3f 3e
       0.29183027 0.08618318 0.08044041 0.18670398
000240 cd 2f d0 3d bd 2f 1f be e9 e7 42 be 26 7e 4b 3e
       0.10165367 -0.15545554 -0.19033779 0.1987234
000250 fc 8a 5a 3d 76 74 94 bd dd ac 7a bc 24 4a 25 bd
       0.053355202 -0.07248776 -0.015300003 -0.04035391
000260 f5 ef 32 be ac 8d 94 bc 14 31 40 39 0a ab 1e 3b
       -0.17474349 -0.01813396 0.0001832883 0.0024210834
000270 8d 94 25 3e 41 d0 3a 3d 32 75 05 3e a0 ce 54 bd
       0.16169949 0.045608763 0.13032988 -0.051954865
000280 99 35 9f 3e 61 24 42 be 19 e9 d8 3d 84 88 6d be
       0.3109558 -0.1895919 0.10591335 -0.23196608
000290 3d eb 8a be df 0b 3e 3d cd 5d 35 3e 5f 8a ed 3d
       -0.27132598 0.04639804 0.17711563 0.11598658
0002a0 10 d8 cb bd 12 a1 83 3b a9 e2 07 3e 66 f8 ec 3d
       -0.0995332 0.004017004 0.13270058 0.11570816
0002b0 7e de ac bc a7 f9 70 3e 56 d7 8f 3c 78 8c 84 3d
       -0.021102186 0.23532735 0.017558735 0.06472105
0002c0 7c 0a 90 3e 68 f3 15 3b d1 fc 57 3e fc ca 71 be
       0.28133 0.0022880677 0.21092536 -0.23612589
0002d0 57 81 d4 3c f2 af 1e be 43 bc 4f 3d 55 43 a2 bd
       0.02594058 -0.15496805 0.05071665 -0.07922999
0002e0 0e 86 08 3e 2b c0 b0 3c 22 0e cf 3c 8e f2 36 3e
       0.13332388 0.021576008 0.025275294 0.17865965
0002f0 f1 a1 f5 3d fb de ef bc 9c 8b 89 3e 1b 2a 6f 3e
       0.119937785 -0.02928113 0.26864326 0.23355906
000300 bf 49 eb bd 00 25 87 3e a5 f3 d8 bc 63 04 00 bc
       -0.11488675 0.26395416 -0.026483366 -0.007813546
000310 59 7e de bd ba 24 20 bd d0 7c 36 3d 1c db cc 3d
       -0.10863943 -0.039097525 0.044552624 0.10002729
000320 89 c8 8b bd 5d 27 50 3e fc 0b 6a 3d 5d 30 7d 3d
       -0.068253584 0.20327516 0.057140335 0.0618137
000330 c7 e9 33 bd 9c a4 1e 3d 0e c3 01 bd be c1 e2 3d
       -0.04392412 0.038731202 -0.03168016 0.1107211
000340 42 01 93 bd 3d 23 19 be 22 99 19 3d d2 d1 c1 3c
       -0.07177974 -0.14954849 0.037499554 0.02365962
000350 a2 67 e3 3a 42 4a 70 3d b7 94 39 be f2 3b 80 3d
       0.001734961 0.058664568 -0.18123136 0.06261434
000360 7f ce 09 bd 58 c6 1f 3e dd 95 8e 3d 1d 4f 81 bd
       -0.033644196 0.15603006 0.06962178 -0.06313918
000370 b3 6c 12 3e 6a 4e 4a be 8a 45 8c 3d bc ec a7 bd
       0.14299278 -0.19756475 0.06849201 -0.081994504
000380 09 89 6b be 8f 33 c4 3d ca 52 d7 bd 4d 1d d4 bb
       -0.23001494 0.095801465 -0.10513838 -0.0064732195
000390 4a eb f2 3c a2 ab 8c 3e 99 68 66 be ba 16 e1 bc
       0.02965321 0.27474695 -0.22500838 -0.027476657
0003a0 44 a4 13 be 84 6a 99 bd 50 dc 2c bf 9d 80 8d bb
       -0.14418131 -0.07491019 -0.6752367 -0.0043183104
0003b0 c5 bd a3 3e b5 42 e2 3d 31 e9 f5 3d 56 4e 00 bd
       0.3198072 0.110478796 0.12007368 -0.031324707
0003c0 3a 16 0e 3d d9 dd bd be 4a 9c a2 bd e9 a7 15 be
       0.034689166 -0.3708332 -0.07939966 -0.14614834
0003d0 c1 16 8a be 9a 30 72 bd 0e 4a 28 3d 69 3f a6 be
       -0.26970485 -0.05912838 0.04108625 -0.32470253
0003e0 88 26 9a 3d 79 06 ca bc 78 b5 8a 3d b0 06 6d bd
       0.075268805 -0.02466129 0.06772894 -0.057867706
0003f0 2f 4f 4d 3e 63 b0 50 be b5 ad cb 3d 12 9c 9a 3c
       0.20049737 -0.20379786 0.09945241 0.018873248

flows.0.t.1.2.bias f4 [32]
000000 7b 79 98 3e 65 40 51 bd f3 a1 01 be 2e ed da 3d
       0.29780182 -0.051086802 -0.12659435 0.1068977
000010 b3 1b 5d 3e 08 6f d0 3e 4e e5 7d 3d 9d ae a1 3d
       0.21592598 0.4070971 0.06198626 0.07894633
000020 b5 0c 15 3e 8d 9e f7 3d 5d 29 44 3d ec 8a a2 3c
       0.14555629 0.12090788 0.04789101 0.019841634
000030 98 61 0c be 4e c7 09 3e 32 28 75 3e 10 77 9f 3e
       -0.13709104 0.13454935 0.23941115 0.31145525
000040 13 15 be be 18 84 69 3e f3 f7 16 3d ab 77 27 3c
       -0.37125453 0.22804296 0.036857557 0.010221402
000050 6c af 34 be 4b f8 f5 3c 26 12 cb 3e 77 62 44 3e
       -0.17645043 0.030025622 0.39662284 0.19178186
000060 63 7a fe 3d b7 0d a3 3e 49 a6 b0 bd 54 9c c6 bd
       0.12425687 0.318464 -0.086254664 -0.09697786
000070 e1 53 4b bd a3 15 6e be 59 af 17 3e 8d e3 0a be
       -0.04964054 -0.23250441 0.14812984 -0.13563366
