code_for_Boids/Models_16birds_2groups/model_16birds_2groups_circle_2path_2angle_tensor_kde_4batch_4layer_reweight_REMAKE_1layer_400000.pkl (torch, 548793 bytes, 196 tensors)

flows.0.mask f4 [6, 64]
000000 00 00 00 00 00 00 00 00 00 00 00 00 00 00 00 00
       0.0 0.0 0.0 0.0
000010 00 00 00 00 00 00 00 00 00 00 00 00 00 00 00 00
       0.0 0.0 0.0 0.0
000020 00 00 00 00 00 00 00 00 00 00 00 00 00 00 00 00
       0.0 0.0 0.0 0.0
000030 00 00 00 00 00 00 00 00 00 00 00 00 00 00 00 00
       0.0 0.0 0.0 0.0
000040 00 00 00 00 00 00 00 00 00 00 00 00 00 00 00 00
       0.0 0.0 0.0 0.0
000050 00 00 00 00 00 00 00 00 00 00 00 00 00 00 00 00
       0.0 0.0 0.0 0.0
000060 00 00 00 00 00 00 00 00 00 00 00 00 00 00 00 00
       0.0 0.0 0.0 0.0
000070 00 00 00 00 00 00 00 00 00 00 00 00 00 00 00 00
       0.0 0.0 0.0 0.0
000080 00 00 80 3f 00 00 80 3f 00 00 80 3f 00 00 80 3f
       1.0 1.0 1.0 1.0
000090 00 00 80 3f 00 00 80 3f 00 00 80 3f 00 00 80 3f
       1.0 1.0 1.0 1.0
0000a0 00 00 80 3f 00 00 80 3f 00 00 80 3f 00 00 80 3f
       1.0 1.0 1.0 1.0
0000b0 00 00 80 3f 00 00 80 3f 00 00 80 3f 00 00 80 3f
       1.0 1.0 1.0 1.0
0000c0 00 00 80 3f 00 00 80 3f 00 00 80 3f 00 00 80 3f
       1.0 1.0 1.0 1.0
0000d0 00 00 80 3f 00 00 80 3f 00 00 80 3f 00 00 80 3f
       1.0 1.0 1.0 1.0
0000e0 00 00 80 3f 00 00 80 3f 00 00 80 3f 00 00 80 3f
       1.0 1.0 1.0 1.0
0000f0 00 00 80 3f 00 00 80 3f 00 00 80 3f 00 00 80 3f
       1.0 1.0 1.0 1.0
000100 00 00 80 3f 00 00 80 3f 00 00 80 3f 00 00 80 3f
       1.0 1.0 1.0 1.0
000110 00 00 80 3f 00 00 80 3f 00 00 80 3f 00 00 80 3f
       1.0 1.0 1.0 1.0
000120 00 00 80 3f 00 00 80 3f 00 00 80 3f 00 00 80 3f
       1.0 1.0 1.0 1.0
000130 00 00 80 3f 00 00 80 3f 00 00 80 3f 00 00 80 3f
       1.0 1.0 1.0 1.0
000140 00 00 80 3f 00 00 80 3f 00 00 80 3f 00 00 80 3f
       1.0 1.0 1.0 1.0
000150 00 00 80 3f 00 00 80 3f 00 00 80 3f 00 00 80 3f
       1.0 1.0 1.0 1.0
000160 00 00 80 3f 00 00 80 3f 00 00 80 3f 00 00 80 3f
       1.0 1.0 1.0 1.0
000170 00 00 80 3f 00 00 80 3f 00 00 80 3f 00 00 80 3f
       1.0 1.0 1.0 1.0
000180 00 00 00 00 00 00 00 00 00 00 00 00 00 00 00 00
       0.0 0.0 0.0 0.0
000190 00 00 00 00 00 00 00 00 00 00 00 00 00 00 00 00
       0.0 0.0 0.0 0.0
0001a0 00 00 00 00 00 00 00 00 00 00 00 00 00 00 00 00
       0.0 0.0 0.0 0.0
0001b0 00 00 00 00 00 00 00 00 00 00 00 00 00 00 00 00
       0.0 0.0 0.0 0.0
0001c0 00 00 00 00 00 00 00 00 00 00 00 00 00 00 00 00
       0.0 0.0 0.0 0.0
0001d0 00 00 00 00 00 00 00 00 00 00 00 00 00 00 00 00
       0.0 0.0 0.0 0.0
0001e0 00 00 00 00 00 00 00 00 00 00 00 00 00 00 00 00
       0.0 0.0 0.0 0.0
0001f0 00 00 00 00 00 00 00 00 00 00 00 00 00 00 00 00
       0.0 0.0 0.0 0.0
000200 00 00 00 00 00 00 00 00 00 00 00 00 00 00 00 00
       0.0 0.0 0.0 0.0
000210 00 00 00 00 00 00 00 00 00 00 00 00 00 00 00 00
       0.0 0.0 0.0 0.0
000220 00 00 00 00 00 00 00 00 00 00 00 00 00 00 00 00
       0.0 0.0 0.0 0.0
000230 00 00 00 00 00 00 00 00 00 00 00 00 00 00 00 00
       0.0 0.0 0.0 0.0
000240 00 00 00 00 00 00 00 00 00 00 00 00 00 00 00 00
       0.0 0.0 0.0 0.0
000250 00 00 00 00 00 00 00 00 00 00 00 00 00 00 00 00
       0.0 0.0 0.0 0.0
000260 00 00 00 00 00 00 00 00 00 00 00 00 00 00 00 00
       0.0 0.0 0.0 0.0
000270 00 00 00 00 00 00 00 00 00 00 00 00 00 00 00 00
       0.0 0.0 0.0 0.0
000280 00 00 80 3f 00 00 80 3f 00 00 80 3f 00 00 80 3f
       1.0 1.0 1.0 1.0
000290 00 00 80 3f 00 00 80 3f 00 00 80 3f 00 00 80 3f
       1.0 1.0 1.0 1.0
0002a0 00 00 80 3f 00 00 80 3f 00 00 80 3f 00 00 80 3f
       1.0 1.0 1.0 1.0
0002b0 00 00 80 3f 00 00 80 3f 00 00 80 3f 00 00 80 3f
       1.0 1.0 1.0 1.0
0002c0 00 00 80 3f 00 00 80 3f 00 00 80 3f 00 00 80 3f
       1.0 1.0 1.0 1.0
0002d0 00 00 80 3f 00 00 80 3f 00 00 80 3f 00 00 80 3f
       1.0 1.0 1.0 1.0
0002e0 00 00 80 3f 00 00 80 3f 00 00 80 3f 00 00 80 3f
       1.0 1.0 1.0 1.0
0002f0 00 00 80 3f 00 00 80 3f 00 00 80 3f 00 00 80 3f
       1.0 1.0 1.0 1.0
000300 00 00 80 3f 00 00 80 3f 00 00 80 3f 00 00 80 3f
       1.0 1.0 1.0 1.0
000310 00 00 80 3f 00 00 80 3f 00 00 80 3f 00 00 80 3f
       1.0 1.0 1.0 1.0
000320 00 00 80 3f 00 00 80 3f 00 00 80 3f 00 00 80 3f
       1.0 1.0 1.0 1.0
000330 00 00 80 3f 00 00 80 3f 00 00 80 3f 00 00 80 3f
       1.0 1.0 1.0 1.0
000340 00 00 80 3f 00 00 80 3f 00 00 80 3f 00 00 80 3f
       1.0 1.0 1.0 1.0
000350 00 00 80 3f 00 00 80 3f 00 00 80 3f 00 00 80 3f
       1.0 1.0 1.0 1.0
000360 00 00 80 3f 00 00 80 3f 00 00 80 3f 00 00 80 3f
       1.0 1.0 1.0 1.0
000370 00 00 80 3f 00 00 80 3f 00 00 80 3f 00 00 80 3f
       1.0 1.0 1.0 1.0
000380 00 00 00 00 00 00 00 00 00 00 00 00 00 00 00 00
       0.0 0.0 0.0 0.0
000390 00 00 00 00 00 00 00 00 00 00 00 00 00 00 00 00
       0.0 0.0 0.0 0.0
0003a0 00 00 00 00 00 00 00 00 00 00 00 00 00 00 00 00
       0.0 0.0 0.0 0.0
0003b0 00 00 00 00 00 00 00 00 00 00 00 00 00 00 00 00
       0.0 0.0 0.0 0.0
0003c0 00 00 00 00 00 00 00 00 00 00 00 00 00 00 00 00
       0.0 0.0 0.0 0.0
0003d0 00 00 00 00 00 00 00 00 00 00 00 00 00 00 00 00
       0.0 0.0 0.0 0.0
0003e0 00 00 00 00 00 00 00 00 00 00 00 00 00 00 00 00
       0.0 0.0 0.0 0.0
0003f0 00 00 00 00 00 00 00 00 00 00 00 00 00 00 00 00
       0.0 0.0 0.0 0.0

flows.0.t.0.0.weight f4 [32, 64]
000000 ce a7 ce bd b8 f1 79 3d 60 99 f2 bd 8e 1a c7 3d
       -0.100906 0.061021537 -0.1184566 0.09721862
000010 60 69 9e 3c 30 35 0e bc e0 91 8f 3d 28 03 81 3c
       0.019337356 -0.008679673 0.07010245 0.015748575
000020 70 3d c6 bc 40 46 20 3b 44 3c 12 3d a0 5a 92 bd
       -0.024199218 0.0024455935 0.035702005 -0.071461916
000030 f6 e8 bd 3d 24 46 5c 3d 70 ad 96 bc 50 67 e5 bc
       0.092729494 0.05377783 -0.018393248 -0.028003365
000040 ba e2 a9 bd c8 45 e6 3c a0 f4 13 3c c0 bf 9f bb
       -0.08295198 0.028109446 0.009030491 -0.0048751533
000050 cc 26 9e bd b8 f9 84 3d 24 c9 45 bd 98 a1 c4 bd
       -0.07722244 0.064929426 -0.048287526 -0.09601134
000060 ac 45 37 3d 2e 25 ed bd 9e 8e ec bd f8 0c df 3d
       0.04474418 -0.11579357 -0.115506396 0.108911455
000070 92 85 8a bd 1a 36 d5 bd a6 19 ff bd 30 40 3a 3d
       -0.06763758 -0.1041071 -0.12456064 0.04547137
000080 59 12 a3 3d 38 82 98 3d 4a 76 55 3a 63 00 bc bc
       0.07962484 0.07446712 0.00081429316 -0.022949403
000090 42 cf ac bd 38 aa b6 3d 7e 30 07 3d ad b8 ea bd
       -0.08437969 0.089191854 0.03300523 -0.11461005
0000a0 ba 4d 36 bc a2 f2 bc 3c ad e0 15 be 12 b3 0b be
       -0.01112693 0.023064915 -0.14636488 -0.13642529
0000b0 16 bd 01 3c 5c d7 8a bd 36 f3 1a 3d af 8c 83 3d
       0.007918617 -0.06779358 0.0378296 0.06423318
0000c0 1b c0 9f 3d d5 92 54 bd 76 ed 20 bd 62 ec 63 be
       0.07800313 -0.051897842 -0.03928896 -0.22258142
0000d0 fe 1b f1 3b 32 d2 68 3c d1 6d c6 3d 37 00 ed bd
       0.0073580733 0.014210271 0.096889146 -0.115723066
0000e0 0e c2 dc bb 6c e5 7d 3d f8 c1 40 be 95 53 67 bd
       -0.0067370003 0.061986372 -0.18823993 -0.056476194
0000f0 bf 7a 01 be 69 35 98 3b 29 73 87 be ea 4d 61 bc
       -0.1264448 0.004645039 -0.26455048 -0.013751486
000100 98 39 2d bd 3c 9b 4e bd b0 d3 46 bc 00 03 67 3a
       -0.042291254 -0.05044101 -0.012135431 0.0008812398
000110 34 51 e6 bd 08 5c 5f bd c0 b7 76 3d 54 2a 4f bd
       -0.11245957 -0.054531127 0.06023383 -0.050577477
000120 a0 31 f5 bc 9c d8 2a bd 38 04 cb bc 76 8c 8f 3d
       -0.02993089 -0.04171048 -0.024782285 0.07009213
000130 8c 7a d7 bd 76 4d ac bd 9c 7a 8d bd 5c 97 12 bd
       -0.10521421 -0.08413212 -0.069081515 -0.03578888
000140 c0 fe 15 bd d0 a6 83 bc ea c4 bc 3d 66 78 ca bd
       -0.0366199 -0.016070753 0.09217246 -0.098862454
000150 38 a2 fd bd 8a 84 ca 3d 6e cc a8 bd 9a cc d8 bd
       -0.123844564 0.09888561 -0.08242117 -0.105859
000160 7c f2 d1 bd ec 7c 0a 3d 1a 50 c1 3d 9a ee bf bd
       -0.10251328 0.03381054 0.09439106 -0.093716815
000170 20 92 c5 3b e8 e1 e7 bc 20 82 c6 3c 28 8a 26 3d
       0.0060293823 -0.028305963 0.02423197 0.0406591
000180 f9 87 b0 3e 90 ab ac bd 38 22 c5 3f a8 e8 c7 be
       0.3447874 -0.084311604 1.5401068 -0.3904469
000190 05 5a 0f bf 4c 16 66 bd 7c 7b e4 bd de 8c ef 3e
       -0.55996734 -0.056173608 -0.11156365 0.4678716
0001a0 7b 73 09 bb aa 13 e6 be 3e 1e b1 3d 32 47 70 3e
       -0.0020973373 -0.44936877 0.08648346 0.23464659
0001b0 06 08 95 bc 84 89 00 be d5 be 2d 3e 9e e2 96 be
       -0.018192302 -0.12552458 0.16967328 -0.2946977
0001c0 1e 96 c4 bc 7f b6 9a bd 06 84 a5 3c 50 ce da bd
       -0.023997363 -0.075543396 0.020204555 -0.10683882
0001d0 06 6d 4b 3e 06 dc 77 3e da f8 01 3f 74 42 a1 3e
       0.19865808 0.24205026 0.5077034 0.31496012
0001e0 d6 66 d4 bd 22 da 6d bd 9e 2d 92 be e6 b7 b9 be
       -0.10371177 -0.058069356 -0.28550428 -0.36273116
0001f0 4a 82 af bd 10 d5 66 3d 9f 69 01 3d 8e a5 48 3e
       -0.085697725 0.056355536 0.03159487 0.19594404
000200 94 15 58 bd de 50 a7 3d 18 e0 99 3c ea 98 8c 3d
       -0.052754954 0.08169721 0.018783614 0.068651035
000210 00 9f 98 3b bc 48 9a bd c6 f6 a3 3d 0a 4d f1 3d
       0.004657626 -0.07533404 0.08006053 0.11782272
000220 50 29 9a bc 00 67 91 ba e4 01 09 bd 18 fd e0 3c
       -0.018818527 -0.0011093318 -0.03344907 0.027464435
000230 be a9 bf bd 10 bd 4a 3d ba f9 be 3d 9a 5a 99 3d
       -0.09358548 0.04949671 0.09324975 0.07487984
000240 fa c6 8f bd 90 7e 87 bd d0 1c c9 bc 50 84 ce 3c
       -0.07020374 -0.06615937 -0.024549872 0.025209576
000250 3e d4 bb 3d d0 26 83 bd 56 bd fd 3d f0 2d 59 bd
       0.09171341 -0.06403887 0.123896286 -0.053022325
000260 e2 29 ff bd d4 2f 7d 3d 3c 4e 4b bd 00 c4 5f bb
       -0.124591604 0.06181319 -0.049635157 -0.0034143925
000270 80 e1 60 bd 3a 22 c4 bd 90 e4 1a 3c 38 c0 ce 3d
       -0.054902554 -0.09576841 0.009453908 0.100952566
000280 0b 93 97 bc 95 e4 35 3b b4 99 4b be 75 7e 11 bd
       -0.018502733 0.0027754654 -0.19882852 -0.03552099
000290 8c 68 1b 3d a0 31 59 3d 5e 92 6d be 47 fb 24 be
       0.0379415 0.05302584 -0.23200366 -0.1611148
0002a0 6a 15 3f bd c7 59 44 3d ec dc 7c bc cf d5 72 be
       -0.04665128 0.04793718 -0.015433531 -0.23714374
0002b0 bc c6 fd bd 3e 89 a6 bd f7 3c be bd f3 8e 6e 3d
       -0.12391421 -0.081316456 -0.09288972 0.058241796
0002c0 09 d2 ca bd 2f 92 29 be 17 c5 57 be 6f ff d6 3d
       -0.09903342 -0.16559671 -0.21071278 0.10497939
0002d0 34 ef e4 bc 3f 55 a4 3c 9b 23 48 3e 4b 1b 04 3e
       -0.027946092 0.02006018 0.19544832 0.12901036
0002e0 61 5b de bd b5 40 4a 3e 5e 8a ce 3e bd 92 22 be
       -0.10857273 0.19751246 0.4033994 -0.15876289
0002f0 0b c3 5b bd db 55 ce 3d 12 d5 5d 3d 77 80 86 3b
       -0.053652804 0.100749694 0.054158278 0.0041046697
000300 00 26 b4 ba c4 fb 7e 3d 14 93 4b 3d 20 47 78 3d
       -0.0013744235 0.06225182 0.04970081 0.060614705
000310 92 d8 ab bd 36 71 81 bd 68 dc 5a bd a0 f9 7a 3d
       -0.08390917 -0.063204214 -0.053432852 0.061273217
000320 10 4f 4b 3c 8a 4d b7 bd 54 51 c5 3d 30 66 b1 3c
       0.012408987 -0.08950336 0.09634653 0.021655172
000330 0c 97 bd bd be 44 a4 bd 1c 3f 13 bd 7c 98 f7 bd
       -0.092573255 -0.08020924 -0.035948858 -0.12089631
000340 20 73 20 bd 08 ab 91 bd bc 7f eb bd 18 e2 86 bc
       -0.03917229 -0.071127 -0.11498973 -0.016465232
000350 d4 b1 33 3d 9e 5d 88 bd 98 a9 3e 3d c8 d8 e2 3d
       0.043870762 -0.06658481 0.046548456 0.11076504
000360 ac 9d fe 3d 10 7f 3f 3c 60 a2 6c bd 18 99 ba 3c
       0.12432417 0.011688009 -0.05777204 0.022778079
000370 5c 00 52 3d fe a7 84 3d ac 05 cb bd 02 dd b2 3d
       0.051269874 0.064773545 -0.09913191 0.0873356
000380 ec 59 f2 3d 61 f7 75 bd f8 e3 34 bf 48 34 2a 3e
       0.118335575 -0.060050372 -0.7066035 0.16621506
000390 42 10 98 bd 54 19 a4 3c ad 79 3c bd 22 85 19 3e
       -0.07424976 0.020031609 -0.046014477 0.14992192
0003a0 22 f2 49 3c b7 8a cb bb 06 47 a9 3e ae 14 1a 3e
       0.012325795 -0.0062116045 0.33062 0.15046951
0003b0 43 f6 b5 3d 78 54 ed 3c fd f9 6e be 6b ac 78 3e
       0.08884861 0.028970942 -0.2333755 0.24284522
0003c0 f1 bb a1 3d ed 03 b0 3c 27 77 5d 3e a3 54 1e 3e
       0.07897175 0.021486247 0.21627484 0.15461974
0003d0 1a a3 9c bd 73 73 d4 3b b6 c6 86 3e 1e 49 fb 3d
       -0.07648297 0.006483489 0.2632348 0.12269805
0003e0 90 71 6b bb 7a a5 27 3d f0 d0 a0 bd 5b fc 29 bd
       -0.0035925843 0.040929295 -0.07852352 -0.04150043
0003f0 3a 40 e6 bd b5 0e 70 39 4c 01 bc bd 5b a4 8c bc
       -0.11242719 0.00022893662 -0.09179935 -0.017168215

flows.0.t.0.0.bias f4 [32]
000000 1d 20 18 3e ae 31 e2 bd e6 a7 85 be ff f4 36 3e
       0.14856 -0.11044632 -0.2610466 0.17866896
000010 6a f2 05 be 6d b3 8f bd da 69 00 be 15 73 e0 bc
       -0.13080755 -0.070166446 -0.12540379 -0.027398625
000020 b9 c3 88 bd 74 92 4c 3d 16 91 e9 3d fc ca 34 3e
       -0.06677956 0.049944356 0.11404626 0.17655557
000030 6e 8e 8b 3d 83 56 ca 3d a5 50 23 bc f6 f8 88 bd
       0.06814276 0.09879782 -0.009967958 -0.066881105
000040 cd f4 e2 3d f2 62 2e 3e 70 ef 81 3d ff 78 44 3c
       0.11081848 0.17029932 0.06344497 0.011991738
000050 20 b3 38 3e f5 fb 40 be cd 3f 54 3d b8 26 d9 3d
       0.18037081 -0.18846114 0.051818658 0.10603088
000060 51 65 b7 bd bf 22 c2 bd 37 9f af bd 07 eb 2b bd
       -0.089548714 -0.094792835 -0.0857529 -0.041972186
000070 c0 bf c1 3d 6d 9e 1b b9 e4 32 0a bd 74 ee 3e 3e
       0.094604015 -0.0001484097 -0.03373994 0.1864565

flows.0.t.0.2.weight f4 [32, 32]
000000 ca 4f 27 be d8 24 5b 3d 29 a9 9b 3d c8 51 af 3d
       -0.16339031 0.053501934 0.07600624 0.085605204
000010 6f 7f a9 3d cb d6 4e 3b 6a 5d 54 3e 47 6e 0c 3e
       0.08276259 0.0031561132 0.2073876 0.13713942
000020 e4 01 30 be 7e 81 5e be 52 c8 b0 3c e1 16 f3 bd
       -0.17188221 -0.21729085 0.021579895 -0.11869598
000030 51 e6 3a be 35 cd 83 bd 34 b0 85 bd e2 08 b9 3c
       -0.18251921 -0.064356245 -0.06527749 0.022587243
000040 b2 bc 7d 3e 1b bd 2c 3d c3 0a cb 3b ca 6e 24 3e
       0.24779013 0.042172533 0.0061963513 0.16057888
000050 a5 96 c7 3a 8e b4 e9 bd 67 7b ae bb 8e d8 91 bd
       0.0015227391 -0.11411391 -0.0053247693 -0.07121383
000060 5c 37 05 3d e0 34 8e bc c2 03 21 be 3d af 48 3e
       0.032523498 -0.017359197 -0.1572409 0.19598098
000070 ac e6 e2 3b f9 b0 d9 3c eb b6 82 be da 28 bc 3e
       0.006924471 0.026573645 -0.2553018 0.36749917
000080 b6 4e 97 3d b4 3b 97 3e 0d 14 79 bd 02 9b 61 3d
       0.0738806 0.29537737 -0.060810138 0.055079468
000090 e8 c7 b3 3d 89 2a 7a 3e bb c8 14 3e 99 a3 08 3d
       0.087783635 0.24430288 0.14529698 0.033359144
0000a0 c7 35 5c 3d ff eb c1 3d 02 ad 1a bd 99 07 a8 bd
       0.053762224 0.09468841 -0.03776265 -0.08204574
0000b0 59 e7 f9 bc 4a 9d 87 3d 7e b2 86 3d 4a 0c 05 be
       -0.030505823 0.066217974 0.065770134 -0.12992969
0000c0 ad d5 f6 3d a3 17 35 be e5 fc 1a be 11 98 fa 3c
       0.12052474 -0.17684798 -0.15135534 0.030590089
0000d0 a8 3d b7 3d 40 38 d3 3c 2a 36 41 3e 10 6e c1 3d
       0.08947307 0.025783658 0.18868318 0.09444821
0000e0 cf b9 7e 3d 06 83 c3 bd 60 69 63 3e 68 24 32 bd
       0.06218892 -0.09546475 0.22208166 -0.04349175
0000f0 59 79 09 bc b1 d7 86 3d 35 5d dc bd d2 1d b9 3e
       -0.008390748 0.065841086 -0.10759965 0.36155564
000100 a1 5c eb bb 66 8e 87 bd bd d7 b3 bd 4e 4e 21 3e
       -0.007182673 -0.06618957 -0.08781383 0.15752527
000110 82 17 e4 bd 81 3b 3c 3e 43 f6 1b be 65 ad 53 bd
       -0.11137296 0.18382074 -0.1523066 -0.051679034
000120 f6 e0 c1 bd bc b5 99 3d b0 87 59 3e 54 0d bd bd
       -0.09466736 0.07505366 0.21243167 -0.09231058
000130 d6 9c 53 3e af 43 5a bd 36 31 82 bc a4 c2 5a bd
       0.20665297 -0.053287204 -0.015892606 -0.05340828
000140 dd d6 c5 bd c5 27 94 3d 8a 3a ec 3d 72 82 4e bd
       -0.096601225 0.07234148 0.11534603 -0.05041737
000150 58 84 e4 3d 0e ba 45 3d fb a0 d3 3c 40 79 03 be
       0.11158055 0.04827314 0.025833597 -0.12839222
000160 8c 02 40 bd 54 6d da bd e9 af 00 3d a3 db 39 3e
       -0.04687743 -0.10665384 0.03141776 0.18150191
000170 c0 bd 07 bc 3c f1 55 3e bf ef 47 bd e9 03 48 bd
       -0.008284986 0.20892805 -0.048812624 -0.048831854
000180 aa 9f b0 bd 66 db 82 bd 17 92 42 be 71 09 28 be
       -0.086242035 -0.06389503 -0.19001041 -0.16409852
000190 5e d3 87 3d ac 63 2e bd 37 53 be bd ee 3e a5 3d
       0.06632112 -0.042575523 -0.09293216 0.080686435
0001a0 63 1c c3 3d 6c 46 a7 bd 33 6c 58 3e 7b ef d4 3d
       0.09526899 -0.08167729 0.21135025 0.1039724
0001b0 28 46 7f 3d 16 be 9c 3d ee 47 c7 ba 92 d4 dd 3d
       0.062322766 0.076534435 -0.0015203932 0.1083156
0001c0 7e e8 d8 3c c0 54 61 3e 87 ff 1f 3e c1 9c bd bb
       0.026478048 0.22004986 0.1562482 -0.005786509
0001d0 fb 45 21 3d e7 47 60 3d 9d 3f 89 3d 3f 62 3a bd
       0.03937338 0.05475607 0.067015864 -0.04550385
0001e0 91 c5 43 bd 05 61 16 bc c1 fd 36 bd 4a 56 90 bd
       -0.047795836 -0.009178405 -0.044675592 -0.07047708
0001f0 31 bd 70 3d 3c 60 1c 3e 40 ad 9f bc 10 ed eb bd
       0.058774177 0.15271086 -0.019491792 -0.115198255
000200 5b 9f 19 be a9 75 cc be 9c 07 dd bd a7 23 3c bc
       -0.15002196 -0.39933518 -0.10792467 -0.01148311
000210 9b 77 71 3e 36 8f 22 3e 05 43 b6 bd b4 8b b7 3c
       0.23580782 0.15874943 -0.08899502 0.022405483
000220 b6 6b 14 be ea a8 b2 bd 44 2f 33 bb 2f 80 91 3c
       -0.14494213 -0.08723624 -0.0027341405 0.017761318
000230 2d d7 d8 bd 5a 5c 1b be 76 7b 1c be 61 e1 03 be
       -0.105879165 -0.15171948 -0.15281472 -0.12878944
000240 19 ab 33 3e 75 73 01 be 81 e0 50 be e6 bd 33 be
       0.17545737 -0.126417 -0.20398141 -0.1755291
000250 9e 52 af bd b0 2c 55 3e ef 3e 42 be 6a 40 d1 3c
       -0.0856068 0.20817828 -0.1896932 0.02554341
000260 e1 63 1d bf 53 2c 75 3c f9 b3 92 bd 00 55 8c bd
       -0.6148053 0.014964181 -0.07163233 -0.0685215
000270 fb e8 13 3e 23 65 0f be 49 18 85 be 86 1c b7 3e
       0.14444344 -0.14003424 -0.2599509 0.3576395
000280 76 92 96 bd ca 05 59 3c 98 2f 96 bb b2 63 40 bf
       -0.07352154 0.013246009 -0.0045833103 -0.7515212
000290 64 3c 53 3e ca e0 3e be 14 28 a4 3d db ca 19 3e
       0.20628506 -0.18640438 0.08015457 0.1501879
0002a0 b1 86 03 be 2b 29 e7 bd f7 f2 70 bd 3e 45 98 bb
       -0.1284435 -0.11287149 -0.05882546 -0.004646926
0002b0 fb 2a 24 be 9d af 88 be 7c 57 6e 3e bd e3 dd bd
       -0.16032021 -0.26696482 0.2327556 -0.10834453
0002c0 a4 e8 f9 3d 74 8c 37 3d b0 f7 47 be 43 bc ab 3e
       0.12202576 0.04481168 -0.19528079 0.3354207
0002d0 6a 43 7b be ed 16 93 bd 39 ca 7f 3c 11 81 c9 3a
       -0.24537435 -0.07182107 0.0156121785 0.0015373548
0002e0 75 67 de be 32 f0 ae 3d 1f df b0 bd 5f 92 fc bd
       -0.43438306 0.08541907 -0.08636307 -0.123326056
0002f0 83 c9 f4 3e d9 9c 41 3d c8 45 be 3c 17 61 65 3e
       0.4780999 0.047268722 0.023226634 0.22400318
000300 80 12 22 3e 68 e5 05 3d 75 b9 05 be 13 ec 88 bd
       0.1582737 0.032689482 -0.13059027 -0.066856526
000310 7d 7f 06 3e e7 e8 0e bd 16 b9 07 3e 38 44 46 be
       0.1313457 -0.03489008 0.13254198 -0.19361961
000320 28 72 0e be e8 d0 9e 3d 48 7f b0 3d 73 b2 16 bd
       -0.13910735 0.077546895 0.08618027 -0.036791276
000330 62 4d 2c 3e df ae 26 be 8a 8a 02 3e 10 9d af 3d
       0.16826394 -0.16277646 0.12748161 0.08574879
000340 f1 b1 84 3c ca d8 9f bb 0e e4 ac bd b3 59 3b 3e
       0.01619813 -0.004878138 -0.084419355 0.18295936
000350 03 02 33 3d d6 7f 70 3e e1 d6 e4 3d 43 4a 41 bd
       0.04370309 0.23486266 0.111737974 -0.047189962
000360 e1 79 4d bd 99 1e bd bc 86 74 0b 3e b9 c0 6c bd
       -0.05016506 -0.02308588 0.13618669 -0.057800982
000370 a5 92 ba bc 92 1f c6 3d 11 2e 2e 3d 58 af 54 be
       -0.022775004 0.0967399 0.0425244 -0.20770013
000380 57 18 3d bd 23 41 35 3d 8c a0 42 bd d0 89 f2 3d
       -0.04616579 0.044251572 -0.04751639 0.11842692
000390 22 07 48 3e b6 a3 4e 3e 2c 50 15 bd f6 30 20 3d
       0.19533971 0.20179638 -0.03645341 0.039109193
0003a0 d0 54 a4 bd 3a 1b cf bd 5b 1e af 3d 0d fd 87 be
       -0.08023989 -0.10112615 0.08550712 -0.2656025
0003b0 94 0e e5 bc 49 8c b5 3c 5f 6a 4d bc 80 e7 9d bd
       -0.027961053 0.02216162 -0.012537568 -0.07710171
0003c0 2d cf 77 3d ec ba 13 be 44 3e 10 3d 47 45 f1 be
       0.060500313 -0.14426774 0.03521563 -0.47123167
0003d0 9d a2 d4 3e 60 ab 52 bb 71 08 fc 3d c7 e4 b6 bd
       0.41530314 -0.0032145604 0.123062976 -0.089303546
0003e0 10 7a 3a bd e9 af ee bc 9a 5f 76 bd c4 40 9c bc
       -0.045526564 -0.029136615 -0.060149767 -0.019073851
0003f0 03 40 05 be f9 bf e1 bd 45 61 41 be bf f5 83 3c
       -0.130127 -0.11022944 -0.18884762 0.016108392

flows.0.t.0.2.bias f4 [32]
000000 b4 e5 3d 3e af d1 45 bc 94 7d 6a 3e c8 79 a1 3e
       0.18544656 -0.012073918 0.22899467 0.31538224
000010 15 d7 8f be 6b 46 4b 3d f9 ac 46 3e 5d 87 80 be
       -0.28093782 0.049627703 0.19401921 -0.25103274
000020 3c 7c 55 3e f7 f6 e6 3d a6 ce b4 bc b2 71 42 3d
       0.20848173 0.112775736 -0.022071194 0.04747171
000030 71 0c 11 3d 23 ef 61 be 0a bb 9e 3e 77 ff 90 3e
       0.035412256 -0.2206388 0.31002074 0.28319904
000040 ce 85 30 3d 3d d3 13 bd 67 0e 71 be 06 94 3e bd
       0.043096356 -0.036090124 -0.2354065 -0.046527885
000050 da 72 27 3e f6 42 39 3d 95 0c c8 3e d9 89 94 bd
       0.16352406 0.045229875 0.390721 -0.07252855
000060 a5 66 f0 3d ef c5 64 3e 8b bb 38 be 0c a1 83 3d
       0.11738328 0.2234113 -0.18040292 0.06427202
000070 93 e8 3b be 32 46 a4 3c cd fa f0 ba d8 84 17 3c
       -0.18350439 0.020053003 -0.0018385291 0.009247981

flows.0.t.0.4.weight f4 [64, 32]
000000 be 87 d5 3c ed 8a aa 3d b9 0c 0e 3d 44 f0 c9 3d
       0.026065703 0.08327279 0.034680102 0.0986028
000010 14 86 5f 3d 4d 1b 8a bd 03 64 24 be 70 9e e2 bd
       0.054571226 -0.067434885 -0.16053776 -0.11065376
000020 1a f4 4f bd 32 e1 c5 bd ba 49 5e bd 58 6b 6f bc
       -0.050769903 -0.09662093 -0.05426953 -0.014612995
000030 65 ca b7 bc 70 8a c5 3b 5d bb 94 bd b5 6c 3d 3e
       -0.022435376 0.006028466 -0.07262299 0.184985
000040 e3 ce c3 bd 57 25 16 3e 4c 57 4d be 0f c2 f1 bc
       -0.09560945 0.14662682 -0.20052832 -0.02951148
000050 27 5d 20 bd 9d 3a 1d bc 6a 88 91 3d 1f 8a 43 3d
       -0.039151337 -0.009596494 0.07106097 0.047739144
000060 57 9f 32 3d 3e 01 bf 3c 2d 36 08 3d 1b df 5f 3e
       0.04360899 0.023316022 0.03325479 0.21862452
000070 b9 17 b7 3d cc 54 9e 3c f9 37 3d bd e7 45 1b be
       0.089400716 0.019327544 -0.046195958 -0.15163384
000080 e9 ce 54 3d 64 fb 47 be f3 3e 80 bd 54 70 05 3e
       0.051955137 -0.19529492 -0.062620066 0.13031131
000090 a5 1c 56 be 52 22 ff 3c 5b 03 b5 bd f1 49 e6 3d
       -0.20909365 0.031144295 -0.08838531 0.11244572
0000a0 b9 9c 64 3d cd ab a6 bc 1a ae 45 3e 15 42 82 3d
       0.055813525 -0.020345593 0.19304696 0.063602604
0000b0 0c 8a d4 3d 1a 50 10 3e 05 56 69 3d f6 e2 60 3e
       0.10377893 0.14093056 0.0569668 0.21961579
0000c0 c9 ab 67 bd 1e 2e 9f 3e da 92 73 3d 1f b9 50 3d
       -0.05656031 0.31089872 0.05946622 0.050957795
0000d0 2c 49 5d be b9 1c b9 bb 5d 3b 80 3d 95 bb fa bc
       -0.21609944 -0.005649176 0.06261323 -0.030607024
0000e0 e8 d8 a8 bd 73 37 91 3e 92 19 33 be 55 ea a4 3e
       -0.082444966 0.28362617 -0.17490223 0.3221003
0000f0 c2 ee 25 bd a9 e3 7e be a9 a8 54 be 40 78 24 3d
       -0.0405109 -0.24891533 -0.20767464 0.04015374
000100 c1 91 4f 3d b3 d1 ce bd 11 fe ae bd ac 4c 3d 3e
       0.05067611 -0.10098591 -0.08544553 0.18486279
000110 23 2c de bd fb 42 44 3d 1d c5 aa bd 05 a2 de bd
       -0.10848262 0.04791544 -0.083383776 -0.108707465
000120 c0 c4 8e bc d1 7e 9a bd f6 83 31 be 9e 2d 9d 3d
       -0.017427802 -0.075437196 -0.17335495 0.076747164
000130 30 34 44 bd 97 35 1a be 03 d1 b3 bb b8 fc 90 3c
       -0.047901332 -0.15059505 -0.0054875626 0.01769863
000140 90 4e e8 bd 56 cb 56 3d 80 f7 a1 bd 2c c2 81 3c
       -0.113431096 0.05244001 -0.07908535 0.015839659
000150 5e 62 26 3d 23 94 94 bd cf 9b e1 bd d4 5f c1 bc
       0.040621154 -0.07254817 -0.11016046 -0.023605265
000160 b6 c5 82 bc ea f9 64 3d ff ac 9f 3d 60 01 2c be
       -0.015963417 0.0559024 0.07796668 -0.167974
000170 29 ea ba 3d fc 53 eb bc 69 08 a7 bc ed da f4 3d
       0.09126694 -0.02872657 -0.020389752 0.11955819
000180 5d af 3c bd ef 04 c3 bd 69 22 91 be 13 39 90 be
       -0.046065677 -0.095224254 -0.28346565 -0.28168544
000190 d3 af 89 3d 59 8a d5 3c cf 46 d8 bd a4 fa 14 be
       0.06722989 0.026066946 -0.10560381 -0.14548737
0001a0 a9 56 98 3c b0 a8 28 be ee 8d 1a be 25 12 9d 3c
       0.01859601 -0.16470599 -0.15093204 0.019173691
0001b0 51 02 74 bd 9e fc 06 3e 04 0d 45 be db f8 20 3d
       -0.05957252 0.13182303 -0.19243246 0.039299827
0001c0 28 44 20 be 36 32 77 bb 8f a8 2a 3d 2b 73 dc 3c
       -0.15651 -0.0037719137 0.041664656 0.026910385
0001d0 53 b0 91 bd ab 63 9b 3b bd b9 22 3d ce 92 90 bd
       -0.07113709 0.004742106 0.039727915 -0.07059251
0001e0 93 9a 02 3d 66 da f1 bd b8 99 88 3e 1f f9 06 be
       0.031885695 -0.11809234 0.26679778 -0.1318097
0001f0 0d 4a ae bd 78 26 ff 3d 05 d2 8d 3d 8a e6 26 3e
       -0.08510218 0.12458509 0.06924824 0.16298881
000200 e5 6c ee 3d 6e 2c f4 bd 96 27 73 3d 80 bc f0 bd
       0.11641864 -0.11922537 0.059363924 -0.117547035
000210 03 27 28 3d 12 f5 fb 3d d1 7f 6b bd ea 29 63 be
       0.04105283 0.12302603 -0.057494942 -0.22183958
000220 4b cd 5d bd 4d 48 ef bd 5a 13 c4 3d c7 52 11 3d
       -0.05415086 -0.11683712 0.095740035 0.035479333
000230 20 4a 31 3d 64 90 2f 3e bd e7 fb 3c 0f 67 56 3d
       0.04328358 0.17144924 0.03075015 0.052344378
000240 a2 45 c3 3d ff b8 9a 3e d4 18 a8 bd a7 c0 36 3e
       0.09534766 0.30219266 -0.082078606 0.17846929
000250 33 81 88 bd c4 cb 10 be 51 72 9a 3d f8 cd 90 3d
       -0.06665268 -0.1414023 0.075413354 0.070705354
000260 14 e6 1a 3d 4a ed 9e 3d 83 80 b0 3d 3d 4c da 3d
       0.037817076 0.07760103 0.08618262 0.106590725
000270 8b 85 14 3e 05 f4 07 be 3e c2 3e be 12 dc ce 3d
       0.14504068 -0.1327668 -0.18628785 0.10100569
000280 57 f5 a4 3c eb 69 a2 bc 45 43 56 bb d0 7c 2a bd
       0.020136518 -0.019825896 -0.0032693904 -0.041622937
000290 3c 00 d5 3d eb 41 13 3d 34 87 51 3d ae bb ee bd
       0.10400435 0.035951536 0.05115433 -0.11656891
0002a0 68 2a 83 bc c4 67 5d 3b 4a a3 bb bd 00 22 7e bd
       -0.016011432 0.0033783773 -0.09162004 -0.062044144
0002b0 72 a7 e5 bc 6c 40 5a be d1 a9 f3 3d 7b 10 8c bd
       -0.028033946 -0.21313637 0.11897624 -0.06839081
0002c0 0b 3b 36 bc c5 20 dd 3b 3c e5 e5 3c 72 50 63 3d
       -0.011122475 0.006748291 0.028063409 0.05549664
0002d0 d3 4f 08 3e a5 a3 3f 3c a5 b0 0e 3d 17 c9 05 bc
       0.133117 0.011696731 0.03483643 -0.008165619
0002e0 9f 5b dc b9 fe be 41 bd ad f0 08 be e1 f5 8c 3d
       -0.00042029933 -0.047301285 -0.1337306 0.06882835
0002f0 08 f6 70 3c 76 51 f8 bc 22 2c 03 3c f8 67 2f 3d
       0.014707096 -0.030312281 0.008006128 0.04282376
000300 08 40 3d 3e f6 a0 30 bc 9b 70 38 be 46 20 93 3d
       0.18481457 -0.010780564 -0.18011706 0.0718389
000310 39 a3 9b 3d 80 cc 2f 3e 72 fa e6 bd 30 19 4d 3c
       0.075994916 0.17167854 -0.112782374 0.012518212
000320 c1 10 52 bc f6 71 c7 3d 85 5d 18 3e d4 81 20 be
       -0.012821377 0.09738533 0.14879425 -0.15674525
000330 be 87 8e 3b 4a f6 77 3d 02 96 00 bd 90 ac 05 bd
       0.004349678 0.060537614 -0.03139306 -0.03263527
000340 cc 24 6b 3d ce 14 82 bd 99 aa f4 3d 2b 5d 3e 3e
       0.05740814 -0.063516244 0.119466014 0.18590228
000350 49 4d ab bd 32 5f a1 bd 9a 81 43 3d de 4b 8b bd
       -0.0836435 -0.07879485 0.04773102 -0.0680158
000360 d0 4c a6 bd 0b 05 0d 3d 55 6d 0c 3e 1e 84 28 3d
       -0.081201196 0.034428637 0.13713582 0.04114162
000370 1e 8f a1 bd 6f 42 0b 3d a0 43 d7 3d 53 b6 22 3e
       -0.078886256 0.033998903 0.10510945 0.15889864
000380 e0 79 73 3d 8d 0f 21 bd 75 30 03 3e b7 6f 5f 3e
       0.0594424 -0.03932147 0.12811454 0.2181996
000390 ce 9d e3 bc 71 0a 4c be da 02 25 3e 99 82 4e 3e
       -0.027785208 -0.19925858 0.16114369 0.20167007
0003a0 fe 1a e4 bd e9 79 78 3d fb be 65 3d 6c 9b 87 be
       -0.11137961 0.060663138 0.056090336 -0.26485765
0003b0 99 f5 39 be 20 1b b2 3e 06 ce 8e bc e1 ca 03 3e
       -0.18160094 0.3478632 -0.017432224 0.12870361
0003c0 02 4f 57 bd 4e a0 2c 3d ee 86 e2 bd 05 04 96 be
       -0.052565582 0.042145066 -0.11060892 -0.29299942
0003d0 79 be b9 bc 46 ed 7a 3e c7 78 f6 3d d9 50 ae bd
       -0.022673832 0.24504575 0.12034755 -0.08511514
0003e0 5e 68 31 3e 86 63 09 3d e6 67 5a be 50 a8 ad 3c
       0.17324969 0.03354218 -0.21328697 0.021198422
0003f0 17 0a 19 be b2 7e 1d be 11 14 e2 be 4f 61 71 bd
       -0.14945255 -0.15380362 -0.44155934 -0.05893069

flows.0.t.0.4.bias f4 [64]
000000 7a 13 bb 3d c4 04 01 3f e8 dc 01 3f f5 a6 a3 bd
       0.09134574 0.50397897 0.507277 -0.07990829
000010 0c 33 71 3e fd 65 71 3e 88 35 be bd 49 a9 8a 3e
       0.23554629 0.23574062 -0.09287554 0.2708228
000020 8e 28 eb 3e 3a 38 c1 3d 2b 52 55 3e 4c 9b 49 bd
       0.45929378 0.094345525 0.20832126 -0.04922037
000030 ce b7 40 3e 5c 21 59 3e 62 43 19 be c0 1d 06 be
       0.18820116 0.21204132 -0.14967111 -0.13097286
000040 d0 15 47 3e ca 5c 5d 3e 33 a1 f3 bd 16 9d 88 bd
       0.19441915 0.21617427 -0.11895981 -0.06670587
000050 2a 4b 44 3d 2e b7 63 3d 98 c0 28 be ab 89 bc be
       0.047923245 0.055594616 -0.16479719 -0.36823782
000060 13 d8 28 3e 2d ce ab bd 10 64 2b be 8d 50 63 3d
       0.16488676 -0.08388934 -0.1673739 0.05549674
000070 25 19 08 bd 9b fe 92 bd 6c ef be 3d 6d a2 b4 3e
       -0.033227105 -0.071774684 0.0932301 0.3528017
000080 00 c7 1f be e5 20 ae 3b ca b2 2d be e3 4b 22 3e
       -0.15603256 0.00531398 -0.16962734 0.15849261
000090 f3 4b ce 3d f9 b0 27 be c4 8a a3 3d 29 33 da bd
       0.1007308 -0.16376103 0.07985452 -0.10654289
0000a0 85 bd 8c bc a5 75 9c 3d ee 85 2e 3e e8 18 c7 3d
       -0.017180214 0.076396264 0.17043278 0.09721547
0000b0 5b 4d 1a 3e 24 bc 51 3d 7f 94 88 3d 96 b3 d0 bd
       0.15068571 0.051204816 0.066689484 -0.10190503
0000c0 c4 db 8f 3d 16 79 5c bc 32 40 d8 3d fe 6e 9c ba
       0.07024339 -0.0134566035 0.10559119 -0.0011934934
0000d0 50 50 b3 bd 7e 6a 0c 3e 2c 8c b5 bd d5 0d 89 3d
       -0.08755553 0.13712499 -0.08864626 0.066920914
0000e0 63 2a 30 be c7 96 21 3e 19 fa 30 3d 8a f3 0e 3d
       -0.17203669 0.15780173 0.04320726 0.034900226
0000f0 c2 0a 4f 3d 2b 0b d1 bd ac a4 9b 3d f8 64 af bc
       0.05054737 -0.10207208 0.07599768 -0.02141045

flows.0.t.1.0.weight f4 [32, 64]
000000 a9 7e 0c 3d 02 64 b0 3c 22 50 92 3e 0f 1c 84 be
       0.03430048 0.021532062 0.2857676 -0.25802657
000010 2d ae 9f 3d b0 10 75 be 5f 72 85 3e 66 17 06 be
       0.07796893 -0.23932147 0.2606382 -0.13094863
000020 99 8f 81 bd d2 3e e5 3d 9f 3a af be 34 1b 90 3d
       -0.06326217 0.11193623 -0.34224412 0.070364386
000030 97 7e 08 3e ab 41 84 3d 24 a4 e7 bc 7f 9e 4c be
       0.1332954 0.06457838 -0.02827651 -0.19982336
000040 09 9e 08 be 42 54 d3 3c a0 57 ea 3d 2a ce ab 3e
       -0.13341536 0.025797013 0.114424944 0.33555728
000050 17 f0 6a bd 20 68 7d bd 80 52 aa 3e e6 d6 1d be
       -0.057357874 -0.06186688 0.33266068 -0.15414008
000060 68 86 84 bd d0 ba ae ba fe 86 83 be 2b 0a 5f 3e
       -0.064709485 -0.0013330821 -0.25688928 0.21781223
000070 93 ba d4 bd 68 e0 39 3c 5e ef 70 be 76 73 87 bd
       -0.10387149 0.0113450065 -0.23528811 -0.06613819
000080 b4 ad a5 bd 38 0f ed 3c 00 75 a0 ba e0 d7 9c bd
       -0.08089772 0.02893792 -0.00122419 -0.076583624
000090 24 c2 77 bd 10 65 a0 3d 00 8c 16 bc 50 35 91 3c
       -0.06048788 0.07831776 -0.009188652 0.017725617
0000a0 46 6a 99 3d 30 76 df bc ea 2f 9a bd 7a 95 84 bd
       0.07490973 -0.027278036 -0.0752867 -0.06473823
0000b0 d0 56 41 3d d8 4c 85 bd 40 8b 68 bb 54 43 a3 bd
       0.04720193 -0.065087974 -0.003548339 -0.07971826
0000c0 48 78 d7 3c d2 a9 d6 3d 80 aa 2d 3c 68 9e 91 3c
       0.026302472 0.104816094 0.010599732 0.01777573
0000d0 18 ed ac 3c ce 95 e7 3d 14 da bf bd ac 3d 1d bd
       0.021109149 0.1130787 -0.09367767 -0.038388893
0000e0 70 e5 b9 3c 26 da 8a 3d 34 63 4f bd 30 ea 41 3d
       0.022692412 0.0677989 -0.050631717 0.04734248
0000f0 90 5b 6e 3d 1e 4c e3 3d 42 41 ca 3d c0 79 a3 3d
       0.05819279 0.110985026 0.09875728 0.07982206
000100 91 2f 98 bd c0 3b 09 3e f0 76 0b be 23 5e 77 3e
       -0.074309476 0.13401699 -0.1361959 0.24157004
000110 b0 dc 0d 3c df 3a 84 3e 2a 97 10 be 6f 0b 5a 3c
       0.008658573 0.25826165 -0.14120165 0.01330839
000120 c5 39 e9 bc b0 13 1f be 71 48 e1 3d 91 b9 aa 3e
       -0.02846993 -0.15534854 0.11000145 0.333447
000130 59 1d 28 bd 07 22 00 bd a3 df 5c bd c7 24 f7 3d
       -0.041043613 -0.03128245 -0.053924214 0.120675616
000140 a2 80 ac bd 2a 33 31 3d c4 4b 41 3e a4 fd 77 3e
       -0.08422972 0.043261684 0.18876559 0.2421785
000150 bd e6 f9 bd 97 10 64 3e a2 8a 65 be 84 94 2f 3e
       -0.12202213 0.22271954 -0.22416165 0.17146498
000160 e0 c3 2e bd 02 ec 85 3e 56 b7 3c 3d 6a 3b 19 bf
       -0.04266727 0.26156622 0.04607328 -0.59856284
000170 9a db b3 bc 83 d5 08 3e 55 61 f6 bd 15 f9 b3 bc
       -0.0219553 0.13362698 -0.12030283 -0.021969358
000180 86 ad ed bd a4 aa 7d bd c8 a0 e1 bd 2c 46 5b 3d
       -0.116053626 -0.061930314 -0.11016995 0.053533718
000190 ce a4 c3 3d 86 12 af bd 0a d9 b3 3d a0 99 17 bd
       0.095529184 -0.08548455 0.08781631 -0.037011743
0001a0 f4 23 0b bd 40 61 0b bb 20 96 70 3d c0 5a c7 bc
       -0.033969834 -0.0021267682 0.05873692 -0.024335265
0001b0 64 8c 4b 3d 80 9c c2 3a 40 52 dd bb 82 dc 9d 3d
       0.049694434 0.0014847666 -0.0067541897 0.07708074
0001c0 5a d6 c7 bd 24 bc 69 bd f0 fd 2d 3d 20 3c 8b 3d
       -0.09757681 -0.05706419 0.0424785 0.06798577
0001d0 fc f3 6a bd 24 d4 ad bd 9c 9f 0e bd 6c af f9 bd
       -0.057361588 -0.08487728 -0.034820184 -0.12191662
0001e0 b8 cc cd bd 1a 6e b7 3d ba d3 dd bd ec 37 8d bd
       -0.10048813 0.08956547 -0.10831399 -0.06895432
0001f0 90 8b 8c bc 1e 37 ef 3d c0 52 e8 3d 50 68 21 3c
       -0.017156392 0.11680435 0.11343908 0.00985153
000200 47 74 3b bd 6d 3c d1 3c 3e 8c 1d 3e c6 b7 19 3d
       -0.045765188 0.025541509 0.1538553 0.037528776
000210 3f bd d4 3d d4 67 9c be 57 96 c5 3e 4d 8f cd bd
       0.10387658 -0.30547965 0.38591263 -0.10037098
000220 5e c5 f7 bd 1c 02 bb 3c eb e0 28 bf 7a 9e 82 be
       -0.12098192 0.022828154 -0.659682 -0.25511533
000230 70 5c a5 bd e8 e6 29 bd b9 e5 48 be 22 5d 48 3e
       -0.08074272 -0.041479975 -0.19618882 0.19566777
000240 41 bd f9 bd a9 11 3d bd c3 37 5a 3e 72 6a 2c 3f
       -0.121943004 -0.04615942 0.21310334 0.6734992
000250 c5 1c 65 bc b4 4f 34 3d 86 91 8e bd d2 37 dd bc
       -0.01398391 0.044021323 -0.0696135 -0.027004156
000260 fc bd 7b bd b8 73 97 3d c4 99 a9 bc 3c e6 3c bf
       -0.06146048 0.073951185 -0.020703204 -0.7378881
000270 6b 51 2b bd 29 49 0f bc 3d 90 5e bd 16 75 0b be
       -0.041825693 -0.00874547 -0.054336775 -0.13618883
000280 94 ae ee 3d 84 e3 45 3d 2c c7 3d 3d d0 58 11 3c
       0.11654392 0.04831268 0.046332523 0.008871272
000290 42 b9 8e 3d e0 02 9e 3b 60 ad c7 bc e6 b0 96 3d
       0.06968929 0.00482212 -0.024374664 0.073579594
0002a0 b8 24 a5 3c de ca 9a bd 80 1e a3 3b 80 b3 4c 3b
       0.02015911 -0.07558225 0.004978001 0.003123492
0002b0 90 6f da 3c 28 63 8f bd b0 60 22 3c fa db fd bd
       0.026664525 -0.070013344 0.009910747 -0.12395473
0002c0 48 32 33 3d bc 00 1d bd c4 d2 88 bd a0 20 77 bd
       0.043749124 -0.03833078 -0.06680825 -0.060333848
0002d0 9a 76 ed bd 66 59 c9 bd 04 8e b9 bd 00 55 62 ba
       -0.11594887 -0.098315045 -0.090602905 -0.0008633882
0002e0 d0 cb 4f 3d 5a e7 8f 3d c8 90 c9 3c ba 06 99 bd
       0.05073148 0.07026549 0.02460517 -0.07471986
0002f0 7c 17 4c bd 16 82 e4 bd 88 ec 37 3d e2 0a bc bd
       -0.049827084 -0.111576244 0.04490331 -0.09181763
000300 da c2 e2 3c 39 27 66 3d 2a 32 41 be 0f f9 94 3d
       0.027680803 0.05618975 -0.18866792 0.07274067
000310 92 60 02 be e4 bc 68 bd e8 03 8f 3d 19 ab 18 3d
       -0.12732151 -0.056820765 0.06983167 0.037272546
000320 cd d7 03 bd 85 69 a3 bd a6 08 95 3e 0c d9 08 3e
       -0.032188226 -0.07979111 0.2910816 0.13364047
000330 3c fe 23 be 1d 19 11 be 66 2b ed be 50 aa 42 be
       -0.16014951 -0.14169736 -0.46322173 -0.19010282
000340 76 30 0e be 7c e6 22 3e 79 2f 94 3e 4e 49 4c 3d
       -0.13885674 0.15908235 0.2894247 0.049874596
000350 c0 44 02 be d0 0c 87 3d 5b 2c 1a bd dc 94 9a bd
       -0.12721539 0.06594241 -0.037639957 -0.07547924
000360 52 1d 2f 3e 0b 76 ce bd 4e 39 7a 3d bf f7 93 3e
       0.17101029 -0.10081109 0.061089806 0.28899953
000370 f0 67 cb bc 65 53 a2 bd 7f 5f 33 3e 12 90 e7 3c
       -0.024829835 -0.079260625 0.17516898 0.02826694
000380 8e 61 cf bd 8a 15 9a bd d4 83 a6 3d 40 42 13 bd
       -0.10126029 -0.075236395 0.08130613 -0.035951853
000390 74 04 cf 3d 30 55 07 3d 34 c8 9e bd c0 f7 35 3d
       0.10108271 0.033040226 -0.077530295 0.044425726
0003a0 40 e6 c5 bd 04 00 be bd f0 39 38 bc 9c e4 58 3d
       -0.09663057 -0.09277347 -0.011244282 0.052952394
0003b0 8a 64 b5 bd 40 e1 df bc 8c 17 77 3d 10 66 48 3d
       -0.08857067 -0.027329087 0.06032519 0.04892546
0003c0 ba 51 c3 bd d8 9a 8c 3d 8c f1 59 bd 14 f3 09 3d
       -0.095370725 0.068654716 -0.053208873 0.033679083
0003d0 c8 73 83 bd e0 92 7f 3d 40 0d 34 bd fe 1d ed 3d
       -0.06418568 0.06239593 -0.04395795 0.11577986
0003e0 60 8c c1 bc 38 4d da bd 22 8e 81 3d 68 f7 bc bc
       -0.023626506 -0.106592596 0.06325938 -0.023067191
0003f0 00 d9 eb bc e0 9f f6 3c e2 41 a6 bd 8e be 89 bd
       -0.028789997 0.030105531 -0.08118035 -0.067257985

flows.0.t.1.0.bias f4 [32]
000000 5e e5 b1 3e d7 93 41 be ae 1b 7e 3d d2 0d fc bd
       0.34745306 -0.18904053 0.062038116 -0.123073235
000010 36 7e 80 bd 02 8e 77 3d da fa 54 3e f3 c0 80 3e
       -0.06274073 0.060438164 0.20798817 0.2514721
000020 e3 13 72 b8 6b 9c 8c 3e 54 51 0c 3e b0 0e 9a 3e
       -5.7715817e-05 0.27463087 0.13702899 0.3008933
000030 f0 8e 87 3e dd e3 a3 3e 70 dd 0e 3e 90 03 74 3e
       0.2647624 0.32009783 0.13951659 0.23829484
000040 27 5c 9b 3e db da 85 bd 47 71 61 3e fa fc 26 3e
       0.30343744 -0.06535884 0.22015868 0.1630744
000050 8e 49 0b bd 72 4e f4 bc 44 a6 cb bc 88 a8 0e 3d
       -0.034005694 -0.029822562 -0.024859555 0.034828693
000060 b8 7b c8 bd 23 e0 06 3d 8c 91 21 be 36 d8 5a 3e
       -0.097892225 0.032928597 -0.15778178 0.2137154
000070 76 1a 83 3e 7e 8d 46 3d f1 fd ca 3e f1 38 48 3d
       0.25606126 0.04847478 0.39646867 0.04888243

flows.0.t.1.2.weight f4 [32, 32]
000000 e4 19 1c 3e 79 db 5d 3d c1 5d 24 bc 2c 16 15 3e
       0.15244251 0.054164384 -0.010032118 0.14559239
000010 3b 96 8a 3c ef 75 1d be 5a 4e 31 3d 3e 72 04 bd
       0.016917339 -0.1537702 0.043287612 -0.032335512
000020 d9 20 07 be 5d 63 c3 3d a5 08 4a be 59 89 15 3e
       -0.13196124 0.095404364 -0.1972986 0.14603175
000030 c8 d2 5d 3d 6a de 27 be 8e 23 da bd 1b 10 66 3d
       0.054156095 -0.16393438 -0.10651313 0.056167703
000040 60 b0 17 bc 79 4b 90 bd 5f 40 b3 bd ca 24 48 bc
       -0.00925836 -0.07045645 -0.08752512 -0.012215802
000050 44 20 51 be b2 b1 2e bd a9 63 df bc 9d e7 54 3d
       -0.20422465 -0.042649932 -0.027269201 0.051978696
000060 bb ff aa be 6e bb 50 3a ca f0 40 be 66 58 36 3c
       -0.33398232 0.00079624995 -0.18841854 0.011129474
000070 29 38 e2 bd 4b fb 4d 3e 12 38 c1 bd a4 3d 97 3b
       -0.11045868 0.20115392 -0.09434523 0.0046155024
000080 f8 37 92 3d ff 01 51 be 59 99 35 bd d0 9c 0c 3d
       0.071395814 -0.20410918 -0.044335697 0.034329236
000090 a3 f1 2b 3e 1b a1 2c 3e 82 d6 81 3e 15 40 28 3e
       0.16791396 0.16858332 0.2535897 0.16430695
0000a0 1f c1 79 3e 52 0c c8 3d 55 ab 29 be d3 a0 75 bd
       0.24390076 0.09767975 -0.16569264 -0.059967827
0000b0 cb 57 dd 3b 9b bb 24 3d 7d 0d 94 bd 41 71 c5 3d
       0.0067548505 0.040217977 -0.07229135 0.09640742
0000c0 7e 29 b7 bd 82 a4 40 3e bb ae 26 3e a8 ec 35 bd
       -0.08943461 0.18812755 0.16277592 -0.044415146
0000d0 d8 6d e3 3d 72 e2 30 3e af 6e b2 3e c4 9c 4b 3d
       0.111049354 0.17273882 0.3485007 0.04971005
0000e0 c9 4b 00 3e e5 80 e2 bd 76 49 1a be 9e 90 c4 3c
       0.1252891 -0.11059741 -0.15067086 0.02399474
0000f0 9d 72 fd bd c5 0c 9e bd a4 0b d8 bd 9c c2 e7 bc
       -0.123753764 -0.07717279 -0.10549095 -0.02829104
000100 65 bc 29 be 0f ef e7 bd 0a 40 68 be db da 3f 3e
       -0.16575773 -0.11324894 -0.22680679 0.1873583
000110 b1 fa d5 3d 63 a3 62 be 39 00 32 be d6 2e 8e bd
       0.10448206 -0.2213264 -0.17382897 -0.06942527
000120 d8 4c 2a bc 20 c5 14 3e 47 a7 34 3d 1a de 07 3d
       -0.010394298 0.14528322 0.04410484 0.033170797
000130 a1 3b 4a 3e 5d 64 f8 bd 59 1c cd bb 8d a3 62 3d
       0.19749309 -0.12128518 -0.006259483 0.055331755
000140 90 37 a6 3d 32 a4 2e bc 9e 01 92 3c a4 71 83 3e
       0.081160665 -0.010659264 0.017823037 0.25672638
000150 94 cd 07 bf 83 68 c0 3d 87 fd 0a be 71 a8 7b 3d
       -0.5304806 0.09394934 -0.13573276 0.061439935
000160 47 f1 a0 be 4f b2 e5 3d 29 8d 27 3e 92 1e fb 3d
       -0.3143408 0.1121565 0.16362442 0.1226169
000170 ec ee 15 3e e3 0e ca be 74 0a 3c be ef 35 ec 3d
       0.14641923 -0.39464483 -0.18363363 0.115337245
000180 4c 63 13 3d 86 02 be 3d 25 4c 19 bd d8 cb 1b be
       0.03598337 0.09277825 -0.037426133 -0.15214479
000190 99 13 1b 3d 98 67 07 3d 80 3e 64 3d df 76 00 be
       0.037860487 0.03305778 0.055723667 -0.12545346
0001a0 cc d8 21 be 35 d8 a5 3d fa 37 92 3d 9a fa 15 3d
       -0.15805358 0.08097879 0.07139583 0.036615945
0001b0 49 61 85 bd 66 68 82 bd 71 1a 33 bd 6e f8 24 bd
       -0.06512696 -0.06367569 -0.04372639 -0.040275984
0001c0 28 e0 de 3d 30 bd 26 be 9f 5f 40 3d 2b 29 c2 3d
       0.10882598 -0.16283107 0.04696619 0.094805084
0001d0 28 7d 7f be 50 81 4b be 81 00 e7 bd ad 2b 58 bd
       -0.24950087 -0.19873548 -0.11279393 -0.052776027
0001e0 bf ef a6 3d 5b 79 d1 3c e4 ae c2 3c e6 4d ba bd
       0.08151197 0.025570562 0.023765035 -0.09096889
0001f0 04 ec 31 3e 96 1d 41 be 62 19 03 bb fd f6 06 bd
       0.17375189 -0.18858942 -0.0020004143 -0.03295039
000200 05 37 60 bd d1 5b a1 be 6f 2c 24 be 69 15 5a be
       -0.05473997 -0.31515363 -0.16032575 -0.2129723
000210 5a 8d 50 be 0a e3 1f 3e a9 37 3a bc 03 ee 0e 3e
       -0.20366421 0.15613952 -0.0113658095 0.13957982
000220 27 6b a5 bd 29 06 43 3e 90 cb b6 bd 47 08 03 3d
       -0.08077078 0.19045319 -0.08925545 0.031990316
000230 7a 46 90 3e 6b 6d af 3d 29 e8 a3 3d 2c 49 3f 3e
       0.2817877 0.08565792 0.080032654 0.18680257
000240 65 04 d0 3d a7 70 21 be 33 02 3b be 68 09 41 3e
       0.10157088 -0.1576563 -0.18262558 0.18851244
000250 b6 94 83 3d bf 47 a0 bd c2 9d 8b bc de cc 10 bd
       0.06424849 -0.078261845 -0.017042998 -0.035351627
000260 a9 ca 38 be 94 19 85 bc e1 ce 00 bb b7 97 12 3b
       -0.18046059 -0.016247548 -0.001965456 0.002236826
000270 56 2d 24 3e d6 67 3c 3d 1c f2 04 3e 7a 7c 57 bd
       0.1603292 0.045997463 0.12982982 -0.052608944
000280 70 3f 9e 3e 6d 56 40 be 43 b5 d5 3d fd 3b 6b be
       0.30907774 -0.18782969 0.104349636 -0.22972102
000290 45 82 8a be 0b b1 37 3d e3 bf 32 3e da 3e e6 3d
       -0.27052513 0.044846576 0.17456011 0.11242457
0002a0 2b 83 cf bd 0c ab 55 3b 67 11 e6 3d f6 9d ea 3d
       -0.1013244 0.0032603173 0.11233788 0.1145591
0002b0 94 c4 20 bd 95 f1 6e 3e 5f f9 7d 3c 85 f7 80 3d
       -0.03924997 0.23334344 0.015501349 0.062972106
0002c0 47 e2 8e 3e fa 58 d5 3b 9d 05 54 3e 21 30 6d be
       0.2790701 0.006510851 0.20705266 -0.23162891
0002d0 40 62 06 3d 93 87 1e be 3c 35 36 3d b4 16 ac bd
       0.032808542 -0.15481405 0.044484362 -0.08402768
0002e0 e0 ad 00 3e 1f 57 be 3c 9d 7c 99 3c 1c 1c 35 3e
       0.12566328 0.023234902 0.018736178 0.17686504
0002f0 82 ab ee 3d 21 05 a6 bc a4 d3 88 3e b2 08 6e 3e
       0.11653806 -0.020266118 0.2672397 0.23245504
000300 b2 41 f4 bd 01 d7 8d 3e cd c1 dc bc 3c 4a de 3a
       -0.11926593 0.27703097 -0.02694788 0.001695938
000310 b2 1c d7 bd 89 0f 45 bd c1 72 2e 3d c7 80 ca 3d
       -0.1050352 -0.04811052 0.042589907 0.098878436
000320 1c 57 a0 bd 72 2f 4d 3e a6 94 6f 3d f6 f8 73 3d
       -0.07829115 0.2003763 0.05849137 0.0595636
000330 ed 5a 83 bd 5b b2 0f 3d 1f f2 0d bd 54 9a da 3d
       -0.06413827 0.035082202 -0.034654733 0.10673967
000340 13 52 9b bd bc 1e 1a be 3c e7 e5 3c 1f ff 08 3d
       -0.07584014 -0.15050787 0.028064363 0.033446427
000350 d7 66 e6 ba 1a 2b 79 3d 7b 85 3a be 7d 7f a2 3d
       -0.0017578256 0.06083212 -0.18214981 0.07934473
000360 f7 f0 45 bd 77 a7 1c 3e b8 af 94 3d 33 b2 87 bd
       -0.048325505 0.15298258 0.07260078 -0.06625786
000370 67 7c 0e 3e 2c 8d 43 be 31 ad 84 3d 50 da af bd
       0.13914643 -0.19096822 0.06478346 -0.08586562
000380 83 d0 65 be 8a c1 db 3d e5 c5 ba bd e1 23 f3 ba
       -0.22442822 0.10730274 -0.09119777 -0.0018550121
000390 73 81 e1 3c 64 99 89 3e 49 b4 5f be 32 80 69 bc
       0.027527547 0.2687484 -0.21846117 -0.014251756
0003a0 0f 9c 24 be 18 f2 94 bd 60 8d 34 bf 59 6a 4f b9
       -0.16075157 -0.07272738 -0.7052822 -0.00019780676
0003b0 81 53 ab 3e ad dd e7 3d 12 a3 02 3e 2e 63 a0 bc
       0.33462146 0.11321578 0.12757519 -0.019578543
0003c0 a1 e3 27 3d 61 09 bd be 90 8a 93 bd 1c dc 16 be
       0.04098857 -0.36921218 -0.07204163 -0.14732403
0003d0 11 84 7e be ac 77 6a bd 0b 81 4d 3d f9 c7 9b be
       -0.24855067 -0.057243034 0.050171893 -0.30426005
0003e0 19 c5 86 3d 94 7d 60 bc 3f 8f 90 3d 62 d6 54 bd
       0.06580562 -0.013701815 0.07058572 -0.051962264
0003f0 c3 40 4f 3e ef e5 5b be 1c 24 d0 3d 6e b6 86 3c
       0.20239548 -0.21474431 0.10163137 0.016444411

flows.0.t.1.2.bias f4 [32]
000000 43 c8 98 3e 7e 36 4c bd 27 d9 02 be 87 82 de 3d
       0.29840288 -0.049856655 -0.1277815 0.1086474
000010 19 2f 5b 3e f1 cf cf 3e 0f 37 75 3d 7d a1 9f 3d
       0.21404685 0.40588334 0.05986696 0.07794473
000020 ee 4d 14 3e fd 42 00 3e 47 a6 47 3d c6 30 91 3c
       0.14482853 0.12525554 0.04874256 0.017723452
000030 54 d7 0e be f3 09 0b 3e e0 cc 74 3e f1 79 9e 3e
       -0.13949329 0.13578014 0.23906279 0.3095241
000040 9e 5c bf be ee b4 68 3e ba 62 1f 3d 8d e5 18 3c
       -0.3737535 0.22725269 0.038912512 0.009332073
000050 fc b8 36 be 7f 25 e3 3c 89 26 cb 3e c6 26 42 3e
       -0.17844003 0.02772784 0.39677837 0.18960103
000060 9e 48 00 3e c8 cf a2 3e 62 6d b8 bd 6e c3 c6 bd
       0.12527701 0.3179915 -0.09005238 -0.09705244
000070 c7 9a 29 bd 76 17 71 be 4c 46 1a 3e c7 9a 08 be
       -0.041407373 -0.23544106 0.15065879 -0.13340293
