code_for_Boids/Models_16birds_2groups/model_16birds_2groups_straight_tensor_kde_4batch_4layer_16p_short_lr54_962000.pkl (torch, 548793 bytes, 196 tensors)

flows.0.mask f4 [6, 64]
00000000: 0000 0000 0000 0000 0000 0000 0000 0000
00000010: 0000 0000 0000 0000 0000 0000 0000 0000
00000020: 0000 0000 0000 0000 0000 0000 0000 0000
00000030: 0000 0000 0000 0000 0000 0000 0000 0000
00000040: 0000 0000 0000 0000 0000 0000 0000 0000
00000050: 0000 0000 0000 0000 0000 0000 0000 0000
00000060: 0000 0000 0000 0000 0000 0000 0000 0000
00000070: 0000 0000 0000 0000 0000 0000 0000 0000
00000080: 0000 803f 0000 803f 0000 803f 0000 803f
00000090: 0000 803f 0000 803f 0000 803f 0000 803f
000000a0: 0000 803f 0000 803f 0000 803f 0000 803f
000000b0: 0000 803f 0000 803f 0000 803f 0000 803f
000000c0: 0000 803f 0000 803f 0000 803f 0000 803f
000000d0: 0000 803f 0000 803f 0000 803f 0000 803f
000000e0: 0000 803f 0000 803f 0000 803f 0000 803f
000000f0: 0000 803f 0000 803f 0000 803f 0000 803f
00000100: 0000 803f 0000 803f 0000 803f 0000 803f
00000110: 0000 803f 0000 803f 0000 803f 0000 803f
00000120: 0000 803f 0000 803f 0000 803f 0000 803f
00000130: 0000 803f 0000 803f 0000 803f 0000 803f
00000140: 0000 803f 0000 803f 0000 803f 0000 803f
00000150: 0000 803f 0000 803f 0000 803f 0000 803f
00000160: 0000 803f 0000 803f 0000 803f 0000 803f
00000170: 0000 803f 0000 803f 0000 803f 0000 803f
00000180: 0000 0000 0000 0000 0000 0000 0000 0000
00000190: 0000 0000 0000 0000 0000 0000 0000 0000
000001a0: 0000 0000 0000 0000 0000 0000 0000 0000
000001b0: 0000 0000 0000 0000 0000 0000 0000 0000
000001c0: 0000 0000 0000 0000 0000 0000 0000 0000
000001d0: 0000 0000 0000 0000 0000 0000 0000 0000
000001e0: 0000 0000 0000 0000 0000 0000 0000 0000
000001f0: 0000 0000 0000 0000 0000 0000 0000 0000
00000200: 0000 0000 0000 0000 0000 0000 0000 0000
00000210: 0000 0000 0000 0000 0000 0000 0000 0000
00000220: 0000 0000 0000 0000 0000 0000 0000 0000
00000230: 0000 0000 0000 0000 0000 0000 0000 0000
00000240: 0000 0000 0000 0000 0000 0000 0000 0000
00000250: 0000 0000 0000 0000 0000 0000 0000 0000
00000260: 0000 0000 0000 0000 0000 0000 0000 0000
00000270: 0000 0000 0000 0000 0000 0000 0000 0000
00000280: 0000 803f 0000 803f 0000 803f 0000 803f
00000290: 0000 803f 0000 803f 0000 803f 0000 803f
000002a0: 0000 803f 0000 803f 0000 803f 0000 803f
000002b0: 0000 803f 0000 803f 0000 803f 0000 803f
000002c0: 0000 803f 0000 803f 0000 803f 0000 803f
000002d0: 0000 803f 0000 803f 0000 803f 0000 803f
000002e0: 0000 803f 0000 803f 0000 803f 0000 803f
000002f0: 0000 803f 0000 803f 0000 803f 0000 803f
00000300: 0000 803f 0000 803f 0000 803f 0000 803f
00000310: 0000 803f 0000 803f 0000 803f 0000 803f
00000320: 0000 803f 0000 803f 0000 803f 0000 803f
00000330: 0000 803f 0000 803f 0000 803f 0000 803f
00000340: 0000 803f 0000 803f 0000 803f 0000 803f
00000350: 0000 803f 0000 803f 0000 803f 0000 803f
00000360: 0000 803f 0000 803f 0000 803f 0000 803f
00000370: 0000 803f 0000 803f 0000 803f 0000 803f
00000380: 0000 0000 0000 0000 0000 0000 0000 0000
00000390: 0000 0000 0000 0000 0000 0000 0000 0000
000003a0: 0000 0000 0000 0000 0000 0000 0000 0000
000003b0: 0000 0000 0000 0000 0000 0000 0000 0000
000003c0: 0000 0000 0000 0000 0000 0000 0000 0000
000003d0: 0000 0000 0000 0000 0000 0000 0000 0000
000003e0: 0000 0000 0000 0000 0000 0000 0000 0000
000003f0: 0000 0000 0000 0000 0000 0000 0000 0000
0.0 0.0 0.0 0.0 0.0 0.0 0.0 0.0
0.0 0.0 0.0 0.0 0.0 0.0 0.0 0.0
0.0 0.0 0.0 0.0 0.0 0.0 0.0 0.0
0.0 0.0 0.0 0.0 0.0 0.0 0.0 0.0
1.0 1.0 1.0 1.0 1.0 1.0 1.0 1.0
1.0 1.0 1.0 1.0 1.0 1.0 1.0 1.0
1.0 1.0 1.0 1.0 1.0 1.0 1.0 1.0
1.0 1.0 1.0 1.0 1.0 1.0 1.0 1.0
1.0 1.0 1.0 1.0 1.0 1.0 1.0 1.0
1.0 1.0 1.0 1.0 1.0 1.0 1.0 1.0
1.0 1.0 1.0 1.0 1.0 1.0 1.0 1.0
1.0 1.0 1.0 1.0 1.0 1.0 1.0 1.0
0.0 0.0 0.0 0.0 0.0 0.0 0.0 0.0
0.0 0.0 0.0 0.0 0.0 0.0 0.0 0.0
0.0 0.0 0.0 0.0 0.0 0.0 0.0 0.0
0.0 0.0 0.0 0.0 0.0 0.0 0.0 0.0
0.0 0.0 0.0 0.0 0.0 0.0 0.0 0.0
0.0 0.0 0.0 0.0 0.0 0.0 0.0 0.0
0.0 0.0 0.0 0.0 0.0 0.0 0.0 0.0
0.0 0.0 0.0 0.0 0.0 0.0 0.0 0.0
1.0 1.0 1.0 1.0 1.0 1.0 1.0 1.0
1.0 1.0 1.0 1.0 1.0 1.0 1.0 1.0
1.0 1.0 1.0 1.0 1.0 1.0 1.0 1.0
1.0 1.0 1.0 1.0 1.0 1.0 1.0 1.0
1.0 1.0 1.0 1.0 1.0 1.0 1.0 1.0
1.0 1.0 1.0 1.0 1.0 1.0 1.0 1.0
1.0 1.0 1.0 1.0 1.0 1.0 1.0 1.0
1.0 1.0 1.0 1.0 1.0 1.0 1.0 1.0
0.0 0.0 0.0 0.0 0.0 0.0 0.0 0.0
0.0 0.0 0.0 0.0 0.0 0.0 0.0 0.0
0.0 0.0 0.0 0.0 0.0 0.0 0.0 0.0
0.0 0.0 0.0 0.0 0.0 0.0 0.0 0.0

flows.0.t.0.0.weight f4 [32, 64]
00000000: cea7 cebd b8f1 793d 6099 f2bd 8e1a c73d
00000010: 6069 9e3c 3035 0ebc e091 8f3d 2803 813c
00000020: 703d c6bc 4046 203b 443c 123d a05a 92bd
00000030: f6e8 bd3d 2446 5c3d 70ad 96bc 5067 e5bc
00000040: bae2 a9bd c845 e63c a0f4 133c c0bf 9fbb
00000050: cc26 9ebd b8f9 843d 24c9 45bd 98a1 c4bd
00000060: ac45 373d 2e25 edbd 9e8e ecbd f80c df3d
00000070: 9285 8abd 1a36 d5bd a619 ffbd 3040 3a3d
00000080: 8963 763d 8347 a23d 7807 11be de49 d53d
00000090: 683e 6fbd ab26 8c3d 28c7 6abd c235 40bd
000000a0: 0359 fabc 31ff c7bc 1ec2 23be d359 93bd
000000b0: 48e6 1bbd a0d7 b5bd 9f84 9e3c f0fa a53e
000000c0: 8bc8 243d 777c 96bb 9f9b 423d 5724 14be
000000d0: 5b7f c83d 0840 c03d 87e3 433d d001 d1bd
000000e0: 283d 673d a54e 85bc 719f bebe 4637 e3bb
000000f0: f517 64bd 8768 303c b6b7 9fbe 6255 d03d
00000100: 9839 2dbd 3c9b 4ebd b0d3 46bc 0003 673a
00000110: 3451 e6bd 085c 5fbd c0b7 763d 542a 4fbd
00000120: a031 f5bc 9cd8 2abd 3804 cbbc 768c 8f3d
00000130: 8c7a d7bd 764d acbd 9c7a 8dbd 5c97 12bd
00000140: c0fe 15bd d0a6 83bc eac4 bc3d 6678 cabd
00000150: 38a2 fdbd 8a84 ca3d 6ecc a8bd 9acc d8bd
00000160: 7cf2 d1bd ec7c 0a3d 1a50 c13d 9aee bfbd
00000170: 2092 c53b e8e1 e7bc 2082 c63c 288a 263d
00000180: 4bba 823e 94d9 b6bd ad8d bb3f d798 a6be
00000190: 9bdc 95be e811 b1bd c527 cdbd 5434 cb3e
000001a0: c5f2 453e 2634 95be 3dc7 593d e68f a73e
000001b0: 37a2 8abd e70f 99bd b126 c03e d3e5 f2be
000001c0: dcea 543d b942 82bd 6e10 32be ba7c 7bbe
000001d0: 7b91 693e 13b6 8a3e 8402 903e 8b57 1d3e
000001e0: 0a18 3cbc 727d 303e 7af4 3abe bcf1 85be
000001f0: d84c 4bbd f68e 56bd c642 113d 7dcc c73e
00000200: 9415 58bd de50 a73d 18e0 993c ea98 8c3d
00000210: 009f 983b bc48 9abd c6f6 a33d 0a4d f13d
00000220: 5029 9abc 0067 91ba e401 09bd 18fd e03c
00000230: bea9 bfbd 10bd 4a3d baf9 be3d 9a5a 993d
00000240: fac6 8fbd 907e 87bd d01c c9bc 5084 ce3c
00000250: 3ed4 bb3d d026 83bd 56bd fd3d f02d 59bd
00000260: e229 ffbd d42f 7d3d 3c4e 4bbd 00c4 5fbb
00000270: 80e1 60bd 3a22 c4bd 90e4 1a3c 38c0 ce3d
00000280: 92b8 87bc a5cd ad3c a8fd 8abd 783d bf3c
00000290: a8c1 57bc e5d9 8d3d 7234 49be 21e9 19be
000002a0: f3fd 67bd 831f 543d 994d 3c3c 9582 52be
000002b0: 7b75 b5bd a3a5 d43c 22e4 e4bd dbf5 893d
000002c0: 18d8 a1bd 5e79 22be 6535 a1bd becc 933d
000002d0: ad7b 32bd 0c12 9e3d 60b8 7d3e a656 183e
000002e0: 15d3 d3bd f746 1b3e 8472 a13e f36f a7bd
000002f0: 4aa8 27bd a252 113e c7ea a53d 2a6c 11bb
00000300: 0026 b4ba c4fb 7e3d 1493 4b3d 2047 783d
00000310: 92d8 abbd 3671 81bd 68dc 5abd a0f9 7a3d
00000320: 104f 4b3c 8a4d b7bd 5451 c53d 3066 b13c
00000330: 0c97 bdbd be44 a4bd 1c3f 13bd 7c98 f7bd
00000340: 2073 20bd 08ab 91bd bc7f ebbd 18e2 86bc
00000350: d4b1 333d 9e5d 88bd 98a9 3e3d c8d8 e23d
00000360: ac9d fe3d 107f 3f3c 60a2 6cbd 1899 ba3c
00000370: 5c00 523d fea7 843d ac05 cbbd 02dd b23d
00000380: b091 053e ca41 93bd 1651 11bf 6b9e 0e3e
00000390: 3e28 3ebe f0ac 713b 8101 36bd 6ba9 413e
000003a0: a384 903c 4da8 81bd ac85 553e 544b 0f3e
000003b0: 3e27 863d 444e c5bc 8e8c c7bd df12 363e
000003c0: 1897 863e 01c1 4d3c d30e 743e 3c61 503d
000003d0: 09b4 27bd 4ecc ca3c 89d4 3a3d c924 513c
000003e0: 9b45 debd decf 63bd 9661 e4bd 14e0 39bd
000003f0: 4f23 d8bd 125e 063d 39d6 9dbd 48be 7e3c
-0.100906 0.061021537 -0.1184566 0.09721862 0.019337356 -0.008679673 0.07010245 0.015748575
-0.024199218 0.0024455935 0.035702005 -0.071461916 0.092729494 0.05377783 -0.018393248 -0.028003365
-0.08295198 0.028109446 0.009030491 -0.0048751533 -0.07722244 0.064929426 -0.048287526 -0.09601134
0.04474418 -0.11579357 -0.115506396 0.108911455 -0.06763758 -0.1041071 -0.12456064 0.04547137
0.060153518 0.07923796 -0.14163005 0.1041448 -0.058409125 0.06843313 -0.057318836 -0.046926267
-0.030560022 -0.024413677 -0.15992019 -0.07194867 -0.03806141 -0.08879018 0.019350348 0.32418013
0.040230315 -0.004592474 0.047511693 -0.14466988 0.09789916 0.09387213 0.04782441 -0.10205424
0.056454808 -0.016272852 -0.3723102 -0.0069340793 -0.05568691 0.010767109 -0.31194848 0.101725355
-0.042291254 -0.05044101 -0.012135431 0.0008812398 -0.11245957 -0.054531127 0.06023383 -0.050577477
-0.02993089 -0.04171048 -0.024782285 0.07009213 -0.10521421 -0.08413212 -0.069081515 -0.03578888
-0.0366199 -0.016070753 0.09217246 -0.098862454 -0.123844564 0.09888561 -0.08242117 -0.105859
-0.10251328 0.03381054 0.09439106 -0.093716815 0.0060293823 -0.028305963 0.02423197 0.0406591
0.25532755 -0.089282185 1.4652611 -0.32538483 -0.2926987 -0.086459935 -0.10017351 0.3968836
0.1933089 -0.2914135 0.053168524 0.32726973 -0.06769221 -0.07473736 0.3752952 -0.47440967
0.05198179 -0.063603826 -0.1738908 -0.24559298 0.22809403 0.27092037 0.2812692 0.15365426
-0.011480341 0.17235354 -0.18257323 -0.2616099 -0.04963383 -0.052382432 0.03546407 0.390232
-0.052754954 0.08169721 0.018783614 0.068651035 0.004657626 -0.07533404 0.08006053 0.11782272
-0.018818527 -0.0011093318 -0.03344907 0.027464435 -0.09358548 0.04949671 0.09324975 0.07487984
-0.07020374 -0.06615937 -0.024549872 0.025209576 0.09171341 -0.06403887 0.123896286 -0.053022325
-0.124591604 0.06181319 -0.049635157 -0.0034143925 -0.054902554 -0.09576841 0.009453908 0.100952566
-0.016567502 0.021216223 -0.06786662 0.02334474 -0.01316873 0.06926326 -0.19648913 -0.15030338
-0.05663867 0.051787864 0.01149311 -0.20557626 -0.08860298 0.025957888 -0.111763254 0.06736346
-0.07902545 -0.1586661 -0.07871512 0.07216786 -0.043574978 0.07718286 0.24777365 0.14876804
-0.10342995 0.1516379 0.3153268 -0.081756495 -0.040931977 0.14191678 0.08101421 -0.0022189715
-0.0013744235 0.06225182 0.04970081 0.060614705 -0.08390917 -0.063204214 -0.053432852 0.061273217
0.012408987 -0.08950336 0.09634653 0.021655172 -0.092573255 -0.08020924 -0.035948858 -0.12089631
-0.03917229 -0.071127 -0.11498973 -0.016465232 0.043870762 -0.06658481 0.046548456 0.11076504
0.12432417 0.011688009 -0.05777204 0.022778079 0.051269874 0.064773545 -0.09913191 0.0873356
0.13043857 -0.07190283 -0.5676435 0.13927619 -0.18570039 0.003687676 -0.044435028 0.18912284
0.017641371 -0.06330929 0.20851773 0.13993579 0.065504536 -0.024085172 -0.097436056 0.17780636
0.2628715 0.012558223 0.2383378 0.05087398 -0.04094318 0.024755623 0.045612846 0.012765118
-0.1085312 -0.05561816 -0.111514255 -0.045379713 -0.105536096 0.032804556 -0.07706875 0.015548296

flows.0.t.0.0.bias f4 [32]
00000000: 8ee4 263e 2eaf fabd eb6e 82be f093 0d3e
00000010: 9b09 eabd b258 1dbd f83a f7bd a3fa a0bc
00000020: de03 5cbd 6dc8 8a3d c928 093e 045a 313e
00000030: 69ed ac3d bb03 043d 74ce 0f3d 231a 9abd
00000040: 0b42 f83d 75a8 2d3e e2f0 0d3e cfd4 333c
00000050: 29e4 503e 9af2 39be 4ad8 493d 9d9a cf3d
00000060: 51c1 10be a406 69bd 89e3 a8bd 544b 7a3b
00000070: c128 103e f1d3 4f3b 8ae9 a3bc a2cc c43d
0.16298124 -0.12240444 -0.2547525 0.13825965 -0.11427613 -0.038414665 -0.12071794 -0.019650763
-0.053714626 0.067765094 0.13394465 0.17319494 0.0844372 0.03223012 0.035109 -0.075245164
0.12121972 0.16958793 0.13861421 0.0109760305 0.20399536 -0.18158951 0.049278535 0.10136912
-0.14136244 -0.0568911 -0.08246524 0.0038191872 0.14078046 0.003171202 -0.020008821 0.09609343

flows.0.t.0.2.weight f4 [32, 32]
00000000: 33ce 3bbe 6da9 763d 4159 823d efc7 303e
00000010: 47d7 123e a49a b93c 104b 433e 2bbe b63d
00000020: 6d2c 21be f8a9 52be 7c42 0f3d 2e0d a4bd
00000030: e53d 1abd 0c0b ebbd f56a 77bd 69a1 0d3e
00000040: 78e2 3c3e 6c1d 1a3d 37fc 7d3d c0b7 023e
00000050: b4e9 293c b599 b0bd ac8e ceb9 e7e9 9cbd
00000060: 2f21 5b3d 0ef1 853c 5ba8 25be d352 103e
00000070: e29b 093c a6db 123d 9ff4 64be 3f11 8b3e
00000080: 0fc9 393d 1ae4 833e ae14 b6bd f247 223d
00000090: 7036 a33d 6386 653e dfd8 e03c e57a 2a3c
000000a0: 12f2 b13d 8655 c93d 84d4 16bd 144a aabc
000000b0: 7995 abbd f27c fb3b 3bca be3d 359f 1dbe
000000c0: 7ede 483d 8dd6 2bbe f246 4cbe 11ec 9c3d
000000d0: e3de 9f3d d3f4 3e3e d649 5f3e b093 243d
000000e0: 54b5 033d fc04 37bd 5155 823e 4817 b7bd
000000f0: 5b46 05bc 4df7 ac3d ab9f 93bd 9191 8e3e
00000100: fd35 31bd 0d53 82bd d9b6 a7bd 8d5e 153e
00000110: 6277 1abe d5bd 443e 384d 1bbe 1bb2 41bd
00000120: 62f5 b5bd 8d24 ac3d 0a0b 453e 4a5f abbd
00000130: 4a04 623e 905e b8bd 65d1 903c 359b 04bd
00000140: 38b4 65bc 664c 603d 5acd 963d 05bf 00bd
00000150: c5e7 bf3d d569 193d 6eb4 253c 1597 f2bd
00000160: 4e94 6fbd 409c 94bd cdb5 873c 95c1 123e
00000170: 9666 72bd c519 4a3e f400 25bd 715d a4bd
00000180: 7132 babd 7aa4 3cbd 6ceb 3fbe d38b 42be
00000190: a11c 103d 74b9 25b9 b591 b1bd 4a8f d03d
000001a0: 532a ec3d dd93 b0bd 349a 523e c5c3 dc3d
000001b0: af2f cd3d 8c3d 6d3d e130 5e3c 3462 e43d
000001c0: 7b50 973c 5929 573e 3209 223e 1e1f 44bb
000001d0: 54bd 1d3d 0118 2b3d 8899 8f3d b07c d9bc
000001e0: 301c c1bc b5a9 2f3d 6373 1bbd aec4 b0bd
000001f0: a78a 113d 485c 143e e618 1f3c 73ad 0ebe
00000200: 689b 09be 50a6 cebe 227b 11be d7f3 aabc
00000210: ab8e 903e c09e 3c3e 5de3 f6bd e7ea 11bc
00000220: 2e05 f9bd bef6 abbd 119d ef3c 4a7c 923d
00000230: 2355 adbd bf13 0fbe 540c c6bd 2b4a 91bd
00000240: b6aa 133e a833 c1bd e244 3abe 1ad5 46be
00000250: 885f 69bd 3b9d 5e3e e547 2cbe d3ac a1bb
00000260: 7f08 01bf aa9a 7fbc e615 1bbd e461 a8bd
00000270: b302 1f3e a38e edbd 589d 73be d226 a63e
00000280: 679f a3bd 0a07 a3bc 0a82 98bb bbad 26bf
00000290: 381f 5d3e b6b0 2cbe 5eba b83d d85c 243e
000002a0: 3d8f 07be 6953 00be 2eb3 48bd 03b5 7d3b
000002b0: eb20 20be f2d7 85be 4594 303e 98d1 2abe
000002c0: 47bc 743c 9aa7 373d 6652 2abe 77a8 953e
000002d0: 060f 69be 7169 d3bd 2418 843c 55a7 653b
000002e0: 65ac b2be e412 6c3d c0f0 f4bd 3985 d3bd
000002f0: 0f06 e03e 3775 663d 5e4d 2a3d c6d8 013e
00000300: fd6e fb3d 2bf2 f93b 28e6 09be 9475 2dbd
00000310: 64d8 843d 0f1c 55bc 6922 d83d e969 4bbe
00000320: 81ae 19be 9695 993d e420 913d 9ee6 8abc
00000330: f22b 183e 7d74 10be c6a6 023e b034 6cbb
00000340: a4b0 aa3d 8a87 7ebc 12ba 9ebd 11bd 1c3e
00000350: fc6d 183d 6f35 443e c468 e03d 23d0 cfbc
00000360: b52a 16bd 85f9 f0bc bbcc 793d 7a62 14bd
00000370: 0113 87bd 282b d73d 18c8 873d 0ff6 5dbe
00000380: 1fa6 45bd c8d9 393d db3e 4cbd 493f d23d
00000390: afe9 2a3e 8d3d 3d3e fed3 4cbc 10f8 cb3c
000003a0: 4d71 90bd 3a5d a8bd 43e5 bc3d 6f75 86be
000003b0: 8e98 bb3c 0e11 d2ba 9041 4a3d 19c7 413d
000003c0: e0e8 583d 49cf 13be b3a5 0a3d 25db e5be
000003d0: 2e25 d53e b3e0 faba 5e88 073e b501 c2bd
000003e0: 70b8 9fbd ce6f c63c df2c d8bb 0e2e 46bd
000003f0: f100 28be 8835 c9bd 9c1e 3fbe 251c b13b
-0.18340378 0.06022017 0.0636468 0.17263769 0.14339934 0.022656746 0.19071603 0.089229904
-0.15739603 -0.2057265 0.034975514 -0.08010326 -0.037656683 -0.114767164 -0.060404737 0.13831104
0.18445766 0.037625715 0.06200811 0.12765408 0.010370661 -0.08623067 -0.0003939768 -0.07661801
0.053498443 0.016350295 -0.16177504 0.14094095 0.008398982 0.035854004 -0.2235894 0.27161595
0.04535776 0.25759965 -0.08890663 0.039619394 0.079693675 0.22414546 0.027447162 0.010405277
0.086887494 0.098307654 -0.036823764 -0.020787276 -0.08378119 0.0076748068 0.09315916 -0.15392764
0.04904031 -0.16781063 -0.19948938 0.076622136 0.07806184 0.1864808 0.2180551 0.04017991
0.03215535 -0.044682488 0.25455716 -0.089399874 -0.00813445 0.084456064 -0.072081886 0.27845433
-0.043264378 -0.06363497 -0.08189172 0.1458685 -0.15084603 0.1921304 -0.15166175 -0.047288995
-0.08884694 0.08405409 0.19242492 -0.08367784 0.22071949 -0.09002411 0.017677972 -0.03237458
-0.014020018 0.05476036 0.073633865 -0.03143217 0.093703784 0.037454445 0.010113819 -0.11845223
-0.058491044 -0.07256365 0.016566182 0.14331658 -0.059179865 0.19736393 -0.040284112 -0.08025635
-0.09091652 -0.046055295 -0.1874215 -0.18998651 0.035183553 -0.00015804713 -0.086703695 0.1018358
0.1153151 -0.08621953 0.20566636 0.107795276 0.100188605 0.057920024 0.013561458 0.11151543
0.018470993 0.21011867 0.1582382 -0.0029925774 0.038510635 0.04177094 0.07011706 -0.026548713
-0.023573011 0.042886455 -0.03795184 -0.08631264 0.03553262 0.14488328 0.009710526 -0.13933353
-0.13438189 -0.4036126 -0.14207128 -0.020868225 0.28233847 0.18419933 -0.12055085 -0.008906103
-0.12159191 -0.08396672 0.0292497 0.071526125 -0.08463504 -0.13972376 -0.0967032 -0.070942245
0.1442059 -0.09433681 -0.18190339 -0.1941723 -0.05697587 0.21739666 -0.168243 -0.0049339323
-0.5040359 -0.01560084 -0.03786268 -0.08221796 0.15528373 -0.115994714 -0.2379049 0.32451493
-0.07989388 -0.019900817 -0.0046541737 -0.6510884 0.2159394 -0.16864285 0.09019922 0.16051042
-0.13238235 -0.12531818 -0.048999004 0.0038712628 -0.15637557 -0.26141316 0.1724406 -0.16681516
0.014937467 0.04483757 -0.16632995 0.2923009 -0.22759637 -0.10322846 0.016124792 0.0035042365
-0.34897152 0.057635203 -0.11959982 -0.103281446 0.43754622 0.05626413 0.04157769 0.12680349
0.12277029 0.0076277456 -0.13466704 -0.04234846 0.06486586 -0.013007178 0.10553438 -0.1986462
-0.15007974 0.074992344 0.070863515 -0.01695567 0.14860514 -0.14106937 0.12758932 -0.0036042146
0.08334473 -0.015535245 -0.07750334 0.15306498 0.037214264 0.19161008 0.109574825 -0.025367802
-0.036661822 -0.029415855 0.06098626 -0.036226727 -0.065954216 0.10506278 0.06629962 -0.21675895
-0.04825413 0.045373708 -0.04986463 0.10265977 0.16690706 0.18480511 -0.012501715 0.024898559
-0.070528604 -0.082209066 0.09223416 -0.2626147 0.022899892 -0.0016026811 0.04937893 0.047309015
0.052956462 -0.14434542 0.03384943 -0.44893757 0.41629928 -0.0019140452 0.13235614 -0.09472982
-0.077988505 0.024223235 -0.006597146 -0.048383765 -0.16406609 -0.098246634 -0.1866402 0.0054049664

flows.0.t.0.2.bias f4 [32]
00000000: 94ec 503e 883a 96bc 56f2 5e3e bdac a63e
00000010: 4392 7bbe c5b3 673d 0c42 453e 2d82 68be
00000020: b5ee 1a3e b61c 0a3e 200a 83bc 8edf 353d
00000030: eca2 0e3d fd7f 3abe b7cf 9e3e c312 823e
00000040: b531 f93c 4e66 abbd 7dc2 5bbe d99d 00bd
00000050: 7491 153e 0f30 543d 6731 c23e b9b9 adbd
00000060: 672d ff3d 4fb7 743e e26c 30be 345f 1d3d
00000070: c66a 56be 0721 e2bc c5dc 4abb e693 5e3c
0.20402747 -0.018338457 0.21772131 0.32553664 -0.24567513 0.056567926 0.19263476 -0.22705908
0.15130122 0.13487515 -0.015996039 0.04440265 0.034823343 -0.18212886 0.3101785 0.2540494
0.03041921 -0.083691224 -0.2146091 -0.031400535 0.14606267 0.051803645 0.37928316 -0.084826894
0.12459832 0.23898052 -0.17229035 0.03842087 -0.20939168 -0.02760364 -0.0030954343 0.013585066

flows.0.t.0.4.weight f4 [64, 32]
00000000: 650e c43b 16f6 443d bfc5 653c 5bee b23d
00000010: 6e9b 8f3d 7a53 4fbd 6d68 18be b35b d3bd
00000020: 48ae 14bc 05c1 06be fcb4 61bd 6902 1f3b
00000030: 149a 5cbd 1d53 03bd 3bff d1bd c1d5 e03d
00000040: 45b8 99bd aad1 163d b5a2 31be 10d7 45bc
00000050: 22fe e8bc 9bf4 a33c cbfc e03c ac38 c43c
00000060: cd41 a13d 7b5f 16ba e80f 993d 2623 093e
00000070: 6f14 e1bc e423 75bd 08ed 013d 2873 e3bd
00000080: c740 953d fd50 13be f1b0 8cbd 144e d13d
00000090: aaec 21be 89b3 5dbc 84b1 acbd 6dd8 1a3e
000000a0: 9ae4 bc3d e710 82bb 768b 013e 0885 733d
000000b0: dbb3 c83d 2d92 913d e46f 193d 56a7 253e
000000c0: c649 7fbd 4c52 893e 2c84 7e3d de05 5b3d
000000d0: 94c6 37be b851 a5bd 1093 443e c3ea a6b9
000000e0: 5c89 24be 3a63 863e bc0f 26be dc8a 793e
000000f0: 024e a2bd ce55 803c d924 43be df78 e53c
00000100: 66a3 363d 3e92 abbd 37cb c7bd e7e7 323e
00000110: 4306 d0bd 6a80 653d 4641 a9bd 2960 d7bd
00000120: c406 ad3d ba02 92bd 62a0 07be 7809 de3d
00000130: a643 adbd 62d4 17be 311b f9bb 7544 803c
00000140: 8661 7cbc 27da 133d 57c0 bcbd bec0 073d
00000150: 8ddc 093d 5a1b c3bd ff33 76bd 82de f5bb
00000160: c6d2 82bd d170 383d 0c6e ae3d a43b 28be
00000170: 158a d73d 77d5 413e 8332 29bb a0cb e53d
00000180: f91e e93c 0623 a9bd c438 8bbe ce75 87be
00000190: c77a 733d 7547 aa3c 9028 e7bd cd9b 0dbe
000001a0: cd6f 78bd 30d1 2ebe b49f 19be a680 8abc
000001b0: a82d 8fbd 9329 f53d cb74 36be adc5 4b3d
000001c0: 7ccd 65be be0f 853d 9791 0e3d dd30 a93b
000001d0: dca6 82bd 880d 903c 405b ae3b f1f1 f3bd
000001e0: adb9 0c3d 3338 d0bd fe50 803e 9500 00be
000001f0: 450f 4abd 3ee0 8f3d c2e0 823d e0b5 293e
00000200: c4f7 173e 7e68 dbbd 9b38 403d bb0f 0cbe
00000210: e417 c93d d9d4 103e bdfa 4cbd ddc0 4cbe
00000220: f690 38bd 683d cabd 3f1f c43d 3dea 8d3c
00000230: d06f b43d 8ef8 5b3e 99d7 1d3c 1383 923c
00000240: d399 eb3d 7f42 833e 71b4 90bd a1fc 3a3e
00000250: a480 36bd 9672 1cbe 66d7 693d c9b7 883d
00000260: 87f6 f93c 3306 8a3d fd60 de3d 40fa 453d
00000270: 9c7d 253e 27e7 2abe baef 33be bead ed3d
00000280: 6b67 fe3c 5b4e 773b fa11 d5ba 4f07 cabc
00000290: 4ffc 843d cc71 293d 1a6b a63d 9b63 e1bd
000002a0: 6656 263c 5626 1ebc 8500 9bbd 92bb e2bc
000002b0: f655 84bc 572d 77be 57d4 0d3e 04da a5bd
000002c0: 4f7a 29bc 2865 bb3b 8485 323c fca3 633d
000002d0: dcae e93d 0362 e63c c0ac a23c 8620 ce3b
000002e0: 9793 91ba 662b 1dbd f962 05be 3e70 a33d
000002f0: 6acb 293b 3dd6 c3bb 7be8 9b3c b94a 093d
00000300: 5dfe eb3d 61f1 08bd 9050 2abe d278 a63d
00000310: e292 363d 597d 093e 6867 d8bd 5050 f23c
00000320: fbae 45bd 9131 da3d 6f81 fe3d 15c2 25be
00000330: 00de acbb 2f04 a03c 954b e3bc 361e 51bd
00000340: 2d24 343d 335e d6bd 7c40 ea3d 65bd 343e
00000350: c2bc 42bd ca7b 96bb 73d6 8c3d a31e 78bd
00000360: 199b 03bd c19a 093d 5e64 0a3e c881 433d
00000370: 7f08 6ebd e0d4 953d bfff ff3d 0ac5 113e
00000380: a6ff 44bd 5ba4 1bbd 27d2 133e 0bf8 513e
00000390: 4601 0dbe ffda 74be adfc 2e3e 4e12 3b3e
000003a0: 8a7e f9bd 86e1 3c3d 2f1b 523d 1ca4 d0bd
000003b0: 919a 28bc b9cb 583e 8305 07bb d678 e23d
000003c0: a843 94ba 8dda e13c 5c5b 1abe 0a02 8ebe
000003d0: 5b1b 03bd 21e8 893d f8e5 023e 0aef 543b
000003e0: 7232 153e 5eb7 a83c c521 3fbe 0d83 543c
000003f0: 1165 033c 9561 e3bd 914b a3be 4bf7 f1bc
0.0059831613 0.04808625 0.014024197 0.08736869 0.07012068 -0.05061672 -0.14883585 -0.103202246
-0.009074755 -0.13159569 -0.05510424 0.0024262911 -0.053857878 -0.032061685 -0.102537595 0.1097827
-0.0750585 0.036821045 -0.17347224 -0.012075201 -0.028441492 0.020014098 0.027464291 0.023952805
0.07873879 -0.00057362736 0.07473737 0.13392314 -0.027475564 -0.05984868 0.03172019 -0.11105949
0.07287746 -0.14386363 -0.068696864 0.1021997 -0.15812936 -0.013531574 -0.08432296 0.15121622
0.0922329 -0.0039693 0.12650856 0.05945304 0.0979993 0.07107959 0.037460223 0.16177115
-0.062326215 0.268206 0.062137768 0.053472392 -0.17946845 -0.08072227 0.19196725 -0.00031836898
-0.16068023 0.2624758 -0.1621694 0.24369377 -0.07925035 0.015665915 -0.19057025 0.028011737
0.044589423 -0.08377503 -0.09755557 0.17471276 -0.10157444 0.05603067 -0.08264403 -0.10516388
0.08448556 -0.07129426 -0.13244775 0.1084165 -0.084601685 -0.14827111 -0.0076021184 0.015657643
-0.015404111 0.03609672 -0.092163734 0.033142798 0.0336576 -0.09526701 -0.06010818 -0.0075033316
-0.06387858 0.045029465 0.085170835 -0.16429001 0.10524384 0.18929087 -0.002581746 0.11220479
0.028457152 -0.08258633 -0.27191746 -0.26457065 0.05944326 0.020786026 -0.112870336 -0.13828965
-0.060653497 -0.17071986 -0.15002328 -0.016907047 -0.0699113 0.1197082 -0.1781799 0.049749065
-0.22441667 0.06497143 0.034806814 0.0051632957 -0.06379482 0.017584577 0.0053209364 -0.11911381
0.03435676 -0.10166969 0.25061792 -0.12500222 -0.04933097 0.07025193 0.063905254 0.16573286
0.14840609 -0.1071329 0.046928983 -0.13677876 0.0981901 0.14143695 -0.05004381 -0.19995447
-0.04506012 -0.098749936 0.09576272 0.017323608 0.08810389 0.21481535 0.009633922 0.017884767
0.11503949 0.2563667 -0.070656665 0.18260433 -0.044556275 -0.15278086 0.057090186 0.06675679
0.030513061 0.06739464 0.10858343 0.04833436 0.16161197 -0.1668974 -0.17571917 0.11605404
0.031055173 0.0037735912 -0.0016255968 -0.024661688 0.064934365 0.04136829 0.08125897 -0.11005326
0.010152435 -0.009652695 -0.075684585 -0.027677331 -0.01615427 -0.2413839 0.13850532 -0.08098224
-0.010344102 0.005718846 0.01089609 0.05557631 0.11410305 0.028122908 0.019857764 0.006290498
-0.0011106607 -0.038371466 -0.13026036 0.07980393 0.0025908598 -0.005976467 0.019031754 0.033518527
0.11523125 -0.033433322 -0.16632295 0.081285134 0.044573672 0.13426723 -0.10566598 0.029579312
-0.048262578 0.10653985 0.12427031 -0.16187318 -0.005275488 0.019533245 -0.027746001 -0.051054202
0.043979812 -0.10467186 0.11438081 0.17650373 -0.047543295 -0.0045923935 0.068768404 -0.060576092
-0.032130335 0.03359485 0.1351485 0.04773119 -0.05811357 0.07315993 0.124999516 0.1423532
-0.048095368 -0.03799854 0.14435636 0.20504777 -0.13770017 -0.23911665 0.17088576 0.18268701
-0.121823385 0.046113513 0.051295456 -0.101875514 -0.010290758 0.21171464 -0.002060265 0.11058204
-0.0011311667 0.027570033 -0.15073913 -0.2773593 -0.03200851 0.06733728 0.12783039 0.0032491111
0.14570025 0.020595249 -0.18665226 0.012970698 0.008019702 -0.11102597 -0.3189359 -0.029536864

flows.0.t.0.4.bias f4 [64]
00000000: 6f83 a23d c12d 003f ebea 023f 0031 9dbd
00000010: 5ecb 6e3e 29ea 723e d622 a3bd b604 9d3e
00000020: 6230 d83e e3e7 a33d 066c 413e 3ad5 1bbd
00000030: f2a9 323e d81a 613e 8bcf c8bd 0f90 1cbe
00000040: e2d8 1a3e 34cf 563e 07f5 d7bd a530 96bd
00000050: cca7 fe3b 96f7 613d e885 25be 71ec bcbe
00000060: 05d8 153e a220 adbd 4160 1abe 1670 8b3d
00000070: 376c 9ebd 14c0 98bd bc89 fe3d 967c c13e
00000080: 00c7 1fbe e520 ae3b cab2 2dbe e34b 223e
00000090: f34b ce3d f9b0 27be c48a a33d 2933 dabd
000000a0: 85bd 8cbc a575 9c3d ee85 2e3e e818 c73d
000000b0: 5b4d 1a3e 24bc 513d 7f94 883d 96b3 d0bd
000000c0: c4db 8f3d 1679 5cbc 3240 d83d fe6e 9cba
000000d0: 5050 b3bd 7e6a 0c3e 2c8c b5bd d50d 893d
000000e0: 632a 30be c796 213e 19fa 303d 8af3 0e3d
000000f0: c20a 4f3d 2b0b d1bd aca4 9b3d f864 afbc
0.07935225 0.50069815 0.51139706 -0.07675362 0.23319766 0.23722138 -0.07965629 0.30667657
0.42224413 0.08003213 0.18888864 -0.038045146 0.17447641 0.21982896 -0.09805211 -0.15289329
0.15121797 0.20977479 -0.10544782 -0.07333497 0.007771468 0.055167757 -0.16164362 -0.3689914
0.14633186 -0.0845349 -0.1507578 0.06808488 -0.07735484 -0.07458511 0.124286145 0.37790364
-0.15603256 0.00531398 -0.16962734 0.15849261 0.1007308 -0.16376103 0.07985452 -0.10654289
-0.017180214 0.076396264 0.17043278 0.09721547 0.15068571 0.051204816 0.066689484 -0.10190503
0.07024339 -0.0134566035 0.10559119 -0.0011934934 -0.08755553 0.13712499 -0.08864626 0.066920914
-0.17203669 0.15780173 0.04320726 0.034900226 0.05054737 -0.10207208 0.07599768 -0.02141045

flows.0.t.1.0.weight f4 [32, 64]
00000000: 765e 083d 744e cf3c d1e9 9f3e 779e 4fbe
00000010: f486 9c3d 3577 76be 326d 833e 5892 a3bd
00000020: 062b 51bd 6a66 dd3d bcb9 adbe b055 883d
00000030: 962a e73d 2b55 923d 5995 123e f02c ebbd
00000040: 3420 f3bd 49cf d43c 9f78 103e 9ed1 583e
00000050: 981e 4bbd d244 97bd ff9e b53e d067 1fbe
00000060: 01e5 11bd a4c3 41bc f12d 86be 1b02 573e
00000070: 68cb b3bd b280 2b3c 6d47 f1bd 5e95 76bb
00000080: b4ad a5bd 380f ed3c 0075 a0ba e0d7 9cbd
00000090: 24c2 77bd 1065 a03d 008c 16bc 5035 913c
000000a0: 466a 993d 3076 dfbc ea2f 9abd 7a95 84bd
000000b0: d056 413d d84c 85bd 408b 68bb 5443 a3bd
000000c0: 4878 d73c d2a9 d63d 80aa 2d3c 689e 913c
000000d0: 18ed ac3c ce95 e73d 14da bfbd ac3d 1dbd
000000e0: 70e5 b93c 26da 8a3d 3463 4fbd 30ea 413d
000000f0: 905b 6e3d 1e4c e33d 4241 ca3d c079 a33d
00000100: e24f 8ebd a6d0 023e 6e83 25be ab04 393e
00000110: 2cd5 483c 0532 843e f6da 0dbe 0c24 6cbd
00000120: 9d59 04bd 1ceb 21be 4ff3 3f3e 3da6 683d
00000130: 0d3a 15ba 50c1 4dbd a061 15be c88b ed3c
00000140: 5e0b d2bd cca9 093d 084b c33d 74d6 3c3e
00000150: 5c1a 03be ee5e 3f3e 09d3 59be 9d49 313e
00000160: e354 83bd 1f2a 653e f0f3 f43d 2bfb 6ebe
00000170: 6312 dfbc 392f e73d 3a5d 2fbe b355 c9bd
00000180: 86ad edbd a4aa 7dbd c8a0 e1bd 2c46 5b3d
00000190: cea4 c33d 8612 afbd 0ad9 b33d a099 17bd
000001a0: f423 0bbd 4061 0bbb 2096 703d c05a c7bc
000001b0: 648c 4b3d 809c c23a 4052 ddbb 82dc 9d3d
000001c0: 5ad6 c7bd 24bc 69bd f0fd 2d3d 203c 8b3d
000001d0: fcf3 6abd 24d4 adbd 9c9f 0ebd 6caf f9bd
000001e0: b8cc cdbd 1a6e b73d bad3 ddbd ec37 8dbd
000001f0: 908b 8cbc 1e37 ef3d c052 e83d 5068 213c
00000200: e13d 43bd ac6e f73c a86f 3e3e dd8b 4a3d
00000210: 8998 d33d 0691 8fbe 0333 c23e 7f6a dcbd
00000220: 4f6e e5bd 36fe 873c 195c b6be 906b 8f3d
00000230: 2d76 a4bd 0c19 44bd 2c7e e63c 02cd 463e
00000240: 00e4 fbbd ee07 6cbd 5161 5b3e 1f54 9d3e
00000250: 6ec5 06bd 6992 b93c 62fc 3e3d d090 e7bc
00000260: ed66 71bd 83ad 783d 3827 013d 2259 bcbd
00000270: 4e41 42bd 127c 0ebd dc05 153e 61c4 e0bd
00000280: 94ae ee3d 84e3 453d 2cc7 3d3d d058 113c
00000290: 42b9 8e3d e002 9e3b 60ad c7bc e6b0 963d
000002a0: b824 a53c deca 9abd 801e a33b 80b3 4c3b
000002b0: 906f da3c 2863 8fbd b060 223c fadb fdbd
000002c0: 4832 333d bc00 1dbd c4d2 88bd a020 77bd
000002d0: 9a76 edbd 6659 c9bd 048e b9bd 0055 62ba
000002e0: d0cb 4f3d 5ae7 8f3d c890 c93c ba06 99bd
000002f0: 7c17 4cbd 1682 e4bd 88ec 373d e20a bcbd
00000300: 3a55 fa3c 4a4e 383d c8bc 5cbe eade 283c
00000310: 0efe 03be 98ee bbbc ba53 8f3d a321 95bc
00000320: f3f7 3cbd 7971 bdbd 4c4d 363e b148 39bc
00000330: dadf 15be 9150 1fbe 8a6c 23be 3e58 01be
00000340: d078 1dbe b5cc 1a3e d359 6c3e 884f 1bbe
00000350: d52f 0bbe aa34 823d 5cb5 babd 19e0 90bd
00000360: 30dd 1e3e d38f 87bd 338e 0d3e 1928 053f
00000370: 3b58 2cbd decf b3bd e9ad ec3c 1d8b 2cbd
00000380: 8e61 cfbd 8a15 9abd d483 a63d 4042 13bd
00000390: 7404 cf3d 3055 073d 34c8 9ebd c0f7 353d
000003a0: 40e6 c5bd 0400 bebd f039 38bc 9ce4 583d
000003b0: 8a64 b5bd 40e1 dfbc 8c17 773d 1066 483d
000003c0: ba51 c3bd d89a 8c3d 8cf1 59bd 14f3 093d
000003d0: c873 83bd e092 7f3d 400d 34bd fe1d ed3d
000003e0: 608c c1bc 384d dabd 228e 813d 68f7 bcbc
000003f0: 00d9 ebbc e09f f63c e241 a6bd 8ebe 89bd
0.03329321 0.025305964 0.31233075 -0.20275293 0.07642928 -0.24068911 0.25669247 -0.07986897
-0.05106642 0.108105496 -0.33930767 0.066569686 0.112874195 0.07145151 0.14314784 -0.114831805
-0.11871377 0.025977748 0.14108513 0.21173713 -0.049589723 -0.07386173 0.35472867 -0.15566945
-0.035618786 -0.0118264295 -0.26206926 0.20996897 -0.08779031 0.010467695 -0.117812015 -0.003762565
-0.08089772 0.02893792 -0.00122419 -0.076583624 -0.06048788 0.07831776 -0.009188652 0.017725617
0.07490973 -0.027278036 -0.0752867 -0.06473823 0.04720193 -0.065087974 -0.003548339 -0.07971826
0.026302472 0.104816094 0.010599732 0.01777573 0.021109149 0.1130787 -0.09367767 -0.038388893
0.022692412 0.0677989 -0.050631717 0.04734248 0.05819279 0.110985026 0.09875728 0.07982206
-0.0694883 0.12774906 -0.16163418 0.18068187 0.012257855 0.25819412 -0.13853058 -0.057651564
-0.032312024 -0.15812343 0.18745159 0.056799162 -0.0005692549 -0.050233185 -0.14588022 0.028997317
-0.10256074 0.033609197 0.095357955 0.18441182 -0.12803024 0.18688557 -0.2127191 0.17313237
-0.06412675 0.22379349 0.1196059 -0.23338 -0.027230447 0.11288304 -0.17125407 -0.09830799
-0.116053626 -0.061930314 -0.11016995 0.053533718 0.095529184 -0.08548455 0.08781631 -0.037011743
-0.033969834 -0.0021267682 0.05873692 -0.024335265 0.049694434 0.0014847666 -0.0067541897 0.07708074
-0.09757681 -0.05706419 0.0424785 0.06798577 -0.057361588 -0.08487728 -0.034820184 -0.12191662
-0.10048813 0.08956547 -0.10831399 -0.06895432 -0.017156392 0.11680435 0.11343908 0.00985153
-0.047666434 0.03020414 0.18597281 0.04944979 0.10331828 -0.28040332 0.37929544 -0.107625
-0.1120268 0.01660071 -0.3561714 0.07002938 -0.08030353 -0.04787545 0.028136335 0.19414142
-0.12299347 -0.05762475 0.21423842 0.30728242 -0.032903127 0.022652822 0.04662741 -0.028267294
-0.05893605 0.06071235 0.031531543 -0.09196688 -0.04742556 -0.03478629 0.14553016 -0.10974956
0.11654392 0.04831268 0.046332523 0.008871272 0.06968929 0.00482212 -0.024374664 0.073579594
0.02015911 -0.07558225 0.004978001 0.003123492 0.026664525 -0.070013344 0.009910747 -0.12395473
0.043749124 -0.03833078 -0.06680825 -0.060333848 -0.11594887 -0.098315045 -0.090602905 -0.0008633882
0.05073148 0.07026549 0.02460517 -0.07471986 -0.049827084 -0.111576244 0.04490331 -0.09181763
0.030558217 0.044996537 -0.2155639 0.010307053 -0.12889883 -0.022940919 0.069983914 -0.018204516
-0.0461349 -0.09250159 0.17802924 -0.011308835 -0.14636174 -0.15558077 -0.15959373 -0.12631318
-0.15378118 0.15117152 0.2308114 -0.15167058 -0.13592465 0.06357701 -0.09116623 -0.07073993
0.15514064 -0.06619229 0.13823776 0.5201431 -0.04207633 -0.08779882 0.02889152 -0.042124856
-0.10126029 -0.075236395 0.08130613 -0.035951853 0.10108271 0.033040226 -0.077530295 0.044425726
-0.09663057 -0.09277347 -0.011244282 0.052952394 -0.08857067 -0.027329087 0.06032519 0.04892546
-0.095370725 0.068654716 -0.053208873 0.033679083 -0.06418568 0.06239593 -0.04395795 0.11577986
-0.023626506 -0.106592596 0.06325938 -0.023067191 -0.028789997 0.030105531 -0.08118035 -0.067257985

flows.0.t.1.0.bias f4 [32]
00000000: b19e ad3e 9294 3abe 6f5b 803d 8554 eebd
00000010: c3c2 77bd c5b9 7b3d 3619 513e 8374 803e
00000020: 95d1 c93b b380 8a3e d2de 173e 6ae2 973e
00000030: e1fd 823e e239 a03e 5f39 0d3e 2c8d 743e
00000040: c478 973e 4bf1 9dbd c9cf 603e 032c 493e
00000050: 300b fabc 4e83 ecbb 1174 ccbc a77a 053d
00000060: 6612 bbbd 0d45 e83c 85dc 14be 6b18 553e
00000070: 108d 7f3e 5806 353d 8cec c73e 168c 2e3d
0.33910134 -0.18220738 0.062674396 -0.116372146 -0.060488474 0.06145646 0.20419773 0.2508889
0.0061590173 0.27051315 0.14831093 0.29664928 0.2558432 0.3129416 0.13791417 0.23881978
0.29584324 -0.077120386 0.21954264 0.19645695 -0.030522913 -0.007217801 -0.024957689 0.032587674
-0.091343686 0.028353238 -0.14537247 0.20810096 0.24956155 0.044195503 0.39047658 0.042614065

flows.0.t.1.2.weight f4 [32, 32]
00000000: 400b 223e d111 553c 2ed3 3f3d ea93 023e
00000010: a8a8 353c 517e 07be 9540 4d3d 7ee6 adbc
00000020: 849f 14be 51bb c33d 63b1 e8bd 185f 183e
00000030: 97c0 ab3d 6808 1fbe 2d04 babd 6b00 953d
00000040: d369 c4bb 2bba afbd a606 7bbc 4b4c 4fbc
00000050: a0a1 1bbe b9c7 4dbd 8d7f e2bc 97af d23d
00000060: a979 aebe 3201 043c 204a 11be 797f 9a3c
00000070: e1ac d0bd 111c 353e d2ae bbbd 1f24 6a3c
00000080: 0e9b 943d 1674 4fbe 030d 983c 4f2d c83c
00000090: bfdf 253e 9ef6 3d3e 99f2 833e 8a0f 283e
000000a0: d3f9 7d3e 00fb cb3d 6eac 56be 0059 6dbd
000000b0: 3829 753d b3d9 323d 615e 8dbd 0f6a e23d
000000c0: 011c a9bd 28c7 4a3e 05d0 343e 2ca1 64bd
000000d0: ed9e ba3d a4c0 263e 7601 b13e 2396 e43b
000000e0: 2843 1e3e ca9b adbd af95 dabd d9c9 f33c
000000f0: bfb7 ecbd dd21 e9bd 5e52 d8bd 17b9 06bd
00000100: db9c 24be 4199 2ebd 8344 3bbe 2df2 443e
00000110: 388c ed3d 2b25 62be 1d15 2cbe 0947 7ebd
00000120: 97eb a4bc e21c 0a3e 3e7b 663d 242e ee3c
00000130: 8ab5 cc3d b393 fbbd 9c81 803b 3ab8 ba3c
00000140: 9670 793d ed3c 29bd ac2d ff3c 59b4 883e
00000150: cdd3 c4be 37c1 bd3d c4f4 1fbe 1bf8 353e
00000160: 576a 97be e1af 793d a0fd 453d 7342 e93d
00000170: 3c90 043e d930 9dbe 0164 45be ea61 ed3d
00000180: 9f4b 383d 1307 cd3d a219 953c 9d53 23be
00000190: a6f8 083d 1d84 9b3c 229f 853d 40f4 ecbd
000001a0: 1051 40be c463 9b3d c6d4 943d 7131 383d
000001b0: b3a7 9cbd 2775 2bbd feb8 cebc 7039 12bd
000001c0: 1985 e43d 4945 32be 571c b63d 3e8e b63d
000001d0: c8e7 47be 45a2 45be 92b4 febd 024b 13bd
000001e0: e4d3 cc3d 3095 8b3c 1e67 973c 2f3f acbd
000001f0: 48d7 293e 5742 40be 45fe 83bb 039d b1bc
00000200: 5178 4abd 8cb9 9ebe 5cd1 abbd 5b7a 64be
00000210: 6558 41be b27c 273e b8ff 0ebc 6cde 0c3e
00000220: c452 95bd 7172 413e c4df 80bd a7ba 183d
00000230: fe09 9c3e 1d7f cc3d 2806 c33d 9ba7 383e
00000240: d569 cf3d 5203 2cbe 37a7 06be 446c 3c3e
00000250: 8a1e 673d 2480 acbd 70d6 52bc 0310 2dbd
00000260: 5ef3 30be 17bf d1bb ae33 2fbd dfbc 363c
00000270: b7f1 2b3e 93dd 133d 758d 053e 70b3 23bd
00000280: 10cc 9c3e f49a 46be 4388 083e 49cd 6cbe
00000290: 128b 85be 9c68 553d b71d 333e e099 dc3d
000002a0: 327e f0bd 0471 32bb f496 0c3e cf72 e13d
000002b0: e2ba f93b 0433 703e 25e1 a23c 9a5a 903d
000002c0: 27c5 8e3e 5958 b8bb 6857 683e 2c3d 76be
000002d0: f95b 0dbc 8279 21be 9851 0d3d bf05 35bd
000002e0: fd4f fd3d b609 0b3d 41a4 9abc d2c7 353e
000002f0: 9920 f53d cf83 2ebc c09e 853e 74d7 673e
00000300: 3ca7 ccbd a2ac 623e cb2e 9cbb 8bbe 0fbc
00000310: bafa edbd 04a0 61bd f6c2 6b3d 465c d73d
00000320: 2e8e d2bd d246 4a3e 164c 4d3d 163b 843d
00000330: fec2 c5bb 4ca3 673d 6987 dbbc 8c69 e93d
00000340: 8546 65bd 3bb7 2bbe 09c8 873d 88ed 333d
00000350: 2cfe 0eba ab2b b53d a391 2ebe 02eb 3a3d
00000360: 9da1 74bd 0edc 1f3e 591b 2f3d 4f20 57bd
00000370: 8f4f 123e b1bc 39be 526d 843d 0685 abbd
00000380: 7c71 5abe a18f 053e 190f 84bd 1a51 b93c
00000390: a7bd 923c 2235 813e 0722 55be e298 f1ba
000003a0: b734 3bbe 5f20 a1bd 126e dfbe b4fe 2eba
000003b0: be12 913e 5cf6 d93d 599e 073e 0d31 e8bc
000003c0: fe8d e73c 993a c0be 1caf afbd 9785 00be
000003d0: 9e78 c2bd 3ad4 15bd b49a 8c3c 77c8 6fbe
000003e0: 74a2 623a 5486 0abd 698d e63c f285 5bbd
000003f0: b5b9 3f3e 0a9d d4bd 45cf b73d c679 083c
0.15824604 0.013004736 0.046832256 0.12751737 0.011087574 -0.1323178 0.05011042 -0.021228071
-0.14513975 0.09557212 -0.11361959 0.14880025 0.08386343 -0.1553055 -0.09082828 0.0727547
-0.0059940605 -0.085804306 -0.015321409 -0.012652467 -0.15198374 -0.0502393 -0.027648712 0.10287397
-0.34077194 0.008056926 -0.14188433 0.018859612 -0.10189224 0.17686488 -0.09164204 0.0142908385
0.07256137 -0.20259127 0.018560892 0.024435667 0.16198634 0.18551108 0.25771025 0.16412178
0.24802332 0.09959984 -0.20964214 -0.057946205 0.059853762 0.043664645 -0.06902767 0.11055385
-0.082572944 0.19802535 0.17657478 -0.055817768 0.09112344 0.16284424 0.34571427 0.0069759055
0.15455306 -0.0847698 -0.10673081 0.029759334 -0.11558484 -0.11383412 -0.10562585 -0.03289136
-0.1607546 -0.042626623 -0.18287854 0.19233008 0.1159901 -0.22084491 -0.16804929 -0.062079463
-0.02013187 0.1348758 0.056269877 0.029074736 0.09995563 -0.12284031 0.0039217006 0.022792924
0.060898386 -0.04131787 0.031149708 0.26700094 -0.3844284 0.092653684 -0.15620714 0.17770426
-0.29573318 0.060958747 0.04833758 0.11389627 0.12945646 -0.3070133 -0.1927643 0.11590941
0.044993993 0.10011115 0.0182007 -0.15949865 0.033440255 0.018983895 0.06524493 -0.115700245
-0.18780923 0.07587388 0.07267146 0.044969026 -0.076491736 -0.041859772 -0.025234696 -0.035699308
0.11158199 -0.17409243 0.08892124 0.08913849 -0.19522011 -0.19300182 -0.12436785 -0.035960205
0.100013524 0.017038912 0.018481787 -0.08410489 0.1658603 -0.18775307 -0.004028114 -0.021681314
-0.04943115 -0.31000936 -0.083895415 -0.223123 -0.18881376 0.16356161 -0.00872796 0.13756722
-0.07291177 0.18891312 -0.0629268 0.03728738 0.30476373 0.099851824 0.095226586 0.18032686
0.10127608 -0.16798142 -0.13149725 0.18400675 0.05642561 -0.084228784 -0.012868509 -0.042251598
-0.17280337 -0.0064009535 -0.042773895 0.011153429 0.16791426 0.03609998 0.13042243 -0.039966047
0.30624437 -0.19395047 0.1333323 -0.23125185 -0.26082665 0.052101716 0.17491804 0.10771537
-0.1174282 -0.0027228007 0.13729459 0.11008226 0.007621155 0.23456961 0.019882748 0.07048531
0.2788479 -0.0056257662 0.22689593 -0.24046773 -0.008627885 -0.15769008 0.034501642 -0.044194933
0.12368772 0.033944808 -0.01887715 0.17752007 0.11969108 -0.010651543 0.2609768 0.22640783
-0.09992835 0.22136167 -0.0047663203 -0.008773456 -0.11620088 -0.055084243 0.057558976 0.10515647
-0.10281025 0.19753578 0.05012139 0.06456582 -0.006035208 0.056552216 -0.026797967 0.113970846
-0.055975456 -0.16769116 0.066299506 0.0439277 -0.00054547447 0.0884622 -0.17047743 0.045634277
-0.05972444 0.15611288 0.04275069 -0.052521046 0.14288162 -0.18138386 0.06466164 -0.083749816
-0.21332353 0.13043071 -0.06448192 0.02262168 0.017912699 0.2523585 -0.20813762 -0.0018432403
-0.18281828 -0.078675024 -0.43638664 -0.0006675527 0.28334612 0.106426924 0.13243999 -0.028343702
0.02826595 -0.37544706 -0.08578321 -0.1255096 -0.09495662 -0.03657935 0.017163612 -0.23416315
0.0008645423 -0.03381951 0.028143601 -0.053594537 0.18723185 -0.10381515 0.089750804 0.008329814

flows.0.t.1.2.bias f4 [32]
00000000: b676 933e 9fc4 58bd 674e 00be def3 d33d
00000010: 4b03 553e d55e c83e ee60 833d 3bf3 a53d
00000020: 4c87 2a3e 279d 023e 1456 3b3d 0bf8 e63c
00000030: 02b0 03be 4d64 fc3d 1d97 673e 51d0 983e
00000040: d3f2 bcbe dbb4 643e 2942 e83c 31ba c93c
00000050: d648 30be 14f6 bc3c a48c c53e d995 3a3e
00000060: 4354 013e e129 9b3e 754e 8dbd d8d1 c5bd
00000070: 660e 77bd a77c 66be 662e 063e ce89 0bbe
0.28801507 -0.052921887 -0.12529908 0.10349248 0.20802037 0.3913485 0.06414972 0.08103033
0.16653174 0.12755261 0.045736387 0.028194448 -0.1286011 0.12323818 0.22616239 0.29846433
-0.3690401 0.22334616 0.02835186 0.024624916 -0.17215285 0.023066558 0.38583863 0.18221225
0.126298 0.3030539 -0.0689973 -0.09659165 -0.060316466 -0.22508489 0.13103637 -0.13626787

flows.0.t.1.4.weight f4 [64, 32]
00000000: f852 dabd 6859 023e 4926 b0bd fa6a b43b
00000010: 7869 33be d7c0 c03d f311 15be 1149 15bd
00000020: 7b78 26be afd2 dd3d 2b76 8abd 29c7 dbbd
00000030: d7bd c93c ca28 57bb 4678 ca3d bad1 2bbe
00000040: 0611 16be 23e1 973d b234 23be e292 19be
00000050: d61d 233d ac7a cc3c 237b e5bc 15e6 90bd
00000060: d6ff 2a3e 8286 eb3c e2f1 2e3e 91c5 643d
00000070: 32ca 4dbd 0d47 c0bd 8291 8b3d 707b bd3d
00000080: e6d1 d73d 43d8 adbd 70ee 083e b35e 003d
00000090: cde8 1d3e d1b5 2d3e 3cb7 1ebe d955 0bbe
000000a0: 9132 fbbd 3d80 eabd 1587 efbd 0051 293e
000000b0: 0cb5 273c 2b2d d2bb 050a f43d 0fbe 223e
000000c0: 6822 24bc fedf 8e3d 3eb0 7dbd 1d56 bbbd
000000d0: 9412 b4bd 7000 2c3e 1f1b 163d 3a95 1dbe
000000e0: c06d 603d b7ce 18bd 7f7d de3c cdb4 2e3e
000000f0: b922 11be d197 5d3c d839 efbd 26cd b33d
00000100: a078 293c 6531 083e 6b1c a23d dd59 1dbe
00000110: 0492 a9bd 12b2 803d 6711 24be a4d5 0d3e
00000120: 8708 16be 568e 313e 850b 92bd 46fd 103d
00000130: 18c2 cb3d 33ac 02be dc7f 233e a9d5 6b3c
00000140: b427 b6bd b797 a7bd 24be 2bbe 00a5 5f3d
00000150: 8a3c 8ebd 0458 143e e0cd 313c 7ced 06be
00000160: 1292 7f3d c209 613c d3d1 8fbd 601e 9b3d
00000170: e266 b13d 6f54 cabd d902 9c3d 0eb6 873c
00000180: 6576 683d b730 37bd b97a 183d 2653 87bc
00000190: 7288 81bd e69f 8ebd a1b5 11be c0ba 40bd
000001a0: 711a 043e e912 21be 1ea6 583d fc53 25bd
000001b0: 8b44 c83d bb13 573d 075a 233c 76d1 ed3d
000001c0: 8ece 25be b6e6 8a3d baa7 b73d d8eb 28be
000001d0: b502 23be d1f6 00bc 2628 81bd cd21 1bbe
000001e0: 3c37 083c 9b42 233d dd48 443d 79d3 97bd
000001f0: e3bd ba3d 67c4 183e 49a2 86bd 61ce ebbd
00000200: 293e 13be 6e3c dcbd 80cf 1f3e 99d9 6abd
00000210: 13a1 d3bd aa2d 23be 7be8 943c c349 c1bd
00000220: 9b5e d7bd 5fea d93d 404b b13d bdab 913d
00000230: faf3 1f3e 3c50 333e 0d4b 313e d6f0 b33d
00000240: 3877 f33c 0f36 9c3d 8a2b 90bd 9ed9 1bbc
00000250: 16b2 c93d 9666 a0bd 9f16 d6bd d60c 703d
00000260: 9448 223d fdcc 1dbe 4e91 c53d 8f55 353a
00000270: cb54 6abd a729 35bd 1f3a f93d 3ec8 f2bd
00000280: 1e6f a63d 7a07 6abd 80df 07be 1779 ec3d
00000290: 9aa9 de3c 13b1 093d e427 1ebe 8e34 323e
000002a0: 5256 ff3c ee56 633d 2b80 903d 71c0 a9bd
000002b0: 1148 173e 96b8 963d 7cd9 8abd 3664 333e
000002c0: 78b4 633a 3bda 303e 2453 aa3d b402 813c
000002d0: 5d5d 8c3d 8afa 24be 00e4 5abc 4e67 033e
000002e0: bb39 91bc c481 fa3c 2d06 763c c83f 0b3e
000002f0: f5e1 993d 8dcc 07bc 0f72 25bd e247 74bd
00000300: 7b76 ff3d d4ee 6f3c 1d0c 33be e040 073e
00000310: e1f2 0c3e d91a e33b faa2 063e ef51 1c3d
00000320: 4188 8abd 62df 0b3e 9f15 0ebe 2e9b d43d
00000330: 8614 bebc 0ac3 26be 8b16 0f3e 2a63 1b3e
00000340: 1c97 33be 613d a1bd 23a5 493d 3cfe 1abc
00000350: 2d2f 5bbd 4c4b 01be d9e4 09bd f476 d6bd
00000360: bcf7 1dbe b00f 0b3e 7742 4fbb 144d c5bc
00000370: bda2 9dbd 2271 9abd 81c1 8dbd 75d3 09bd
00000380: 11ad bf3d 46f3 0e3e 3407 b9bd 1920 e3bd
00000390: 15d6 e4bd d080 e6bd ae66 a9bd c336 de3d
000003a0: 5f6b 973d 3f50 8bbd eaa0 b0bd 4e2b 88bc
000003b0: 2d95 8dbd 0f4a 27be 4499 5f3c 0213 083e
000003c0: 97eb 80bd fc69 cdbd f3f3 2b3e 3cc9 253e
000003d0: 0d5b 8bbd 3df7 cbbd eafc 2f3e 7be9 283d
000003e0: 1c26 3b3d b470 28be b7f7 cfbd 7bcd 09be
000003f0: 8f70 283e d44b 9b3d 2bc6 d4bd ace0 333d
-0.10660356 0.12729418 -0.08601052 0.0055059167 -0.17520702 0.09411781 -0.14557628 -0.036446635
-0.16256897 0.108312 -0.0676082 -0.10731346 0.024626656 -0.0032830709 0.098862216 -0.16779223
-0.14654931 0.07415988 -0.1593807 -0.14997438 0.039823376 0.024960838 -0.028012818 -0.07075135
0.16699156 0.028750662 0.17084458 0.055852477 -0.050241657 -0.09388552 0.06814863 0.092520595
0.10538082 -0.08488514 0.13372207 0.031340312 0.15420838 0.16963889 -0.15499586 -0.13606967
-0.12265504 -0.11450241 -0.11695687 0.16534805 0.010236036 -0.006414076 0.119159736 0.15892814
-0.010017969 0.06976317 -0.061935656 -0.09147284 -0.08792606 0.16797042 0.03664696 -0.15388957
0.054792166 -0.037306514 0.02715945 0.17061158 -0.14173402 0.013524965 -0.11680955 0.08779363
0.010343701 0.13300093 0.079155765 -0.15366311 -0.082798034 0.06283964 -0.16022263 0.13851029
-0.1465169 0.17339453 -0.071311034 0.03539779 0.0994913 -0.12761001 0.15966743 0.014394202
-0.088942915 -0.08183234 -0.16771752 0.054600716 -0.06945141 0.144867 0.010852307 -0.1317653
0.062395163 0.013735237 -0.07022443 0.07574153 0.086622015 -0.09879386 0.07617731 0.016566303
0.056753535 -0.044724192 0.037226412 -0.01651914 -0.06324853 -0.06964092 -0.14229442 -0.0470531
0.12900712 -0.1572987 0.052892797 -0.040363297 0.097786985 0.05250905 0.009970195 0.11612217
-0.16192076 0.06782286 0.08967538 -0.16496217 -0.15919001 -0.007871346 -0.06306486 -0.15149613
0.00831395 0.03985844 0.04792105 -0.07413382 0.09118249 0.14918672 -0.06573922 -0.11513973
-0.14379181 -0.107537135 0.15606499 -0.057336424 -0.10333457 -0.15935388 0.018177262 -0.09437897
-0.105160914 0.10640406 0.08656931 0.071128346 0.15620413 0.17511076 0.17313786 0.0878617
0.029719934 0.07627498 -0.070395544 -0.009512333 0.0984842 -0.07832067 -0.104535334 0.05860599
0.039619997 -0.15410228 0.09646855 0.0006917351 -0.05720977 -0.044229176 0.12169289 -0.118545994
0.08126663 -0.057136036 -0.13268852 0.115465336 0.027180482 0.033616137 -0.15444905 0.1740286
0.03116909 0.055502824 0.07055696 -0.082886584 0.14773585 0.07359426 -0.06779763 0.17518696
0.0008686255 0.17270748 0.08316639 0.01574836 0.06853745 -0.16111198 -0.0133600235 0.12832376
-0.017727723 0.030579455 0.015016121 0.1359855 0.07513801 -0.008288515 -0.040391978 -0.059638865
0.1247377 0.014644343 -0.1748509 0.13208342 0.13764526 0.0069306907 0.13148108 0.038164075
-0.067642696 0.13659433 -0.13875435 0.10381161 -0.023203146 -0.16285339 0.13973443 0.15174547
-0.17538112 -0.07873035 0.049229752 -0.009460028 -0.053511787 -0.1262638 -0.03366551 -0.10471907
-0.15426534 0.13580203 -0.003162531 -0.024084605 -0.076970555 -0.075411096 -0.069216736 -0.033648927
0.09359182 0.13959989 -0.09034577 -0.110901065 -0.111736454 -0.11255038 -0.08271538 0.10850289
0.07393526 -0.06802415 -0.08624442 -0.016622212 -0.06913219 -0.16336845 0.013647381 0.13288501
-0.06294935 -0.100299805 0.16792278 0.16190046 -0.06804476 -0.09959266 0.17186323 0.04123829
0.04569064 -0.16449243 -0.1015467 -0.13457291 0.16449188 0.075828224 -0.1038936 0.043915436

flows.0.t.1.4.bias f4 [64]
00000000: 042f 99bd 91c1 223e 2bee 92bd e758 083e
00000010: 192e 043e 2d64 763d 51af 07bd 2d8c 193e
00000020: 54ac 543d cf13 c63d 6619 163d ebb7 c93c
00000030: 09f2 88bd cc68 8d3d b6aa 80bd d19e a33d
00000040: b755 0b3d bc67 233e be18 693b b187 07be
00000050: 3a1a 31bd 56d6 cfbc 0db1 cabd 827c 27be
00000060: 9434 e63c b903 9e3d d87f 0dbe 94c1 833d
00000070: e093 b53c 5877 143e 9347 4e3d 7e6d 293e
00000080: de2d 923e 0ee5 3a3e 82fa 24be 97cd 1a3e
00000090: 3b57 9d3e 729a a93d 8a86 21bc eec5 3bba
000000a0: d0c9 7b3d 64b4 5d3d 9dd1 82bb 1196 6abd
000000b0: 0f38 773d b1c0 653e d39d 25be cc9c 0fbd
000000c0: fff2 3b3e f33f ca3e 41f6 1bbe bbcd 1fbe
000000d0: a41d 923e 9cf2 0f3d e7ef 9d3d df5b cd3d
000000e0: 82be 943e fd00 143d 0753 74bd 7da9 173e
000000f0: b30f 843d 81d9 803e 3a75 bdbd af39 72bd
-0.07479671 0.15894152 -0.07174333 0.13315164 0.1290821 0.06015413 -0.03312618 0.14994879
0.051922157 0.09671747 0.036645316 0.024623832 -0.066867895 0.06904754 -0.062825605 0.07989276
0.03401729 0.1595754 0.0035567726 -0.13235356 -0.043237902 -0.025370758 -0.09897051 -0.1635609
0.028101243 0.07715554 -0.138183 0.064334065 0.022165239 0.14498651 0.050361227 0.16545674
0.2855062 0.1825144 -0.16111186 0.15117489 0.30730614 0.08281411 -0.009858737 -0.00071629777
0.06147176 0.054127112 -0.003992273 -0.05727202 0.060356196 0.22436787 -0.16173486 -0.035061643
0.18354414 0.39501914 -0.15230657 -0.15605824 0.2853824 0.03514348 0.07711773 0.10027289
0.29051596 0.036133755 -0.059649494 0.14810748 0.06448307 0.25165942 -0.09250875 -0.059137043
