code_for_Boids/Data/model_16birds_2groups_2path_kde_noise_03_800000_4.pkl (torch, 548793 bytes, 196 tensors)

flows.0.mask f4 [6, 64]
0	0x00000000	0.0
1	0x00000000	0.0
2	0x00000000	0.0
3	0x00000000	0.0
4	0x00000000	0.0
5	0x00000000	0.0
6	0x00000000	0.0
7	0x00000000	0.0
8	0x00000000	0.0
9	0x00000000	0.0
10	0x00000000	0.0
11	0x00000000	0.0
12	0x00000000	0.0
13	0x00000000	0.0
14	0x00000000	0.0
15	0x00000000	0.0
16	0x00000000	0.0
17	0x00000000	0.0
18	0x00000000	0.0
19	0x00000000	0.0
20	0x00000000	0.0
21	0x00000000	0.0
22	0x00000000	0.0
23	0x00000000	0.0
24	0x00000000	0.0
25	0x00000000	0.0
26	0x00000000	0.0
27	0x00000000	0.0
28	0x00000000	0.0
29	0x00000000	0.0
30	0x00000000	0.0
31	0x00000000	0.0
32	0x3f800000	1.0
33	0x3f800000	1.0
34	0x3f800000	1.0
35	0x3f800000	1.0
36	0x3f800000	1.0
37	0x3f800000	1.0
38	0x3f800000	1.0
39	0x3f800000	1.0
40	0x3f800000	1.0
41	0x3f800000	1.0
42	0x3f800000	1.0
43	0x3f800000	1.0
44	0x3f800000	1.0
45	0x3f800000	1.0
46	0x3f800000	1.0
47	0x3f800000	1.0
48	0x3f800000	1.0
49	0x3f800000	1.0
50	0x3f800000	1.0
51	0x3f800000	1.0
52	0x3f800000	1.0
53	0x3f800000	1.0
54	0x3f800000	1.0
55	0x3f800000	1.0
56	0x3f800000	1.0
57	0x3f800000	1.0
58	0x3f800000	1.0
59	0x3f800000	1.0
60	0x3f800000	1.0
61	0x3f800000	1.0
62	0x3f800000	1.0
63	0x3f800000	1.0
64	0x3f800000	1.0
65	0x3f800000	1.0
66	0x3f800000	1.0
67	0x3f800000	1.0
68	0x3f800000	1.0
69	0x3f800000	1.0
70	0x3f800000	1.0
71	0x3f800000	1.0
72	0x3f800000	1.0
73	0x3f800000	1.0
74	0x3f800000	1.0
75	0x3f800000	1.0
76	0x3f800000	1.0
77	0x3f800000	1.0
78	0x3f800000	1.0
79	0x3f800000	1.0
80	0x3f800000	1.0
81	0x3f800000	1.0
82	0x3f800000	1.0
83	0x3f800000	1.0
84	0x3f800000	1.0
85	0x3f800000	1.0
86	0x3f800000	1.0
87	0x3f800000	1.0
88	0x3f800000	1.0
89	0x3f800000	1.0
90	0x3f800000	1.0
91	0x3f800000	1.0
92	0x3f800000	1.0
93	0x3f800000	1.0
94	0x3f800000	1.0
95	0x3f800000	1.0
96	0x00000000	0.0
97	0x00000000	0.0
98	0x00000000	0.0
99	0x00000000	0.0
100	0x00000000	0.0
101	0x00000000	0.0
102	0x00000000	0.0
103	0x00000000	0.0
104	0x00000000	0.0
105	0x00000000	0.0
106	0x00000000	0.0
107	0x00000000	0.0
108	0x00000000	0.0
109	0x00000000	0.0
110	0x00000000	0.0
111	0x00000000	0.0
112	0x00000000	0.0
113	0x00000000	0.0
114	0x00000000	0.0
115	0x00000000	0.0
116	0x00000000	0.0
117	0x00000000	0.0
118	0x00000000	0.0
119	0x00000000	0.0
120	0x00000000	0.0
121	0x00000000	0.0
122	0x00000000	0.0
123	0x00000000	0.0
124	0x00000000	0.0
125	0x00000000	0.0
126	0x00000000	0.0
127	0x00000000	0.0
128	0x00000000	0.0
129	0x00000000	0.0
130	0x00000000	0.0
131	0x00000000	0.0
132	0x00000000	0.0
133	0x00000000	0.0
134	0x00000000	0.0
135	0x00000000	0.0
136	0x00000000	0.0
137	0x00000000	0.0
138	0x00000000	0.0
139	0x00000000	0.0
140	0x00000000	0.0
141	0x00000000	0.0
142	0x00000000	0.0
143	0x00000000	0.0
144	0x00000000	0.0
145	0x00000000	0.0
146	0x00000000	0.0
147	0x00000000	0.0
148	0x00000000	0.0
149	0x00000000	0.0
150	0x00000000	0.0
151	0x00000000	0.0
152	0x00000000	0.0
153	0x00000000	0.0
154	0x00000000	0.0
155	0x00000000	0.0
156	0x00000000	0.0
157	0x00000000	0.0
158	0x00000000	0.0
159	0x00000000	0.0
160	0x3f800000	1.0
161	0x3f800000	1.0
162	0x3f800000	1.0
163	0x3f800000	1.0
164	0x3f800000	1.0
165	0x3f800000	1.0
166	0x3f800000	1.0
167	0x3f800000	1.0
168	0x3f800000	1.0
169	0x3f800000	1.0
170	0x3f800000	1.0
171	0x3f800000	1.0
172	0x3f800000	1.0
173	0x3f800000	1.0
174	0x3f800000	1.0
175	0x3f800000	1.0
176	0x3f800000	1.0
177	0x3f800000	1.0
178	0x3f800000	1.0
179	0x3f800000	1.0
180	0x3f800000	1.0
181	0x3f800000	1.0
182	0x3f800000	1.0
183	0x3f800000	1.0
184	0x3f800000	1.0
185	0x3f800000	1.0
186	0x3f800000	1.0
187	0x3f800000	1.0
188	0x3f800000	1.0
189	0x3f800000	1.0
190	0x3f800000	1.0
191	0x3f800000	1.0
192	0x3f800000	1.0
193	0x3f800000	1.0
194	0x3f800000	1.0
195	0x3f800000	1.0
196	0x3f800000	1.0
197	0x3f800000	1.0
198	0x3f800000	1.0
199	0x3f800000	1.0
200	0x3f800000	1.0
201	0x3f800000	1.0
202	0x3f800000	1.0
203	0x3f800000	1.0
204	0x3f800000	1.0
205	0x3f800000	1.0
206	0x3f800000	1.0
207	0x3f800000	1.0
208	0x3f800000	1.0
209	0x3f800000	1.0
210	0x3f800000	1.0
211	0x3f800000	1.0
212	0x3f800000	1.0
213	0x3f800000	1.0
214	0x3f800000	1.0
215	0x3f800000	1.0
216	0x3f800000	1.0
217	0x3f800000	1.0
218	0x3f800000	1.0
219	0x3f800000	1.0
220	0x3f800000	1.0
221	0x3f800000	1.0
222	0x3f800000	1.0
223	0x3f800000	1.0
224	0x00000000	0.0
225	0x00000000	0.0
226	0x00000000	0.0
227	0x00000000	0.0
228	0x00000000	0.0
229	0x00000000	0.0
230	0x00000000	0.0
231	0x00000000	0.0
232	0x00000000	0.0
233	0x00000000	0.0
234	0x00000000	0.0
235	0x00000000	0.0
236	0x00000000	0.0
237	0x00000000	0.0
238	0x00000000	0.0
239	0x00000000	0.0
240	0x00000000	0.0
241	0x00000000	0.0
242	0x00000000	0.0
243	0x00000000	0.0
244	0x00000000	0.0
245	0x00000000	0.0
246	0x00000000	0.0
247	0x00000000	0.0
248	0x00000000	0.0
249	0x00000000	0.0
250	0x00000000	0.0
251	0x00000000	0.0
252	0x00000000	0.0
253	0x00000000	0.0
254	0x00000000	0.0
255	0x00000000	0.0

flows.0.t.0.0.weight f4 [32, 64]
0	0xbdcea7ce	-0.100906
1	0x3d79f1b8	0.061021537
2	0xbdf29960	-0.1184566
3	0x3dc71a8e	0.09721862
4	0x3c9e6960	0.019337356
5	0xbc0e3530	-0.008679673
6	0x3d8f91e0	0.07010245
7	0x3c810328	0.015748575
8	0xbcc63d70	-0.024199218
9	0x3b204640	0.0024455935
10	0x3d123c44	0.035702005
11	0xbd925aa0	-0.071461916
12	0x3dbde8f6	0.092729494
13	0x3d5c4624	0.05377783
14	0xbc96ad70	-0.018393248
15	0xbce56750	-0.028003365
16	0xbda9e2ba	-0.08295198
17	0x3ce645c8	0.028109446
18	0x3c13f4a0	0.009030491
19	0xbb9fbfc0	-0.0048751533
20	0xbd9e26cc	-0.07722244
21	0x3d84f9b8	0.064929426
22	0xbd45c924	-0.048287526
23	0xbdc4a198	-0.09601134
24	0x3d3745ac	0.04474418
25	0xbded252e	-0.11579357
26	0xbdec8e9e	-0.115506396
27	0x3ddf0cf8	0.108911455
28	0xbd8a8592	-0.06763758
29	0xbdd5361a	-0.1041071
30	0xbdff19a6	-0.12456064
31	0x3d3a4030	0.04547137
32	0x3d2f13eb	0.042743605
33	0x3d8c9482	0.06864263
34	0xbe7ec139	-0.24878396
35	0x3e7d14e7	0.24715005
36	0xbc64f21b	-0.013973738
37	0x3daee0cb	0.085389696
38	0x3d3bbee3	0.04583634
39	0xbbd70213	-0.0065615266
40	0xbcfb6953	-0.030689871
41	0xbc887023	-0.016655033
42	0x3de60aa5	0.11232499
43	0xbca65672	-0.020304892
44	0xbd8b1ee5	-0.06793002
45	0xbc9324e5	-0.017961929
46	0x3d83b619	0.06431217
47	0x3e155bdb	0.14585821
48	0xbc5ff2ce	-0.013668729
49	0x3d9d1048	0.07669121
50	0xbd4fce74	-0.050734
51	0xbd070237	-0.032961097
52	0x3cfb63bb	0.030687204
53	0xbd9bf2af	-0.076146476
54	0x3d43532e	0.04768675
55	0x3e721cf1	0.23643853
56	0xbb4b3581	-0.0031007233
57	0xbca5c98a	-0.020237703
58	0xbd20eb67	-0.039286997
59	0xbe00eaaf	-0.12589525
60	0xbdd4499a	-0.10365601
61	0x3d9fe4c7	0.07807308
62	0xbd64bdb5	-0.05584498
63	0x3d404fd9	0.04695115
64	0xbd2d3998	-0.042291254
65	0xbd4e9b3c	-0.05044101
66	0xbc46d3b0	-0.012135431
67	0x3a670300	0.0008812398
68	0xbde65134	-0.11245957
69	0xbd5f5c08	-0.054531127
70	0x3d76b7c0	0.06023383
71	0xbd4f2a54	-0.050577477
72	0xbcf531a0	-0.02993089
73	0xbd2ad89c	-0.04171048
74	0xbccb0438	-0.024782285
75	0x3d8f8c76	0.07009213
76	0xbdd77a8c	-0.10521421
77	0xbdac4d76	-0.08413212
78	0xbd8d7a9c	-0.069081515
79	0xbd12975c	-0.03578888
80	0xbd15fec0	-0.0366199
81	0xbc83a6d0	-0.016070753
82	0x3dbcc4ea	0.09217246
83	0xbdca7866	-0.098862454
84	0xbdfda238	-0.123844564
85	0x3dca848a	0.09888561
86	0xbda8cc6e	-0.08242117
87	0xbdd8cc9a	-0.105859
88	0xbdd1f27c	-0.10251328
89	0x3d0a7cec	0.03381054
90	0x3dc1501a	0.09439106
91	0xbdbfee9a	-0.093716815
92	0x3bc59220	0.0060293823
93	0xbce7e1e8	-0.028305963
94	0x3cc68220	0.02423197
95	0x3d268a28	0.0406591
96	0xbc52c82f	-0.01286511
97	0xbbe70498	-0.007050108
98	0xbe63ce2b	-0.22246616
99	0xbe78f162	-0.2431083
100	0x3a3c68df	0.0007187258
101	0xbc842bdd	-0.016134197
102	0x3d3ddbea	0.046352305
103	0xbf0a4a95	-0.54020053
104	0xbcd01ff9	-0.02540587
105	0x3d1e3c21	0.038631562
106	0xbf07fc93	-0.5311977
107	0x3dce811e	0.10083221
108	0x3d8fee49	0.07027871
109	0xbccec1fe	-0.025238987
110	0x3e1c3f86	0.15258607
111	0xbe0e0699	-0.13869704
112	0x3cc90ab8	0.024541244
113	0xbd870eb3	-0.065946005
114	0xbd8d917a	-0.06912513
115	0xbe5ac882	-0.2136555
116	0x3d0c66f3	0.034277868
117	0x3cbfed3c	0.023428552
118	0xbf706bbc	-0.9391439
119	0xbdacf5e2	-0.08445336
120	0xbc951c79	-0.018202053
121	0x3ba01dc8	0.0048863627
122	0xbe64d1c7	-0.22345649
123	0x3bfdb764	0.007742809
124	0x3d5231a2	0.051316865
125	0x3ca561e6	0.020188283
126	0xbd1cc784	-0.03827621
127	0xbe88f76d	-0.2675127
128	0xbd581594	-0.052754954
129	0x3da750de	0.08169721
130	0x3c99e018	0.018783614
131	0x3d8c98ea	0.068651035
132	0x3b989f00	0.004657626
133	0xbd9a48bc	-0.07533404
134	0x3da3f6c6	0.08006053
135	0x3df14d0a	0.11782272
136	0xbc9a2950	-0.018818527
137	0xba916700	-0.0011093318
138	0xbd0901e4	-0.03344907
139	0x3ce0fd18	0.027464435
140	0xbdbfa9be	-0.09358548
141	0x3d4abd10	0.04949671
142	0x3dbef9ba	0.09324975
143	0x3d995a9a	0.07487984
144	0xbd8fc6fa	-0.07020374
145	0xbd877e90	-0.06615937
146	0xbcc91cd0	-0.024549872
147	0x3cce8450	0.025209576
148	0x3dbbd43e	0.09171341
149	0xbd8326d0	-0.06403887
150	0x3dfdbd56	0.123896286
151	0xbd592df0	-0.053022325
152	0xbdff29e2	-0.124591604
153	0x3d7d2fd4	0.06181319
154	0xbd4b4e3c	-0.049635157
155	0xbb5fc400	-0.0034143925
156	0xbd60e180	-0.054902554
157	0xbdc4223a	-0.09576841
158	0x3c1ae490	0.009453908
159	0x3dcec038	0.100952566
160	0xbd4fbd2d	-0.05071752
161	0x3cae540f	0.021280317
162	0x3d7b5e83	0.06136943
163	0xbe28613b	-0.1644334
164	0xbdd8d774	-0.105879694
165	0x3d8a2a0a	0.067462996
166	0x3bd8783e	0.006606131
167	0x3cbcd7dd	0.02305215
168	0x3c94ab16	0.018147986
169	0xbd2b4fdf	-0.041824218
170	0x3de848c0	0.11342001
171	0xbe8960ab	-0.26831564
172	0xbdf15be0	-0.11785102
173	0xbd26b9ae	-0.04070442
174	0xbc05f327	-0.008175648
175	0xbc7a6e12	-0.015285032
176	0xbda56a42	-0.08076908
177	0xbe33489b	-0.17508166
178	0x3e900329	0.2812741
179	0x3e623695	0.22091134
180	0xbdf309c2	-0.118670955
181	0x3cf11af6	0.029431801
182	0x3d9aff72	0.075682536
183	0x3cd0e402	0.025499348
184	0xbe1bce7d	-0.15215488
185	0x3e2e04b6	0.16993985
186	0x3e3831ca	0.17987743
187	0x3e2c295a	0.1681265
188	0x3a208235	0.0006122918
189	0x3db27ec0	0.08715582
190	0x3dcdd562	0.10050465
191	0xbdf12237	-0.11774104
192	0xbab42600	-0.0013744235
193	0x3d7efbc4	0.06225182
194	0x3d4b9314	0.04970081
195	0x3d784720	0.060614705
196	0xbdabd892	-0.08390917
197	0xbd817136	-0.063204214
198	0xbd5adc68	-0.053432852
199	0x3d7af9a0	0.061273217
200	0x3c4b4f10	0.012408987
201	0xbdb74d8a	-0.08950336
202	0x3dc55154	0.09634653
203	0x3cb16630	0.021655172
204	0xbdbd970c	-0.092573255
205	0xbda444be	-0.08020924
206	0xbd133f1c	-0.035948858
207	0xbdf7987c	-0.12089631
208	0xbd207320	-0.03917229
209	0xbd91ab08	-0.071127
210	0xbdeb7fbc	-0.11498973
211	0xbc86e218	-0.016465232
212	0x3d33b1d4	0.043870762
213	0xbd885d9e	-0.06658481
214	0x3d3ea998	0.046548456
215	0x3de2d8c8	0.11076504
216	0x3dfe9dac	0.12432417
217	0x3c3f7f10	0.011688009
218	0xbd6ca260	-0.05777204
219	0x3cba9918	0.022778079
220	0x3d52005c	0.051269874
221	0x3d84a7fe	0.064773545
222	0xbdcb05ac	-0.09913191
223	0x3db2dd02	0.0873356
224	0xbce78c1e	-0.028265055
225	0xbd431227	-0.047624733
226	0x3d8f7fda	0.070068076
227	0x3e300007	0.1718751
228	0x3cebd562	0.028788272
229	0x3cb2356d	0.021753991
230	0x3df81d5e	0.12114976
231	0x3dc354b9	0.09537644
232	0x3c75173c	0.014959153
233	0xbd2d4ef0	-0.04231161
234	0x3e0483b4	0.12940866
235	0x3ea0d6d7	0.3141391
236	0x3d6d19f4	0.05788608
237	0x3d3837ec	0.044975206
238	0xbe734c85	-0.23759659
239	0x3e169b7b	0.14707749
240	0x3dbf7860	0.093491316
241	0x3d8afb37	0.06786197
242	0xbe3085a5	-0.17238481
243	0xbd83cec4	-0.06435922
244	0x3d00b25d	0.0314201
245	0x3db725cc	0.08942756
246	0x3d9e379b	0.0772545
247	0x3e8c2b61	0.27376845
248	0xbc07bb43	-0.008284393
249	0xbbee390a	-0.007269983
250	0xbe56f605	-0.20992287
251	0xbcfa04a1	-0.030519785
252	0xbe2e6b99	-0.17033233
253	0x3d2e9c62	0.042629607
254	0x3dba4e6b	0.09096988
255	0x3e38f262	0.18061212

flows.0.t.0.0.bias f4 [32]
0	0x3eadc256	0.3393733
1	0xbde1919d	-0.11014102
2	0xbe40ad1d	-0.18816037
3	0x3e6a7fd1	0.2290032
4	0xbea234e5	-0.3168098
5	0xbd5c2536	-0.053746425
6	0x3d9e472f	0.07728421
7	0x3d91b477	0.07114499
8	0x3c746319	0.014916205
9	0x3e1ef63e	0.15523621
10	0x3dfc608f	0.123231046
11	0x3ea33226	0.31874198
12	0x3cb46f40	0.022025704
13	0xbddb87b1	-0.107192405
14	0x3b6287bb	0.0034565765
15	0xbddf7eee	-0.10912882
16	0x3e0c67be	0.1371145
17	0x3d53c090	0.051697314
18	0x3dcdfc28	0.100578606
19	0xbd9dbcdd	-0.077020384
20	0x3dddedc2	0.10836364
21	0xbe24a903	-0.16080098
22	0xbda24715	-0.07923714
23	0xbca39c2b	-0.019971928
24	0x3df23e0a	0.11828239
25	0xbe1d3bbb	-0.15354817
26	0xbe6bf2b4	-0.23041803
27	0x3da0554e	0.078287706
28	0xbe02e702	-0.12783435
29	0x3d166d9e	0.036725633
30	0x3dcaff03	0.09911921
31	0xbb63c531	-0.0034754986

flows.0.t.0.2.weight f4 [32, 32]
0	0xbded5ab4	-0.11589566
1	0xbe4e8d0e	-0.20170996
2	0x3c557b87	0.0130299395
3	0x3dd82035	0.10553018
4	0xbe725daa	-0.23668543
5	0x3da5bb7b	0.080924
6	0x3e1852f6	0.14875397
7	0xbcfe78fd	-0.031063551
8	0xbe3de423	-0.18544059
9	0xbe4b1c9b	-0.19835131
10	0x3d421e36	0.047392093
11	0xbd8c908d	-0.068635084
12	0x3d36344b	0.044483464
13	0xbd3710c8	-0.04469374
14	0xbcf84c79	-0.030309903
15	0x3e191b08	0.14951718
16	0x3db5883f	0.088638775
17	0x3cdba233	0.026810741
18	0x3c2bc506	0.010483986
19	0x3cdb11ec	0.026741944
20	0xbce883bc	-0.028383128
21	0xbdb37470	-0.08762443
22	0x3c857bed	0.016294444
23	0xbf0a09f9	-0.5392147
24	0x3defe0cd	0.11712799
25	0xbd761485	-0.060078163
26	0x3dd397c1	0.10331679
27	0x3e6418b1	0.22275044
28	0xbd53d81f	-0.05171978
29	0x3d243d29	0.04009739
30	0xbe319af4	-0.17344266
31	0x3e6f7ece	0.23388216
32	0x3e05a24d	0.13050194
33	0xbc220fbf	-0.0098914495
34	0x3d7ef79d	0.06224786
35	0xbd079234	-0.033098415
36	0x3cb27c45	0.021787772
37	0xbd97c62d	-0.07410846
38	0x3d6ca675	0.057775933
39	0xbd92585e	-0.07145761
40	0xbd8b5a35	-0.06804315
41	0x3df14855	0.11781374
42	0xbce38c87	-0.02777697
43	0x3d81d97b	0.06340309
44	0xbdeb66f9	-0.1149425
45	0x3d9ab595	0.07554165
46	0x3d56fe0e	0.05248838
47	0xbe08d966	-0.13364181
48	0x3e258d92	0.16167286
49	0x3a43db1e	0.00074713107
50	0xbe34c25c	-0.17652267
51	0x3e34d3e4	0.17658955
52	0x3d544a3b	0.051828604
53	0xbc576cfa	-0.013148541
54	0x3e299bd0	0.16563344
55	0x3cccf575	0.025019387
56	0x3d3c5cf6	0.045987092
57	0xbdb580ba	-0.08862443
58	0x3de40405	0.11133579
59	0xbd0589f8	-0.03260228
60	0x3da13e12	0.07873167
61	0xbc467532	-0.0121129025
62	0xbb39aaf9	-0.0028330667
63	0x3d927676	0.07151501
64	0xbdc02b50	-0.09383261
65	0x3b5ae8eb	0.003340299
66	0xbc34c126	-0.011032378
67	0x3e138657	0.14406715
68	0xbd2fa597	-0.04288253
69	0x3e2dfaea	0.16990247
70	0xbd6eb5ed	-0.058278967
71	0x3cc3acc0	0.023886085
72	0xbde47e5a	-0.11156912
73	0x3e33a6fb	0.17544167
74	0x3e380511	0.17970683
75	0xbc3631a5	-0.011120235
76	0x3e310402	0.17286685
77	0xbbafaa4a	-0.005360876
78	0xbd5762bb	-0.05258439
79	0x3c97f643	0.018550044
80	0x3dfbc357	0.122931175
81	0xbe20bae6	-0.15696296
82	0x3da03a0f	0.07823574
83	0xbd9851ae	-0.07437454
84	0x3d3c915d	0.046037067
85	0xbdc73808	-0.09727484
86	0x3d114ae9	0.03547183
87	0xbdb0ccb2	-0.086327925
88	0xbc958085	-0.01824976
89	0xbe4bd973	-0.19907169
90	0xbdc9e1f6	-0.09857552
91	0x3e275469	0.16340794
92	0xbd4ce9a5	-0.05002751
93	0x3dee2389	0.116278715
94	0xbd660c35	-0.056163985
95	0xbe28d9e7	-0.16489373
96	0xbdcfab8d	-0.101401426
97	0x3dc0cbe6	0.094138905
98	0xbe05f81a	-0.13082924
99	0xbd1eacdd	-0.038739074
100	0x3d75cb7b	0.060008507
101	0xbc64de5f	-0.013969033
102	0xbdd99200	-0.106235504
103	0x3e39d370	0.18147063
104	0x3e05432a	0.13013902
105	0xbe07184a	-0.1319286
106	0x3e5b537c	0.21418566
107	0x3e31fde6	0.17382011
108	0x3e3f3d08	0.18675625
109	0xbcc5fb34	-0.024167635
110	0xba1ac83c	-0.0005904471
111	0x3e0fb76a	0.1403481
112	0x3dae30e7	0.08505421
113	0x3d4a337c	0.049365506
114	0x3df4fc24	0.119621545
115	0x3e449ce9	0.19200481
116	0x3d49c0c9	0.04925612
117	0x3dc6e554	0.097117096
118	0x3bc8add2	0.0061242366
119	0x3ca9cfcf	0.020728974
120	0xbdaddc8e	-0.08489333
121	0x3dbfe7ec	0.093704075
122	0xbd26c7a2	-0.04071773
123	0xbd311244	-0.04323031
124	0x3c948982	0.018131975
125	0x3e085164	0.13312298
126	0x3d286854	0.04111512
127	0xbe74bcc6	-0.23900136
128	0xbcd2d37d	-0.025735611
129	0xbdef6a7f	-0.116902344
130	0xbe5a12cb	-0.21296231
131	0x3df401c0	0.11914396
132	0xbf160f9a	-0.58617556
133	0xbce73488	-0.028223291
134	0xbda6da38	-0.08147091
135	0xbe2c4322	-0.16822484
136	0xbe566f71	-0.20940949
137	0x3ded635d	0.11591218
138	0x3d60a107	0.054841068
139	0x3cefc0e9	0.029266791
140	0xbc5a93f1	-0.013340936
141	0x3e08601d	0.13317914
142	0x3d06decb	0.032927316
143	0xbe313d22	-0.17308477
144	0x3e0a6e50	0.13518643
145	0x3e766a86	0.24064073
146	0xbe0fe5fa	-0.14052573
147	0xbe283898	-0.16427839
148	0xbd2965af	-0.04135674
149	0xbd121b53	-0.03567059
150	0xbc52c596	-0.012864491
151	0x3e2c3c31	0.16819836
152	0xbe69ee2d	-0.22844763
153	0xbbef5c7b	-0.0073047257
154	0xbe761089	-0.24029745
155	0xbe0320c1	-0.12805463
156	0x3dff0edc	0.12454006
157	0xbe07ced4	-0.13262492
158	0xbe25333d	-0.16132827
159	0x3e1f650f	0.15565895
160	0xbe17bf17	-0.14818989
161	0xbed4a36b	-0.41530928
162	0x3e2dbf82	0.16967586
163	0xbe3ab8b1	-0.18234517
164	0x3f55fd2b	0.8358943
165	0x3d33f5b6	0.0439355
166	0x3cfe878c	0.031070493
167	0x3e30cafc	0.17264932
168	0xbe6fa560	-0.2340293
169	0xbe0fc499	-0.1403984
170	0x3cea9543	0.028635627
171	0xbd67037e	-0.056399815
172	0xbe730003	-0.23730473
173	0xbd241463	-0.040058505
174	0x3e09de26	0.13463649
175	0xbe248cea	-0.1606938
176	0xbdfec3eb	-0.12439712
177	0x3e5fcaa0	0.21854639
178	0xbe2193db	-0.15779059
179	0xbc08f1d7	-0.00835844
180	0xbdea97f2	-0.114547625
181	0xbe530268	-0.20606387
182	0xbdd4b55f	-0.10386156
183	0xbe132799	-0.14370574
184	0xbc99094e	-0.018681195
185	0xbb1ecc12	-0.0024230522
186	0x3e414beb	0.18876617
187	0x3dd52810	0.10408032
188	0xbd80b727	-0.062849335
189	0xbb8f3844	-0.004370721
190	0x3dd83481	0.10556889
191	0xbc05ee6d	-0.008174521
192	0x3d1d7d39	0.0384495
193	0xbd9edf42	-0.07757427
194	0xbd92e825	-0.07173184
195	0xbd8b2604	-0.0679436
196	0x3d8b811a	0.068117335
197	0x3cdff14f	0.027336745
198	0x3e2a51d8	0.16632783
199	0xbda51fa3	-0.08062675
200	0xbd8cc294	-0.0687305
201	0x3db52e83	0.08846762
202	0x3d22375a	0.03960357
203	0x3c9438cd	0.018093491
204	0xbd8825df	-0.06647848
205	0xbdde56f8	-0.10856432
206	0x3e06aeb7	0.13152586
207	0x3d98c541	0.07459498
208	0x3d9755c4	0.07389405
209	0x3e129b33	0.14317016
210	0xbcd344fa	-0.025789727
211	0xbc87e876	-0.016590338
212	0x3cf44cc6	0.029821765
213	0xbdaa3cea	-0.083124
214	0x3d1418b9	0.03615639
215	0x3d73a9e2	0.059488185
216	0x3dd94a6f	0.106099
217	0xbded1176	-0.11575596
218	0x3d13eefd	0.03611659
219	0xbd2e6b9f	-0.042583104
220	0xbdbfb6e6	-0.09361057
221	0x3da3c71e	0.07996963
222	0x3de07fff	0.10961913
223	0xbe16098b	-0.14652078
224	0xbd89515f	-0.067049734
225	0x3e6f2bac	0.23356503
226	0xbde0d5a5	-0.109782495
227	0xbd9743af	-0.073859565
228	0x3db39557	0.08768719
229	0x3cc9c235	0.024628738
230	0x3d4c2a16	0.049844824
231	0x3da267b5	0.07929937
232	0x3cdc1b62	0.026868526
233	0xbe8d6cee	-0.2762217
234	0xbc5e3f45	-0.013564889
235	0xbe6937e4	-0.22775227
236	0x3dc1499e	0.094378695
237	0xbd81dd6a	-0.063410595
238	0x3db5d778	0.08878988
239	0x3e2ae112	0.1668742
240	0xbd5fad2f	-0.05460852
241	0xbc94d297	-0.018166823
242	0x3d1adeeb	0.037810247
243	0xbd25231a	-0.04031668
244	0x3ea24b35	0.31698003
245	0xbdb41d5a	-0.08794661
246	0x3e403db7	0.18773542
247	0xbddd129e	-0.107945666
248	0xbbab663d	-0.0052306936
249	0x3dcf3044	0.10116628
250	0x3e741cd4	0.23839122
251	0x3e111aa5	0.1417032
252	0xbd192894	-0.037392214
253	0xbe01df46	-0.12682828
254	0xbe1d497f	-0.15360068
255	0xbcc19614	-0.023631133

flows.0.t.0.2.bias f4 [32]
0	0x3e18aad6	0.14908919
1	0xbb44087e	-0.0029912288
2	0x3e7d883b	0.24758999
3	0x3e84a9b6	0.2591073
4	0xbddafd77	-0.10692876
5	0xbd24718f	-0.04014736
6	0x3e3a77c8	0.18209755
7	0xbe8a920b	-0.27064547
8	0x3e7785f7	0.24172197
9	0x3dce5b0a	0.10075958
10	0xbe18e9f6	-0.14932999
11	0x3e470e4b	0.19439046
12	0xba9382ed	-0.0011254229
13	0xbe7c6b87	-0.24650393
14	0x3eb4993e	0.35273165
15	0x3e9f600b	0.31127962
16	0xbc402d00	-0.011729479
17	0xbe5b522f	-0.2141807
18	0xbe8b8473	-0.27249488
19	0x3e0ce446	0.13758954
20	0x3db5a602	0.08869554
21	0xbeaad88e	-0.33368343
22	0x3e8e32cb	0.27773127
23	0xbcfe3ebb	-0.031035772
24	0xbc599cfa	-0.013282055
25	0x3e06a5ac	0.13149136
26	0xbe12141b	-0.14265482
27	0x3d940220	0.07226968
28	0xbe05758b	-0.1303312
29	0xbe50ac04	-0.20378119
30	0x3d19cafc	0.037547097
31	0xbca0ed05	-0.01964427

flows.0.t.0.4.weight f4 [64, 32]
0	0xbd1c601f	-0.038177606
1	0x3dff7591	0.12473596
2	0xbd5b4818	-0.05353555
3	0x3e34f97e	0.17673299
4	0xbdb1d495	-0.08683125
5	0xbd4222ca	-0.04739646
6	0x3dc50062	0.09619214
7	0xbc8d71fc	-0.017266266
8	0xbd4234da	-0.047413684
9	0x3ca78f9c	0.02045422
10	0xbd91138c	-0.070838064
11	0x3dc81e0c	0.09771356
12	0xbef626d8	-0.4807651
13	0x3d082176	0.033235036
14	0x3d042aec	0.032267496
15	0x3dce2647	0.100658946
16	0x3d153299	0.036425207
17	0xbe615f3d	-0.22008987
18	0xbee37fa4	-0.4443332
19	0xbe327336	-0.17426762
20	0x3d9d4d22	0.076807275
21	0x3d5e2a53	0.054239582
22	0x3ce492f2	0.0279021
23	0x3d30c014	0.04315193
24	0xbce28db4	-0.02765546
25	0x3e551cee	0.20811817
26	0xbe1c8612	-0.15285519
27	0x3db11b79	0.08647818
28	0x3e282cc1	0.16423322
29	0xbee2e8ba	-0.4431818
30	0x3c247fa9	0.010040202
31	0xbded70ad	-0.11593757
32	0x3e133427	0.14375363
33	0xbdb4232e	-0.087957725
34	0xbe024df7	-0.12725054
35	0x3e03a49a	0.1285576
36	0xbe8b9d91	-0.2726865
37	0x3e4831e5	0.19550283
38	0x3da41bda	0.08013125
39	0xbc19ec32	-0.009394692
40	0x3ecb0c90	0.39658022
41	0xb9dd7310	-0.00042238133
42	0xbe0f4d71	-0.13994385
43	0x3e3b2ccb	0.18278806
44	0xbe9fc6a9	-0.31206253
45	0x3cadd379	0.021219002
46	0x3e195673	0.14974384
47	0xbb17a6b6	-0.002314014
48	0x3b37cfe0	0.0028047487
49	0x3d5142d6	0.05108913
50	0xbe2788a1	-0.16360714
51	0x3d6ec417	0.058292475
52	0x3dc1e47c	0.09467408
53	0xbc6414aa	-0.013920942
54	0x3e85debe	0.261465
55	0x3cccd450	0.025003582
56	0xbc0a32cb	-0.008434962
57	0x3eb9f361	0.36318496
58	0x3cfbacd2	0.030722056
59	0x3e4c1f95	0.19933923
60	0xbe31443e	-0.17311189
61	0xbc7544a2	-0.014969977
62	0x3df6a626	0.12043409
63	0xbc8764ad	-0.016527498
64	0xbc32533b	-0.0108841015
65	0xbd9210e1	-0.07132126
66	0xbd85e2bf	-0.06537389
67	0x3e7a56c5	0.24447162
68	0xbdcb2fa7	-0.09921198
69	0x3d789be7	0.060695555
70	0xbd413a57	-0.047174778
71	0xbd126760	-0.035743117
72	0x3e126abd	0.1429853
73	0x3d0641a2	0.032777436
74	0xbd7492c3	-0.059710275
75	0x3d5d9427	0.054096367
76	0x3e193343	0.14960961
77	0x3c1a5549	0.009419748
78	0xbd1e0159	-0.038575504
79	0x3cc983dd	0.02459901
80	0x3db76af0	0.089559436
81	0xbe77cf33	-0.24200134
82	0xba4e2964	-0.0007864444
83	0x3da83a8d	0.08214293
84	0x3d80ff8a	0.0629874
85	0x3d83615d	0.06415055
86	0xbd82c686	-0.063855216
87	0xbc6e85d2	-0.014558272
88	0xbd800089	-0.06250102
89	0xbc212488	-0.00983537
90	0x3e226b62	0.15861276
91	0xbd679e45	-0.056547422
92	0x3d44b567	0.04802456
93	0x3e267731	0.16256405
94	0x3e22e1c0	0.1590643
95	0x3e07cce1	0.13261749
96	0xbd4910db	-0.04908834
97	0xbe62af66	-0.22137222
98	0xbe833453	-0.25625858
99	0xbebd585f	-0.36981484
100	0x3dc27b90	0.09496224
101	0x3e1734ec	0.14766282
102	0xbdd3034c	-0.10303363
103	0xbd3ad307	-0.045611408
104	0xbd3f3bee	-0.046688013
105	0xbe48dd56	-0.19615683
106	0xbde3c13f	-0.11120843
107	0xbdb26ca2	-0.08712126
108	0x3e7c3eb6	0.24633297
109	0x3c9f6323	0.019456452
110	0xbe449a94	-0.19199592
111	0xbe049a1a	-0.1294941
112	0xbe8a9144	-0.27063954
113	0x3e208b91	0.1567824
114	0x3e6a2da2	0.2286897
115	0xbce9a750	-0.028522164
116	0xbdb22a26	-0.086994454
117	0xbd8d1de1	-0.068904646
118	0xbd488336	-0.048953258
119	0xbea259f4	-0.31709254
120	0x3db6689a	0.0890667
121	0xbe238b8b	-0.159712
122	0x3e9423f1	0.2893367
123	0xbe23298a	-0.15933815
124	0xbe3f1813	-0.18661527
125	0x3ea571ad	0.3231329
126	0x3de6ebb4	0.112754256
127	0x3e8db41f	0.27676484
128	0x3d994e63	0.07485654
129	0xbe279e24	-0.1636892
130	0xbd8b0947	-0.06788879
131	0xbdc6a75b	-0.09699889
132	0xbe399a9a	-0.18125382
133	0x3e91efe9	0.2850335
134	0x3d2e4818	0.042549223
135	0xbe4b78df	-0.19870327
136	0x3e5fd0a2	0.21856931
137	0xbe838c17	-0.25692818
138	0xbe1311f7	-0.14362322
139	0x3e388100	0.1801796
140	0xbec95f5a	-0.3933056
141	0x3e2afd92	0.16698292
142	0x3e59b4eb	0.21260421
143	0x3d51bf26	0.051207684
144	0x3e086761	0.13320686
145	0x3e47290c	0.19449252
146	0xbe99c910	-0.3003621
147	0xbec8d774	-0.39226878
148	0x3d9ebc8b	0.077508055
149	0xbb9babf9	-0.0047507253
150	0x3d1cc623	0.038274895
151	0xbe1a7d3a	-0.15086833
152	0x3d39627f	0.04525995
153	0x3e4cc7e3	0.19998126
154	0xbe5e4215	-0.21704896
155	0xbb2ad3f5	-0.0026066278
156	0x3ebea7e4	0.37237465
157	0xbe5b461b	-0.21413462
158	0xbe13578f	-0.1438887
159	0x3bd8a415	0.006611357
160	0x3d9a2280	0.075261116
161	0x3e6b43cc	0.22975081
162	0x3e2c4955	0.16824849
163	0x3d925e00	0.07146835
164	0xbddee047	-0.10882621
165	0x3ca1684d	0.019703055
166	0x3f05d9c9	0.5228544
167	0xbf014430	-0.5049467
168	0x3e8e7f38	0.27831435
169	0x3e212509	0.15736784
170	0x3e8bdd33	0.273172
171	0x3e8bb84a	0.2728904
172	0xbe8641a4	-0.26221955
173	0x3cc8c148	0.024506226
174	0x3f0096a9	0.5022989
175	0xbd0b223b	-0.03396819
176	0x3e227bb7	0.15867506
177	0xbe8f0c9d	-0.2793931
178	0xbdb511de	-0.088412985
179	0x3e69f7a1	0.22848369
180	0x3ed1dc12	0.40988213
181	0xbdc3262a	-0.095287636
182	0x3d3e7261	0.0464958
183	0xbdd81fe8	-0.10552961
184	0xbd61f54c	-0.055165574
185	0x3df928bc	0.121659726
186	0xbe7350a5	-0.23761232
187	0x3ee3fb1f	0.44527528
188	0xbe18c2fd	-0.14918132
189	0xbe65d932	-0.22446135
190	0x3d66a515	0.05630978
191	0xbca67d62	-0.020323459
192	0x3ca11132	0.01966152
193	0xbc8e1f04	-0.017348774
194	0xbdd6c48a	-0.104867056
195	0x3da62432	0.081123725
196	0xbca0cca8	-0.019628838
197	0x3e421557	0.18953453
198	0xbe4db581	-0.2008877
199	0x3d6e9d96	0.058255754
200	0xbe5eaac0	-0.21744823
201	0x3e315e3b	0.17321102
202	0x3e6b19db	0.22959082
203	0xbe3c8016	-0.18408236
204	0x3dda5cbe	0.106622204
205	0xbe05d377	-0.13068949
206	0x3c346e14	0.011012573
207	0xbdd34b62	-0.103171125
208	0xbcb50d7f	-0.022101162
209	0xbe2a7a08	-0.16648114
210	0xbd86e93d	-0.065874554
211	0x3eb8ffc1	0.36132625
212	0xbd85bc5b	-0.065300666
213	0xbd4a3c13	-0.049373697
214	0x3da99dee	0.08282076
215	0xbe04b6cf	-0.12960361
216	0xbdd40df8	-0.10354227
217	0x3dc5f3a6	0.09665613
218	0x3e465784	0.19369322
219	0x3dbaeb12	0.09126867
220	0xbe80c7a7	-0.25152323
221	0x3e278d1e	0.16362426
222	0x3e57401e	0.21020553
223	0x3e519819	0.20468177
224	0xbdd3259a	-0.10309906
225	0xbdef1fdb	-0.11675998
226	0x3c031d9a	0.008002663
227	0x3e4c6b89	0.19962896
228	0xbe4a2beb	-0.19743316
229	0xbe73639d	-0.23768468
230	0x3dc0327f	0.09384631
231	0x3dcb3f4d	0.09924183
232	0x3d7c9ac0	0.06167102
233	0xbdd4e0f8	-0.10394472
234	0x3e1baafd	0.15201946
235	0x3d3b44e1	0.045719985
236	0xbdd3e9a4	-0.10347298
237	0x3dde2bc3	0.10848191
238	0xbdf5e0fd	-0.12005804
239	0xbd3ac8d8	-0.045601696
240	0x3d6829d6	0.056680523
241	0xbdc2cd1a	-0.09511776
242	0xbd79913d	-0.060929526
243	0xbe6eeeac	-0.23333234
244	0xbdc86a62	-0.09785916
245	0x3c2bce40	0.010486186
246	0x3e42ed67	0.19035874
247	0x3cbe5ce5	0.023237655
248	0x3e2e8528	0.17042983
249	0xba966435	-0.0011473956
250	0xbd0b8b35	-0.034068305
251	0xbdc72dfb	-0.09725567
252	0x3d531286	0.051531337
253	0x3d9bd1f6	0.07608406
254	0xbdbf38e8	-0.09337026
255	0x3a931cfd	0.0011223849

flows.0.t.0.4.bias f4 [64]
0	0x3e053b56	0.13010916
1	0x3ebccdea	0.3687585
2	0x3ebd703a	0.36999685
3	0xbe2b2aab	-0.16715495
4	0x3e959f3b	0.29223046
5	0x3eac2450	0.33621454
6	0xbe01eccd	-0.12687989
7	0xbbfa18f0	-0.0076323673
8	0x3e5506b4	0.20803338
9	0x3bc57184	0.006025495
10	0x3e28e089	0.16491903
11	0xbdd49788	-0.10380465
12	0x3df4268b	0.11921414
13	0x3e868fdd	0.26281634
14	0xbe22d264	-0.1590057
15	0xbe758030	-0.23974681
16	0x3de4826f	0.11157691
17	0x3da9a072	0.08282556
18	0xbe914ab1	-0.28377298
19	0xbea37723	-0.31926832
20	0xbcd21217	-0.025643392
21	0x3d99c6c2	0.07508613
22	0xbe0e9632	-0.13924482
23	0xbe5f6182	-0.2181454
24	0x3de9f7f2	0.11424245
25	0xbd025beb	-0.03182594
26	0xbe6da976	-0.23209175
27	0xbe333aa5	-0.1750284
28	0xbce899b5	-0.028393606
29	0x3d8f6583	0.07001784
30	0xbd097f94	-0.033568934
31	0x3e1688f5	0.14700682
32	0xbe1fc700	-0.15603256
33	0x3bae20e5	0.00531398
34	0xbe2db2ca	-0.16962734
35	0x3e224be3	0.15849261
36	0x3dce4bf3	0.1007308
37	0xbe27b0f9	-0.16376103
38	0x3da38ac4	0.07985452
39	0xbdda3329	-0.10654289
40	0xbc8cbd85	-0.017180214
41	0x3d9c75a5	0.076396264
42	0x3e2e85ee	0.17043278
43	0x3dc718e8	0.09721547
44	0x3e1a4d5b	0.15068571
45	0x3d51bc24	0.051204816
46	0x3d88947f	0.066689484
47	0xbdd0b396	-0.10190503
48	0x3d8fdbc4	0.07024339
49	0xbc5c7916	-0.0134566035
50	0x3dd84032	0.10559119
51	0xba9c6efe	-0.0011934934
52	0xbdb35050	-0.08755553
53	0x3e0c6a7e	0.13712499
54	0xbdb58c2c	-0.08864626
55	0x3d890dd5	0.066920914
56	0xbe302a63	-0.17203669
57	0x3e2196c7	0.15780173
58	0x3d30fa19	0.04320726
59	0x3d0ef38a	0.034900226
60	0x3d4f0ac2	0.05054737
61	0xbdd10b2b	-0.10207208
62	0x3d9ba4ac	0.07599768
63	0xbcaf64f8	-0.02141045

flows.0.t.1.0.weight f4 [32, 64]
0	0x3c3b22cd	0.011421871
1	0xbb9ef9d7	-0.0048515606
2	0x3e56d261	0.2097869
3	0xbe37e7ec	-0.17959565
4	0x3d3cb75c	0.046073303
5	0x3e10d40c	0.1414339
6	0x3ec75bdb	0.38937268
7	0x3d6b1dc6	0.05740144
8	0xbd58d2f5	-0.05293556
9	0x3d2b8c87	0.041882064
10	0x3dde01f6	0.10840218
11	0x3c24b2ad	0.010052365
12	0x3d7162b4	0.05893202
13	0x3d96a3a5	0.073554315
14	0xbeca5e3f	-0.3952503
15	0xbdc393fa	-0.09549709
16	0xbdbd25b8	-0.0923571
17	0xbae798cc	-0.0017669438
18	0xbc291209	-0.010319241
19	0x3d97d9a8	0.074145615
20	0xbdb4de27	-0.08831435
21	0xbe319a9e	-0.17344138
22	0xbdbded48	-0.092737734
23	0xbe02d0cd	-0.12774964
24	0x3cf806e7	0.030276729
25	0xbe3dd5bb	-0.18538563
26	0xbe31a4a0	-0.17347956
27	0x3d9c4ed5	0.076322235
28	0xbe18845a	-0.14894238
29	0xbe34cb75	-0.17655738
30	0xbd51708d	-0.051132727
31	0x3d98b68f	0.07456695
32	0xbda5adb4	-0.08089772
33	0x3ced0f38	0.02893792
34	0xbaa07500	-0.00122419
35	0xbd9cd7e0	-0.076583624
36	0xbd77c224	-0.06048788
37	0x3da06510	0.07831776
38	0xbc168c00	-0.009188652
39	0x3c913550	0.017725617
40	0x3d996a46	0.07490973
41	0xbcdf7630	-0.027278036
42	0xbd9a2fea	-0.0752867
43	0xbd84957a	-0.06473823
44	0x3d4156d0	0.04720193
45	0xbd854cd8	-0.065087974
46	0xbb688b40	-0.003548339
47	0xbda34354	-0.07971826
48	0x3cd77848	0.026302472
49	0x3dd6a9d2	0.104816094
50	0x3c2daa80	0.010599732
51	0x3c919e68	0.01777573
52	0x3caced18	0.021109149
53	0x3de795ce	0.1130787
54	0xbdbfda14	-0.09367767
55	0xbd1d3dac	-0.038388893
56	0x3cb9e570	0.022692412
57	0x3d8ada26	0.0677989
58	0xbd4f6334	-0.050631717
59	0x3d41ea30	0.04734248
60	0x3d6e5b90	0.05819279
61	0x3de34c1e	0.110985026
62	0x3dca4142	0.09875728
63	0x3da379c0	0.07982206
64	0xbb6bd0fa	-0.0035982714
65	0x3d8a138e	0.06742011
66	0xbd4d479e	-0.050117128
67	0xbd2be6a8	-0.041968018
68	0x3dc215f1	0.09476841
69	0xbe1436b4	-0.14473993
70	0xbe22e0eb	-0.15906112
71	0xbddf0e64	-0.10891417
72	0x3d0964e4	0.033543482
73	0xbc9d1ba6	-0.019178223
74	0xbe90824c	-0.2822441
75	0x3d4a25ad	0.049352337
76	0x3d442df4	0.047895387
77	0x3c977b01	0.01849127
78	0xbe8b2c36	-0.27182168
79	0xbdea0f1a	-0.11428662
80	0xbdce3a01	-0.10069657
81	0x3d4810b1	0.048844043
82	0x3d57929b	0.05263005
83	0x3e1482a0	0.14502954
84	0xbd8493ea	-0.06473525
85	0x3d34b6da	0.044119693
86	0x3e2b2cef	0.1671636
87	0x3d8c9298	0.06863898
88	0xbd97ec04	-0.07418063
89	0x3df2dcce	0.118585214
90	0xbe378b2f	-0.17924188
91	0x3e65cae9	0.22440685
92	0xbd415543	-0.047200453
93	0x3db0b72d	0.08628688
94	0xbc2502c5	-0.010071461
95	0xbcc7f370	-0.024408072
96	0xbdedad86	-0.116053626
97	0xbd7daaa4	-0.061930314
98	0xbde1a0c8	-0.11016995
99	0x3d5b462c	0.053533718
100	0x3dc3a4ce	0.095529184
101	0xbdaf1286	-0.08548455
102	0x3db3d90a	0.08781631
103	0xbd1799a0	-0.037011743
104	0xbd0b23f4	-0.033969834
105	0xbb0b6140	-0.0021267682
106	0x3d709620	0.05873692
107	0xbcc75ac0	-0.024335265
108	0x3d4b8c64	0.049694434
109	0x3ac29c80	0.0014847666
110	0xbbdd5240	-0.0067541897
111	0x3d9ddc82	0.07708074
112	0xbdc7d65a	-0.09757681
113	0xbd69bc24	-0.05706419
114	0x3d2dfdf0	0.0424785
115	0x3d8b3c20	0.06798577
116	0xbd6af3fc	-0.057361588
117	0xbdadd424	-0.08487728
118	0xbd0e9f9c	-0.034820184
119	0xbdf9af6c	-0.12191662
120	0xbdcdccb8	-0.10048813
121	0x3db76e1a	0.08956547
122	0xbdddd3ba	-0.10831399
123	0xbd8d37ec	-0.06895432
124	0xbc8c8b90	-0.017156392
125	0x3def371e	0.11680435
126	0x3de852c0	0.11343908
127	0x3c216850	0.00985153
128	0xbd4a1bad	-0.0493428
129	0x3d40788e	0.04698997
130	0x3dd4c3c2	0.103889
131	0x3d29a43e	0.0414164
132	0x3da3d5ad	0.0799974
133	0x3c6dca92	0.014513629
134	0xbdf858ab	-0.12126287
135	0xbd925c26	-0.07146482
136	0xbd81f042	-0.06344654
137	0x3c38f90d	0.011289847
138	0x3f002030	0.50049114
139	0xbf2c5d79	-0.6733013
140	0xbd53ec32	-0.051738925
141	0xbc84f5d4	-0.016230501
142	0x3d14e525	0.03635134
143	0x3d559605	0.052145023
144	0xbd84b187	-0.06479173
145	0xbcf354e9	-0.029703574
146	0x3efdee8d	0.49596062
147	0xbe622bd8	-0.22087038
148	0xbc057a0e	-0.008146776
149	0xbd96989d	-0.073533274
150	0xbd564b6c	-0.05231802
151	0xbc89f72b	-0.016841492
152	0xbcf0daf3	-0.029401278
153	0xbbd3b5d0	-0.0064608827
154	0x3ee6df53	0.45092258
155	0xbe1310d1	-0.14361884
156	0xbd8cd5af	-0.068766944
157	0xbdd5eec1	-0.10445929
158	0x3f0a2f84	0.53978753
159	0xbe15dedc	-0.14635795
160	0x3deeae94	0.11654392
161	0x3d45e384	0.04831268
162	0x3d3dc72c	0.046332523
163	0x3c1158d0	0.008871272
164	0x3d8eb942	0.06968929
165	0x3b9e02e0	0.00482212
166	0xbcc7ad60	-0.024374664
167	0x3d96b0e6	0.073579594
168	0x3ca524b8	0.02015911
169	0xbd9acade	-0.07558225
170	0x3ba31e80	0.004978001
171	0x3b4cb380	0.003123492
172	0x3cda6f90	0.026664525
173	0xbd8f6328	-0.070013344
174	0x3c2260b0	0.009910747
175	0xbdfddbfa	-0.12395473
176	0x3d333248	0.043749124
177	0xbd1d00bc	-0.03833078
178	0xbd88d2c4	-0.06680825
179	0xbd7720a0	-0.060333848
180	0xbded769a	-0.11594887
181	0xbdc95966	-0.098315045
182	0xbdb98e04	-0.090602905
183	0xba625500	-0.0008633882
184	0x3d4fcbd0	0.05073148
185	0x3d8fe75a	0.07026549
186	0x3cc990c8	0.02460517
187	0xbd9906ba	-0.07471986
188	0xbd4c177c	-0.049827084
189	0xbde48216	-0.111576244
190	0x3d37ec88	0.04490331
191	0xbdbc0ae2	-0.09181763
192	0x3c8efc05	0.017454157
193	0xbd4a199d	-0.049340833
194	0xbe01c5bf	-0.1267309
195	0xbc25bd1d	-0.010115889
196	0xbdf91675	-0.121624865
197	0x3ba75d0c	0.0051075276
198	0xbe23827b	-0.15967743
199	0xbe441a4f	-0.19150661
200	0xbd336442	-0.043796785
201	0xbd848fbf	-0.0647273
202	0xbdd65279	-0.10464949
203	0xbcae34d6	-0.021265429
204	0xbdba2cef	-0.09090602
205	0xbda9727c	-0.08273789
206	0xbf615271	-0.8801642
207	0x3e7d832f	0.24757074
208	0xbe2cf449	-0.16890062
209	0x3df24551	0.11829627
210	0xbee664e4	-0.44998848
211	0xbd5e1745	-0.05422141
212	0xbc4bc8ba	-0.012437994
213	0x3dbc80f2	0.09204282
214	0xbc452b33	-0.012034225
215	0xbd93442a	-0.07190736
216	0x3df1c03a	0.118042424
217	0x3da4dca3	0.080498956
218	0xbe5526c2	-0.20815566
219	0xbe7fdb7c	-0.2498607
220	0x3dc8fd93	0.098139904
221	0x3d34d103	0.04414464
222	0x3da9194b	0.082567774
223	0xbd83c1de	-0.064334616
224	0xbdcf618e	-0.10126029
225	0xbd9a158a	-0.075236395
226	0x3da683d4	0.08130613
227	0xbd134240	-0.035951853
228	0x3dcf0474	0.10108271
229	0x3d075530	0.033040226
230	0xbd9ec834	-0.077530295
231	0x3d35f7c0	0.044425726
232	0xbdc5e640	-0.09663057
233	0xbdbe0004	-0.09277347
234	0xbc3839f0	-0.011244282
235	0x3d58e49c	0.052952394
236	0xbdb5648a	-0.08857067
237	0xbcdfe140	-0.027329087
238	0x3d77178c	0.06032519
239	0x3d486610	0.04892546
240	0xbdc351ba	-0.095370725
241	0x3d8c9ad8	0.068654716
242	0xbd59f18c	-0.053208873
243	0x3d09f314	0.033679083
244	0xbd8373c8	-0.06418568
245	0x3d7f92e0	0.06239593
246	0xbd340d40	-0.04395795
247	0x3ded1dfe	0.11577986
248	0xbcc18c60	-0.023626506
249	0xbdda4d38	-0.106592596
250	0x3d818e22	0.06325938
251	0xbcbcf768	-0.023067191
252	0xbcebd900	-0.028789997
253	0x3cf69fe0	0.030105531
254	0xbda641e2	-0.08118035
255	0xbd89be8e	-0.067257985

flows.0.t.1.0.bias f4 [32]
0	0x3eabfb36	0.33590096
1	0xbc5156e0	-0.01277706
2	0x3ddae9ed	0.10689149
3	0x3bc079da	0.005873901
4	0x3e04f448	0.12983811
5	0x3ddb0e5c	0.10696098
6	0x3e0b2667	0.13588868
7	0x3e46d929	0.19418778
8	0xbd9f9f10	-0.07794011
9	0x3e01c2c0	0.12671947
10	0x3e5d62d4	0.21619731
11	0x3e568984	0.20950896
12	0x3e42a0e6	0.1900669
13	0x3d87c437	0.06629222
14	0xbc8c009a	-0.01709013
15	0x3e146765	0.14492567
16	0x3dd08ef0	0.10183513
17	0xbde396a1	-0.111127146
18	0x3d8477a3	0.064681314
19	0x3e242f4c	0.16033667
20	0x3b47e015	0.0030498554
21	0x3dfd7beb	0.12377151
22	0xbc1845b5	-0.009293963
23	0xbe22aac2	-0.15885451
24	0x3dfad6ed	0.12248025
25	0x3c55660d	0.013024819
26	0x3d0c0d2a	0.03419224
27	0x3e0a251d	0.1349072
28	0x3e06d1b6	0.13165936
29	0xbe120837	-0.14260946
30	0x3e58f70a	0.21187988
31	0xbe1d131d	-0.15339322

flows.0.t.1.2.weight f4 [32, 32]
0	0x3e01db10	0.12681222
1	0x3e0ad70c	0.13558596
2	0x3ce91903	0.02845431
3	0x3e1be3bb	0.15223591
4	0xbc80e77d	-0.015735382
5	0xbe4e97ee	-0.20175144
6	0x3d866aac	0.06563315
7	0x3db0ed24	0.08638981
8	0xbc3eabcb	-0.011637638
9	0x3d32425e	0.043520324
10	0xbe3bceef	-0.18340658
11	0x3e2184f2	0.15773371
12	0x3e1e708d	0.15472622
13	0xbe396dfe	-0.18108365
14	0xbd9ccf44	-0.0765672
15	0x3de215d0	0.11039317
16	0xb979f516	-0.00023837792
17	0x3d865d3e	0.06560753
18	0xbe0ab47e	-0.13545415
19	0x3c78ac6b	0.015177826
20	0xbed4f849	-0.41595677
21	0xbd7cde7d	-0.06173562
22	0x3de221a4	0.11041573
23	0x3c069a5c	0.008215513
24	0x3f46c059	0.7763725
25	0xbe8ac90b	-0.2710651
26	0xbe544577	-0.20729624
27	0x3d181d35	0.03713723
28	0xbdf46027	-0.11932402
29	0xbe380f16	-0.17974505
30	0xbdf6da3d	-0.120533444
31	0x3d369ece	0.04458504
32	0x3db53e53	0.08849778
33	0x3c6078f5	0.013700713
34	0x3c6e07fd	0.014528272
35	0x3d5dce0c	0.05415158
36	0x3e1e3493	0.15449743
37	0x3d9d36ac	0.076764435
38	0x3e378465	0.17921598
39	0x3e2ea693	0.1705573
40	0xbd0ec0ca	-0.034851827
41	0x3e01f1f0	0.12689948
42	0xbde684be	-0.11255787
43	0xbce1de8f	-0.027571945
44	0xbd73d7dd	-0.059532035
45	0x3da7a3ba	0.08185525
46	0xbcfa3529	-0.030542927
47	0x3dbfc4e0	0.09363723
48	0xbd90d9be	-0.07072781
49	0x3d94b10d	0.07260332
50	0x3e4927d4	0.196441
51	0x3d696ec8	0.056990415
52	0xbca565b1	-0.020190092
53	0x3e0940e4	0.1340366
54	0x3e481ad1	0.1954148
55	0x3d8fcc88	0.07021433
56	0x3e110b76	0.14164528
57	0xbdbc8af3	-0.0920619
58	0xbe1bd5fe	-0.1521835
59	0x3d2ecf69	0.04267827
60	0xbdc2ebd6	-0.095176384
61	0xbd0e5be8	-0.034755617
62	0xbd891eee	-0.066953525
63	0xbd0343a2	-0.03204692
64	0xbe1a0a21	-0.15042926
65	0x3e0f05e7	0.13967095
66	0xbd62360a	-0.055227317
67	0x3e037cf4	0.12840635
68	0x3dc7f13c	0.09762809
69	0xbdf69364	-0.12039831
70	0xbdb131bb	-0.086520635
71	0xbddb70b4	-0.10714856
72	0x3dd1a64d	0.102367975
73	0x3e629757	0.22128044
74	0xbbd13dd7	-0.0063855457
75	0x3c9b7f33	0.018981552
76	0x3e76af55	0.24090321
77	0xbe1a00a3	-0.15039305
78	0x3d375f5d	0.04476868
79	0xbbfbabb5	-0.007680381
80	0x3d937ae5	0.07201175
81	0x3d310788	0.043220073
82	0x3d5d1c84	0.053982273
83	0x3e6451bf	0.22296809
84	0xbc247e11	-0.010039822
85	0x3c994930	0.018711656
86	0xbc77a55c	-0.015115108
87	0x3cdd9b62	0.027051631
88	0xbddf8377	-0.10913747
89	0x3d801ae7	0.06255131
90	0xbc154b7b	-0.009112234
91	0x3de676ba	0.11253114
92	0x3e1d82e3	0.1538196
93	0xbdb60d8d	-0.08889303
94	0xbe207995	-0.1567138
95	0x3e038faf	0.1284778
96	0x3cc4d685	0.024028072
97	0x3c57f5a7	0.013181127
98	0x3d9a9c44	0.075493366
99	0xbe41f9d9	-0.18942966
100	0x3cd74fa2	0.02628309
101	0x3b845574	0.004038507
102	0x3da22174	0.07916537
103	0xbddf1bee	-0.10893999
104	0xbd08ca35	-0.033395965
105	0x3dc67798	0.096907794
106	0xbdb749de	-0.08949636
107	0x3d535495	0.051594336
108	0xbda34b73	-0.07973375
109	0xbd04ef89	-0.032455
110	0xbce789ed	-0.02826401
111	0xbd80db09	-0.06291778
112	0x3dd02f2d	0.10165248
113	0xbe1b6b57	-0.15177666
114	0x3d9939c4	0.07481721
115	0xbc34d044	-0.0110359825
116	0xbcc33794	-0.023830213
117	0xbe447ad7	-0.19187485
118	0xbdb8d38e	-0.09024726
119	0xbd89a4d1	-0.06720889
120	0x3d3f0157	0.046632137
121	0xbbdb94b3	-0.006701076
122	0xbda097e4	-0.07841471
123	0xbdc026f7	-0.09382432
124	0x3e1e8c45	0.15483196
125	0xbdb39859	-0.087692924
126	0x3c3360cc	0.010948371
127	0x3c715d7c	0.014731761
128	0xbdcc3847	-0.099716716
129	0xbc790089	-0.0151978815
130	0xbd591c0b	-0.05300526
131	0xbe19b6c2	-0.15011123
132	0xbe31b2f8	-0.17353427
133	0x3d65ada4	0.0560738
134	0xbd0318d8	-0.032006115
135	0x3e29bab9	0.16575135
136	0x3d778dac	0.060437843
137	0x3e270507	0.16310512
138	0x3d7a0d68	0.06104794
139	0x3c89c14e	0.016815808
140	0x3e3ad72a	0.18246141
141	0x3cbc9e88	0.023024812
142	0x3dafec12	0.08589949
143	0x3daf4005	0.08557133
144	0x3d8a140c	0.06742105
145	0x3d72d597	0.059285726
146	0xbe1d7cf7	-0.15379702
147	0x3e2bd368	0.16779864
148	0xbcf3db7e	-0.029767748
149	0xbd9bdb0a	-0.07610138
150	0x3c08ca04	0.0083489455
151	0xbd4bcaed	-0.049754072
152	0xbe2c26a2	-0.16811612
153	0xbcb1e90c	-0.02171757
154	0x3d52c7b2	0.051459976
155	0xbb25f629	-0.0025323725
156	0x3dfbfb53	0.12303796
157	0xbd7cdbeb	-0.061733168
158	0x3dbc2ae4	0.09187868
159	0xbd123996	-0.03569945
160	0x3e8f870f	0.2803273
161	0xbe116e59	-0.1420225
162	0x3dd09d36	0.101862356
163	0xbe50670c	-0.2035181
164	0xbe4f1d9f	-0.20226143
165	0x3d6d3bb0	0.05791825
166	0x3e1ba369	0.15199055
167	0x3dfdb609	0.12388236
168	0xbd6e746b	-0.058216494
169	0xbba51726	-0.00503816
170	0x3cf1da7c	0.029523127
171	0x3dafee9b	0.08590432
172	0xbb2d31fe	-0.0026427503
173	0x3e10e4ab	0.1414973
174	0x3b38d998	0.0028205868
175	0xbc4d3086	-0.012523776
176	0x3e869db4	0.26292193
177	0xbdb4c87f	-0.08827304
178	0x3e198fde	0.14996287
179	0xbd7b0570	-0.061284482
180	0xbdb34d9e	-0.08755039
181	0xbd8e8da2	-0.06960608
182	0x3d0d7266	0.034532927
183	0xbe03d8c3	-0.12875657
184	0xbd59683f	-0.053077932
185	0x3ab1bc52	0.0013560152
186	0x3d050888	0.03247884
187	0x3e2f6d22	0.17131475
188	0x3df689af	0.1203798
189	0x3d899443	0.06717732
190	0x3e6c4ea1	0.2307687
191	0x3e5f2273	0.21790485
192	0xbdebe6f5	-0.11518661
193	0x3d014d50	0.03156787
194	0x3c1b9116	0.00949504
195	0xbd8b7f03	-0.06811335
196	0xbe0aef0f	-0.13567756
197	0xbdd5beab	-0.10436758
198	0x3cfcac69	0.03084393
199	0x3dffdb91	0.12493051
200	0xbcd8ff7a	-0.026489008
201	0x3e1f8baf	0.15580629
202	0xbc59ec5a	-0.0133009795
203	0x3d8ca264	0.06866911
204	0x3a544629	0.0008097613
205	0x3da2af96	0.079436466
206	0xbd57bedb	-0.05267225
207	0x3d1ec747	0.038764264
208	0xbd849d7a	-0.06475349
209	0xbe1300e3	-0.14355807
210	0xbd4e191e	-0.050316922
211	0x3ba19fd7	0.0049323845
212	0xbe1e039d	-0.15431066
213	0x3da9522e	0.08267628
214	0xbe20302c	-0.15643376
215	0xbc8f1a68	-0.017468646
216	0xbc909875	-0.017650822
217	0x3e069fa8	0.13146842
218	0xbae4457a	-0.0017415725
219	0xbd4804b2	-0.048832603
220	0x3e0a2446	0.134904
221	0xbd46ecae	-0.04856556
222	0x3d50b14a	0.050950326
223	0xbcd21e5b	-0.02564924
224	0xbe66d253	-0.2254117
225	0x3e675821	0.22592212
226	0xbe0f8935	-0.14017184
227	0x3d09b2e5	0.033617873
228	0x3d8b1c54	0.067925125
229	0x3e5d6f01	0.21624376
230	0xbe2d3bb7	-0.1691731
231	0x3c273811	0.010206238
232	0xbe0c2417	-0.13685642
233	0xbdb8c756	-0.09022395
234	0xbea97ad3	-0.3310152
235	0xbc7c9716	-0.015416881
236	0x3e05d861	0.13070823
237	0x3dfc524d	0.12320385
238	0x3dbb0917	0.09132593
239	0x3bfb4f36	0.007669355
240	0xbc7901da	-0.015198195
241	0x3c5f538b	0.013630758
242	0xbe31829b	-0.17334978
243	0xbe6705c7	-0.22560798
244	0xbd393187	-0.04521325
245	0x3da0bbf7	0.078483514
246	0x3df6cd3a	0.120508626
247	0xbea01291	-0.31264165
248	0xbeed37f4	-0.4633175
249	0xbd4d552f	-0.050130066
250	0x3df5eada	0.12007685
251	0xbda284bf	-0.079354756
252	0x3df13942	0.11778499
253	0xbdfe731a	-0.12424298
254	0x3d9d972e	0.07694851
255	0xbdc2ebac	-0.09517607

flows.0.t.1.2.bias f4 [32]
0	0x3e919e26	0.2844097
1	0x3d668211	0.056276385
2	0xbe100db7	-0.14067732
3	0x3de48be7	0.11159497
4	0xbc4641bd	-0.012100634
5	0x3e3eeff5	0.18646224
6	0x3e0c2485	0.13685806
7	0xbdb1dd80	-0.08684826
8	0x3e5ffef9	0.21874608
9	0x3e50c7d9	0.20388736
10	0x3d443073	0.047897767
11	0x3d69bcc6	0.057064794
12	0x3d590346	0.052981637
13	0xbd82cc56	-0.0638663
14	0x3d8d44af	0.06897866
15	0x3e750d8f	0.23930953
16	0xbedc3491	-0.43008855
17	0x3ce2e96f	0.0276992
18	0xbdb95b20	-0.09050584
19	0x3e8e6beb	0.2781671
20	0xbdc073fd	-0.09397123
21	0x3d88903d	0.06668136
22	0x3ef2c4a8	0.47415662
23	0x3e4086b7	0.1880139
24	0x3deddbfa	0.11614223
25	0x3e7352c3	0.2376204
26	0xbe512087	-0.20422564
27	0x3d3f742c	0.04674165
28	0x3d7f16b2	0.062277503
29	0xbde8f164	-0.113741666
30	0x3e2834dd	0.16426416
31	0xbd9f0f97	-0.077666454
