code_for_Boids/Data/model_16birds_2groups_2path_kde_noise_05_800000_4.pkl (torch, 548793 bytes, 196 tensors)

flows.0.mask f4 [6, 64]
0.0 0.0 0.0 0.0 0.0 0.0 0.0 0.0
0.0 0.0 0.0 0.0 0.0 0.0 0.0 0.0
0.0 0.0 0.0 0.0 0.0 0.0 0.0 0.0
0.0 0.0 0.0 0.0 0.0 0.0 0.0 0.0
1.0 1.0 1.0 1.0 1.0 1.0 1.0 1.0
1.0 1.0 1.0 1.0 1.0 1.0 1.0 1.0
1.0 1.0 1.0 1.0 1.0 1.0 1.0 1.0
1.0 1.0 1.0 1.0 1.0 1.0 1.0 1.0
1.0 1.0 1.0 1.0 1.0 1.0 1.0 1.0
1.0 1.0 1.0 1.0 1.0 1.0 1.0 1.0
1.0 1.0 1.0 1.0 1.0 1.0 1.0 1.0
1.0 1.0 1.0 1.0 1.0 1.0 1.0 1.0
0.0 0.0 0.0 0.0 0.0 0.0 0.0 0.0
0.0 0.0 0.0 0.0 0.0 0.0 0.0 0.0
0.0 0.0 0.0 0.0 0.0 0.0 0.0 0.0
0.0 0.0 0.0 0.0 0.0 0.0 0.0 0.0
0.0 0.0 0.0 0.0 0.0 0.0 0.0 0.0
0.0 0.0 0.0 0.0 0.0 0.0 0.0 0.0
0.0 0.0 0.0 0.0 0.0 0.0 0.0 0.0
0.0 0.0 0.0 0.0 0.0 0.0 0.0 0.0
1.0 1.0 1.0 1.0 1.0 1.0 1.0 1.0
1.0 1.0 1.0 1.0 1.0 1.0 1.0 1.0
1.0 1.0 1.0 1.0 1.0 1.0 1.0 1.0
1.0 1.0 1.0 1.0 1.0 1.0 1.0 1.0
1.0 1.0 1.0 1.0 1.0 1.0 1.0 1.0
1.0 1.0 1.0 1.0 1.0 1.0 1.0 1.0
1.0 1.0 1.0 1.0 1.0 1.0 1.0 1.0
1.0 1.0 1.0 1.0 1.0 1.0 1.0 1.0
0.0 0.0 0.0 0.0 0.0 0.0 0.0 0.0
0.0 0.0 0.0 0.0 0.0 0.0 0.0 0.0
0.0 0.0 0.0 0.0 0.0 0.0 0.0 0.0
0.0 0.0 0.0 0.0 0.0 0.0 0.0 0.0
00000000: 0000 0000 0000 0000 0000 0000 0000 0000
00000010: 0000 0000 0000 0000 0000 0000 0000 0000
00000020: 0000 0000 0000 0000 0000 0000 0000 0000
00000030: 0000 0000 0000 0000 0000 0000 0000 0000
00000040: 0000 0000 0000 0000 0000 0000 0000 0000
00000050: 0000 0000 0000 0000 0000 0000 0000 0000
00000060: 0000 0000 0000 0000 0000 0000 0000 0000
00000070: 0000 0000 0000 0000 0000 0000 0000 0000
00000080: 0000 803f 0000 803f 0000 803f 0000 803f
00000090: 0000 803f 0000 803f 0000 803f 0000 803f
000000a0: 0000 803f 0000 803f 0000 803f 0000 803f
000000b0: 0000 803f 0000 803f 0000 803f 0000 803f
000000c0: 0000 803f 0000 803f 0000 803f 0000 803f
000000d0: 0000 803f 0000 803f 0000 803f 0000 803f
000000e0: 0000 803f 0000 803f 0000 803f 0000 803f
000000f0: 0000 803f 0000 803f 0000 803f 0000 803f
00000100: 0000 803f 0000 803f 0000 803f 0000 803f
00000110: 0000 803f 0000 803f 0000 803f 0000 803f
00000120: 0000 803f 0000 803f 0000 803f 0000 803f
00000130: 0000 803f 0000 803f 0000 803f 0000 803f
00000140: 0000 803f 0000 803f 0000 803f 0000 803f
00000150: 0000 803f 0000 803f 0000 803f 0000 803f
00000160: 0000 803f 0000 803f 0000 803f 0000 803f
00000170: 0000 803f 0000 803f 0000 803f 0000 803f
00000180: 0000 0000 0000 0000 0000 0000 0000 0000
00000190: 0000 0000 0000 0000 0000 0000 0000 0000
000001a0: 0000 0000 0000 0000 0000 0000 0000 0000
000001b0: 0000 0000 0000 0000 0000 0000 0000 0000
000001c0: 0000 0000 0000 0000 0000 0000 0000 0000
000001d0: 0000 0000 0000 0000 0000 0000 0000 0000
000001e0: 0000 0000 0000 0000 0000 0000 0000 0000
000001f0: 0000 0000 0000 0000 0000 0000 0000 0000
00000200: 0000 0000 0000 0000 0000 0000 0000 0000
00000210: 0000 0000 0000 0000 0000 0000 0000 0000
00000220: 0000 0000 0000 0000 0000 0000 0000 0000
00000230: 0000 0000 0000 0000 0000 0000 0000 0000
00000240: 0000 0000 0000 0000 0000 0000 0000 0000
00000250: 0000 0000 0000 0000 0000 0000 0000 0000
00000260: 0000 0000 0000 0000 0000 0000 0000 0000
00000270: 0000 0000 0000 0000 0000 0000 0000 0000
00000280: 0000 803f 0000 803f 0000 803f 0000 803f
00000290: 0000 803f 0000 803f 0000 803f 0000 803f
000002a0: 0000 803f 0000 803f 0000 803f 0000 803f
000002b0: 0000 803f 0000 803f 0000 803f 0000 803f
000002c0: 0000 803f 0000 803f 0000 803f 0000 803f
000002d0: 0000 803f 0000 803f 0000 803f 0000 803f
000002e0: 0000 803f 0000 803f 0000 803f 0000 803f
000002f0: 0000 803f 0000 803f 0000 803f 0000 803f
00000300: 0000 803f 0000 803f 0000 803f 0000 803f
00000310: 0000 803f 0000 803f 0000 803f 0000 803f
00000320: 0000 803f 0000 803f 0000 803f 0000 803f
00000330: 0000 803f 0000 803f 0000 803f 0000 803f
00000340: 0000 803f 0000 803f 0000 803f 0000 803f
00000350: 0000 803f 0000 803f 0000 803f 0000 803f
00000360: 0000 803f 0000 803f 0000 803f 0000 803f
00000370: 0000 803f 0000 803f 0000 803f 0000 803f
00000380: 0000 0000 0000 0000 0000 0000 0000 0000
00000390: 0000 0000 0000 0000 0000 0000 0000 0000
000003a0: 0000 0000 0000 0000 0000 0000 0000 0000
000003b0: 0000 0000 0000 0000 0000 0000 0000 0000
000003c0: 0000 0000 0000 0000 0000 0000 0000 0000
000003d0: 0000 0000 0000 0000 0000 0000 0000 0000
000003e0: 0000 0000 0000 0000 0000 0000 0000 0000
000003f0: 0000 0000 0000 0000 0000 0000 0000 0000

flows.0.t.0.0.weight f4 [32, 64]
-0.100906 0.061021537 -0.1184566 0.09721862 0.019337356 -0.008679673 0.07010245 0.015748575
-0.024199218 0.0024455935 0.035702005 -0.071461916 0.092729494 0.05377783 -0.018393248 -0.028003365
-0.08295198 0.028109446 0.009030491 -0.0048751533 -0.07722244 0.064929426 -0.048287526 -0.09601134
0.04474418 -0.11579357 -0.115506396 0.108911455 -0.06763758 -0.1041071 -0.12456064 0.04547137
-0.12435907 0.10245145 -0.08395049 -0.34885496 -0.11238394 0.08702147 -0.1173458 -0.0320052
-0.11944121 0.03488721 0.14547232 0.13325019 -0.066265225 0.09722744 -0.28398114 0.050264217
-0.14782321 -0.048368067 0.15379563 -0.011823594 0.024067063 0.051892728 -0.17782977 0.2713698
-0.07053788 0.17958398 -0.055380702 -0.092171155 -0.037266497 0.20569457 -0.02080713 -0.06386738
-0.042291254 -0.05044101 -0.012135431 0.0008812398 -0.11245957 -0.054531127 0.06023383 -0.050577477
-0.02993089 -0.04171048 -0.024782285 0.07009213 -0.10521421 -0.08413212 -0.069081515 -0.03578888
-0.0366199 -0.016070753 0.09217246 -0.098862454 -0.123844564 0.09888561 -0.08242117 -0.105859
-0.10251328 0.03381054 0.09439106 -0.093716815 0.0060293823 -0.028305963 0.02423197 0.0406591
0.07402737 -0.18375836 0.45004788 0.3374586 0.04360117 -0.038867068 0.2604368 -0.5310722
0.008171227 -0.061037984 -0.12244337 0.25805327 0.07675401 -0.028944552 -0.46172735 -0.54350597
0.015454155 0.06298253 -0.54550385 -0.78031933 -0.0048060557 0.008901304 0.65844715 -0.20168518
0.025377903 -0.006744113 0.67709696 -0.025340293 0.054379627 0.0005266225 0.25714582 0.18530788
-0.052754954 0.08169721 0.018783614 0.068651035 0.004657626 -0.07533404 0.08006053 0.11782272
-0.018818527 -0.0011093318 -0.03344907 0.027464435 -0.09358548 0.04949671 0.09324975 0.07487984
-0.07020374 -0.06615937 -0.024549872 0.025209576 0.09171341 -0.06403887 0.123896286 -0.053022325
-0.124591604 0.06181319 -0.049635157 -0.0034143925 -0.054902554 -0.09576841 0.009453908 0.100952566
-0.029491067 0.00026204422 0.10951551 0.6589401 0.017450647 0.01935501 -0.027661309 -0.6104464
0.03376883 -0.019690339 -0.038016822 -1.1049688 0.012557047 0.034428697 -0.24472162 -0.07080775
0.049815964 0.10973938 0.13161957 0.46425474 -0.0054206024 0.03771296 -0.5004187 -0.1128475
-0.0066868775 -0.005941083 -0.086848184 -0.059982862 0.03177673 0.05470991 -0.17674248 0.13396534
-0.0013744235 0.06225182 0.04970081 0.060614705 -0.08390917 -0.063204214 -0.053432852 0.061273217
0.012408987 -0.08950336 0.09634653 0.021655172 -0.092573255 -0.08020924 -0.035948858 -0.12089631
-0.03917229 -0.071127 -0.11498973 -0.016465232 0.043870762 -0.06658481 0.046548456 0.11076504
0.12432417 0.011688009 -0.05777204 0.022778079 0.051269874 0.064773545 -0.09913191 0.0873356
-0.04471521 -0.0017630404 0.20581585 -0.15934855 -0.073621705 0.090060756 0.25334954 -0.14263052
-0.063917905 0.04046862 0.25398004 0.20240542 0.038283896 0.10994772 0.070781104 0.011953202
-0.105950646 0.061170306 0.009244356 0.12514472 0.0039640847 0.052791376 -0.06193631 0.51045877
-0.035578102 0.07081392 0.12475079 0.21806593 -0.015533924 0.09793356 -0.0047577126 0.15238772
00000000: cea7 cebd b8f1 793d 6099 f2bd 8e1a c73d
00000010: 6069 9e3c 3035 0ebc e091 8f3d 2803 813c
00000020: 703d c6bc 4046 203b 443c 123d a05a 92bd
00000030: f6e8 bd3d 2446 5c3d 70ad 96bc 5067 e5bc
00000040: bae2 a9bd c845 e63c a0f4 133c c0bf 9fbb
00000050: cc26 9ebd b8f9 843d 24c9 45bd 98a1 c4bd
00000060: ac45 373d 2e25 edbd 9e8e ecbd f80c df3d
00000070: 9285 8abd 1a36 d5bd a619 ffbd 3040 3a3d
00000080: f8af febd 11d2 d13d 3cee abbd 1e9d b2be
00000090: 8d29 e6bd 5038 b23d ff52 f0bd e217 03bd
000000a0: 989d f4bd e4e5 0e3d b2f6 143e bd72 083e
000000b0: 10b6 87bd 2e1f c73d fa65 91be dae1 4d3d
000000c0: f85e 17be 981d 46bd 9a7c 1d3e bfb7 41bc
000000d0: 4a28 c53c 788d 543d 0219 36be fcf0 8a3e
000000e0: 2a76 90bd dde4 373e e0d6 62bd 3bc4 bcbd
000000f0: c1a4 18bd 99a1 523e b773 aabc e7cc 82bd
00000100: 9839 2dbd 3c9b 4ebd b0d3 46bc 0003 673a
00000110: 3451 e6bd 085c 5fbd c0b7 763d 542a 4fbd
00000120: a031 f5bc 9cd8 2abd 3804 cbbc 768c 8f3d
00000130: 8c7a d7bd 764d acbd 9c7a 8dbd 5c97 12bd
00000140: c0fe 15bd d0a6 83bc eac4 bc3d 6678 cabd
00000150: 38a2 fdbd 8a84 ca3d 6ecc a8bd 9acc d8bd
00000160: 7cf2 d1bd ec7c 0a3d 1a50 c13d 9aee bfbd
00000170: 2092 c53b e8e1 e7bc 2082 c63c 288a 263d
00000180: a99b 973d 272b 3cbe ad6c e63e 60c7 ac3e
00000190: 2497 323d 1333 1fbd f957 853e 59f4 07bf
000001a0: 9ce0 053c f702 7abd 97c3 fabd 8f1f 843e
000001b0: 3531 9d3d 201d edbc 8767 ecbe 3523 0bbf
000001c0: 6d33 7d3c fcfc 803d 24a6 0bbf 02c3 47bf
000001d0: 1e7c 9dbb c6d6 113c fe8f 283f 8f86 4ebe
000001e0: 52e5 cf3c b8fd dcbb 3a56 2d3f 7296 cfbc
000001f0: 2cbd 5e3d 0a0d 0a3a 9ea8 833e 59c1 3d3e
00000200: 9415 58bd de50 a73d 18e0 993c ea98 8c3d
00000210: 009f 983b bc48 9abd c6f6 a33d 0a4d f13d
00000220: 5029 9abc 0067 91ba e401 09bd 18fd e03c
00000230: bea9 bfbd 10bd 4a3d baf9 be3d 9a5a 993d
00000240: fac6 8fbd 907e 87bd d01c c9bc 5084 ce3c
00000250: 3ed4 bb3d d026 83bd 56bd fd3d f02d 59bd
00000260: e229 ffbd d42f 7d3d 3c4e 4bbd 00c4 5fbb
00000270: 80e1 60bd 3a22 c4bd 90e4 1a3c 38c0 ce3d
00000280: 4097 f1bc fb62 8939 ab49 e03d 4cb0 283f
00000290: a9f4 8e3c 668e 9e3c f899 e2bc 3746 1cbf
000002a0: 2f51 0a3d a24d a1bc 87b7 1bbd 9e6f 8dbf
000002b0: 13bc 4d3c 1b05 0d3d 4e98 7abe a703 91bd
000002c0: d30b 4c3d 0abf e03d 48c7 063e ccb2 ed3e
000002d0: 4f9f b1bb e878 1a3d 711b 00bf 971c e7bd
000002e0: 981d dbbb 6bad c2bb 76dd b1bd 97b0 75bd
000002f0: 5128 023d 8017 603d fbfb 34be 362e 093e
00000300: 0026 b4ba c4fb 7e3d 1493 4b3d 2047 783d
00000310: 92d8 abbd 3671 81bd 68dc 5abd a0f9 7a3d
00000320: 104f 4b3c 8a4d b7bd 5451 c53d 3066 b13c
00000330: 0c97 bdbd be44 a4bd 1c3f 13bd 7c98 f7bd
00000340: 2073 20bd 08ab 91bd bc7f ebbd 18e2 86bc
00000350: d4b1 333d 9e5d 88bd 98a9 3e3d c8d8 e23d
00000360: ac9d fe3d 107f 3f3c 60a2 6cbd 1899 ba3c
00000370: 5c00 523d fea7 843d ac05 cbbd 02dd b23d
00000380: 4c27 37bd d215 e7ba 64c1 523e 442c 23be
00000390: fac6 96bd c671 b83d 08b7 813e bc0d 12be
000003a0: 64e7 82bd 6cc2 253d ac09 823e 5e43 4f3e
000003b0: 93cf 1c3d 452c e13d aff5 903d 5dd7 433c
000003c0: a7fc d8bd b78d 7a3d a475 173c f025 003e
000003d0: 27e5 813b c53b 583d eeb0 7dbd 6dad 023f
000003e0: 58ba 11bd e306 913d 587d ff3d ad4c 5f3e
000003f0: 0082 7ebc 6491 c83d 96e6 9bbb 870b 1c3e

flows.0.t.0.0.bias f4 [32]
0.2861125 0.0096401805 -0.17815158 0.13949607 -0.45089132 -0.20188947 0.0053611933 -0.25952873
-0.3646456 0.09735543 0.2160964 0.23885982 -0.086358294 -0.3879917 0.17844369 -0.3617286
0.035217974 0.11272305 0.34353757 -0.20780738 0.37645125 -0.026565073 0.0133219 0.4093665
-0.31710473 -0.19656172 -0.0010893241 0.04524958 0.055700243 -0.11828007 -0.03572983 0.1505223
00000000: 567d 923e d9f1 1d3c 5e6d 36be 0fd8 0e3e
00000010: 3adb e6be 1dbc 4ebe f3ac af3b f3e0 84be
00000020: d4b2 babe 4962 c73d 6048 5d3e ab97 743e
00000030: 9edc b0bd d9a6 c6be f1b9 363e 7e34 b9be
00000040: b940 103d 58db e63d 28e4 af3e 75cb 54be
00000050: 38be c03e ff9e d9bc 1944 5a3c 7c98 d13e
00000060: 8d5b a2be 7a47 49be a7c7 8eba a057 393d
00000070: f025 643d d23c f2bd 7159 12bd 8522 1a3e

flows.0.t.0.2.weight f4 [32, 32]
-0.18136446 -0.2810466 0.19484608 0.18108456 -0.1496871 0.07125743 0.10189519 -0.025217341
-0.10841634 -0.14822677 -0.0155445 0.063976355 0.18925321 -0.20136933 -0.064820565 0.109766036
0.118044294 0.10944459 0.01583788 -0.053828742 -0.17531288 -0.09247059 0.051416084 0.01090343
0.008783077 0.10428779 0.070395045 0.20967785 0.105198696 0.044891644 0.026773872 0.14366782
0.112551466 -0.15320732 0.07240851 0.084787026 0.15445544 0.19725634 -0.18530491 0.07174564
-0.09825728 0.21942697 -0.047950383 0.03893378 -0.15775645 0.044825755 0.047275383 -0.15862155
0.14548078 -0.14583783 -0.043840956 -0.15696853 0.06432515 0.009101927 0.17980959 0.13601974
0.19425955 -0.12201246 -0.097121 -0.027662842 0.3691315 -0.005355512 -0.18847401 -0.27321208
-0.03854289 -0.27940506 -0.10755448 0.32395932 0.06343769 0.060104497 -1.0021455 -0.14963958
-0.26057675 0.10114669 0.13378723 -0.02161543 0.13416278 -0.043160416 0.064198494 0.031206414
0.101278946 -0.18181556 0.1842733 -0.10185024 0.037959293 -0.086503595 0.10446961 -0.082939886
-0.21943599 -0.37707517 -0.33795103 -0.048527848 -0.11657275 0.09226033 -0.15745494 -0.26402563
-0.2060297 -0.10619538 0.1472929 -0.210039 -0.014934445 -0.011311519 -0.04606018 -0.012438567
0.18315515 -0.13964312 0.13656986 0.1518782 0.17307216 -0.12804252 0.009172546 0.1043207
0.08598706 0.1749939 0.11030583 0.24782658 -0.028563287 -0.0012643347 0.060033206 -0.019324439
-0.018908558 0.11756707 0.0242983 -0.16104424 0.006151703 0.205505 0.0329518 -0.1518986
-0.10069295 -0.3095801 -0.4852139 0.43462625 -0.17289354 0.31054398 -0.16964161 -0.24335703
-0.14674826 -0.18596274 -0.0039651617 0.038258806 -0.05580445 -0.74348825 0.03686242 -0.30882135
0.090485595 -0.1454489 0.013615205 -0.06359088 -0.11639955 -0.019004518 -0.219577 0.11792415
-0.81378806 0.09892346 -0.061365664 0.013359303 0.16050248 0.03397811 -0.101295695 0.17440727
-0.11601995 -0.13229352 0.37899056 0.0022464567 -0.0464209 0.12324577 0.017994875 0.09327838
-0.1185266 -0.15533836 -0.12302695 -0.084074005 -0.14338957 -0.22348575 0.010066196 -0.14546151
-0.1463722 -0.14315927 -0.08193308 0.11561048 -0.1763166 -0.026607955 -0.19422267 0.021743491
-0.59069705 0.21374424 -0.050206292 -0.115936995 -0.09552251 0.07978682 0.006556646 -0.006065622
0.2532429 -0.3001001 0.0491392 -0.08403595 0.32289627 -0.16760612 0.1492788 -0.23866925
0.06565673 0.13153015 0.01939665 -0.06893432 0.0005679622 -0.0669182 0.09729888 0.096177556
0.01759579 0.012502131 0.0068269116 -0.0944497 0.03419831 -0.09715564 0.22136164 -0.114628546
0.16987519 -0.16909625 0.13711289 0.04591532 -0.09867001 0.041664783 0.015411925 -0.5179508
-0.03912164 -0.04009829 -0.0059712054 -0.19736232 0.12433552 -0.100433834 -0.07028744 -0.04149369
0.07950832 0.0823097 0.080975264 -0.1513248 0.027420327 -0.059079714 0.15051723 0.21932136
-0.084760495 -0.13408068 0.038488183 -0.22854175 0.42119235 0.045360252 0.11231171 -0.01890262
0.04044362 0.17091852 0.07610051 0.09063106 -0.16277216 -0.03155788 -0.2097663 -0.36942175
00000000: 9bb7 39be 57e5 8fbe bb85 473e 3b6e 393e
00000010: 9347 19be 6aef 913d 6dae d03d 9994 cebc
00000020: 6309 debd c2c8 17be 5cae 7ebc 0906 833d
00000030: 98cb 413e c333 4ebe a5c0 84bd 04cd e03d
00000040: 35c1 f13d 7c24 e03d 71be 813c 877b 5cbd
00000050: 3885 33be 3861 bdbd ac99 523d 4da4 323c
00000060: e5e6 0f3c d694 d53d 472b 903d cab5 563e
00000070: 6a72 d73d 4de0 373d e154 db3c a81d 133e
00000080: 6281 e63d 61e2 1cbe ea4a 943d d2a4 ad3d
00000090: 9129 1e3e 91fd 493e 92c0 3dbe 61ef 923d
000000a0: 1d3b c9bd 77b1 603e 9f67 44bd 0779 1f3d
000000b0: e88a 21be 369b 373d d5a3 413d b06d 22be
000000c0: eaf8 143e 8356 15be 9392 33bd 5cbc 20be
000000d0: e7bc 833d 4020 153c 0120 383e c248 0b3e
000000e0: faeb 463e abe1 f9bd 60e7 c6bd 2f9d e2bc
000000f0: cefe bc3e 4a7d afbb 55ff 40be 74e2 8bbe
00000100: 26df 1dbd 2e0e 8fbe 8645 dcbd ffdd a53e
00000110: 9feb 813d 2230 763d 4e46 80bf 1e3b 19be
00000120: 516a 85be ff25 cf3d 85ff 083e d812 b1bc
00000130: f861 093e fac8 30bd 807a 833d 98a4 ff3c
00000140: 566b cf3d dc2d 3abe 24b2 3c3e dc96 d0bd
00000150: 347b 1b3d cc28 b1bd 2af4 d53d 63dc a9bd
00000160: d4b3 60be ff0f c1be eb07 adbe 23c5 46bd
00000170: b2bd eebd fcf2 bc3d de3b 21be 5e2e 87be
00000180: 73f9 52be f77c d9bd f3d3 163e 7714 57be
00000190: 9aaf 74bc f353 39bc 99a9 3cbd 22cb 4bbc
000001a0: 068d 3b3e 9bfe 0ebe f8d8 0b3e f585 1b3e
000001b0: d439 313e 941d 03be 7248 163c 17a6 d53d
000001c0: fc19 b03d 9a31 333e 06e8 e13d 40c6 7d3e
000001d0: 8efd e9bc 08b8 a5ba 61e5 753d 494e 9ebc
000001e0: 1fe6 9abc 01c7 f03d 3a0d c73c c8e8 24be
000001f0: 3a94 c93b e76f 523e 77f8 063d 4e8b 1bbe
00000200: 1b38 cebd 4881 9ebe f56d f8be 5587 de3e
00000210: 010b 31be 9fff 9e3e 88b6 2dbe 9632 79be
00000220: 2d45 16be 046d 3ebe 30ee 81bb 44b5 1c3d
00000230: 3593 64bd 3f55 3ebf 0dfd 163d d51d 9ebe
00000240: 8350 b93d 8ef0 14be 4f12 5f3c ef3b 82bd
00000250: e362 eebd 5daf 9bbc cbd8 60be 3782 f13d
00000260: 6a54 50bf 6298 ca3d 905a 7bbd fae0 5a3c
00000270: c35a 243e a12c 0b3d 1e74 cfbd d297 323e
00000280: de9b edbd f477 07be 0d0b c23e 4a39 133b
00000290: d723 3ebd 4768 fc3d fd69 933c bc08 bf3d
000002a0: 13be f2bd 0511 1fbe 8ef5 fbbd fe2e acbd
000002b0: b7d4 12be 73d9 64be b0ec 243c ddf3 14be
000002c0: 98e2 15be 5898 12be 88cc a7bd 30c5 ec3d
000002d0: 578c 34be edf8 d9bc 4fe2 46be 681f b23c
000002e0: ec37 17bf c5df 5a3e 1da5 4dbd 6070 edbd
000002f0: 4ea1 c3bd 4667 a33d 22d9 d63b 20c2 c6bb
00000300: 0ea9 813e b8a6 99be 3046 493d 0a1b acbd
00000310: a952 a53e f0a0 2bbe 8bdc 183e b665 74be
00000320: 0977 863d d7af 063e b9e5 9e3c 702d 8dbd
00000330: 4ce3 143a 690c 89bd a344 c73d bdf8 c43d
00000340: 0c25 903c bdd5 4c3c 49b4 df3b d86e c1bd
00000350: 8713 0c3d 89f9 c6bd a0ac 623e 5fc2 eabd
00000360: c3f3 2d3e 9127 2dbe 5267 0c3e b411 3c3d
00000370: 8113 cabd b1a8 2a3d 4c82 7c3c 6c98 04bf
00000380: 033e 20bd 1b3e 24bd 1aaa c3bb 5919 4abe
00000390: 9fa3 fe3d 41b0 cdbd ddf2 8fbd 4af5 29bd
000003a0: 42d5 a23d fd91 a83d 5cd6 a53d e3f4 1abe
000003b0: 98a0 e03c 92fd 71bd 3021 1a3e c795 603e
000003c0: e996 adbd 724c 09be c9a5 1d3d d906 6abe
000003d0: 86a6 d73e accb 393d af03 e63d abd9 9abc
000003e0: 36a8 253d 4405 2f3e 96da 9b3d c79c b93d
000003f0: bfad 26be d642 01bd facc 56be d924 bdbe

flows.0.t.0.2.bias f4 [32]
0.24292925 0.05523684 0.22622822 0.07255389 -0.042216968 0.006131151 -0.0019369955 -0.010571173
0.42920467 0.32777905 -0.17028762 -0.38658 -0.05257361 -0.2271675 0.386456 0.24756733
0.27461535 -0.27988094 -0.2019411 0.052287243 0.12321752 -0.28742734 0.24461809 -0.15829998
-0.027517388 0.20713812 -0.20522998 0.020231104 -0.21327612 -0.21214582 0.079322375 -0.039916236
00000000: 72c2 783e 0640 623d 5fa8 673e 2297 943d
00000010: b3eb 2cbd d3e7 c83b c9e2 fdba b732 2dbc
00000020: b7c0 db3e a8d2 a73e e15f 2ebe d0ed c5be
00000030: 6d57 57bd 999e 68be 90dd c53e 4a82 7d3e
00000040: 629a 8c3e 8e4c 8fbe a6c9 4ebe 262b 563d
00000050: 7859 fc3d ad29 93be 2a7d 7a3e 6419 22be
00000060: 256c e1bc 041c 543e cf27 52be b3bb a53c
00000070: 0e65 5abe c13c 59be c573 a23d 357f 23bd

flows.0.t.0.4.weight f4 [64, 32]
-0.12611784 -0.0277217 0.07252445 0.013981074 0.10903722 0.04674523 0.07296243 -0.14093845
-0.07762743 -0.29237333 0.008677038 0.08112921 -0.21426806 -0.17086041 -0.066452004 0.22151361
-0.09621702 0.01908269 -0.3665424 -0.035670925 -0.09978936 -0.08218059 0.016453177 -0.18050471
-0.013994225 0.34429064 0.10777312 0.04974187 -0.11316408 -0.16531458 -0.15298909 0.15562136
0.022651177 -0.074557565 -0.20998894 -0.07892669 0.17233893 0.038845308 -0.14335133 0.13865303
0.09141675 -0.13215345 -0.00350279 -0.099441074 0.10961966 -0.14936197 -0.087015115 -0.14391395
-0.084344365 0.11737703 0.21243541 0.12699297 -0.020541934 0.0037386578 -0.025211224 -0.24533159
-0.02292535 0.24160272 0.18726574 0.06458804 -0.03604711 0.28360197 -0.17374909 0.23417814
-0.15514563 -0.15572493 -0.1764825 0.18425243 -0.13204053 0.12655343 -0.061996266 0.07296067
0.12770341 -0.13926442 -0.026915109 0.06511297 0.2916863 0.13209909 0.09081715 -0.02759277
0.22921915 -0.09612319 0.08824367 0.30696073 0.04058434 0.010569134 -0.09478429 0.0367774
0.08134125 -0.011654171 0.199812 0.00010384424 0.070630476 0.25354764 0.3473064 0.044913553
-0.013571142 -0.3916579 -0.3565526 -0.16580692 -0.0820889 -0.29700544 -0.078041345 0.05873386
-0.19043621 -0.12162024 -0.0076110316 0.01829315 0.61436266 0.032678794 -0.09371617 0.087054424
-0.13019763 -0.0028225274 0.06565349 0.040748972 -0.038796898 0.22092529 0.109934166 -0.17715938
-0.06580986 -0.06305967 0.19489492 -0.0905241 -0.020000234 0.22349173 0.11594453 0.04314914
-0.21883844 0.017366556 -0.0043091774 -0.34691906 0.12304477 -0.019278329 -0.059743144 -0.18677177
0.0062922835 -0.36258364 0.14051752 0.004978903 -0.3500118 -0.17007867 0.054376338 0.10329943
-0.26284376 -0.17401916 -0.10659158 0.14028956 0.03320095 -0.11746306 0.08713995 -0.063772224
-0.0112686 0.32835945 0.103930965 0.0406774 -0.116256796 -0.23119654 -0.26718178 0.2474533
0.0031678875 -0.0064291526 0.005094615 -0.03602126 -0.05390597 0.11205095 0.051966514 -0.10327318
0.028246764 0.00018146035 -0.08190245 0.076674744 -0.02469524 -0.041530862 0.09476167 -0.095149
-0.05687513 0.06495799 -0.080975235 0.117218085 0.020372046 -0.0020186887 -0.044205524 -0.037156466
-0.0019905688 -0.023488114 -0.18152271 0.06814345 -0.0055098766 -0.0681813 -0.021901375 -0.0030616599
0.15058349 -0.013392961 -0.18281075 0.111169204 0.13992111 0.1578794 -0.2299646 -0.10861397
-0.21367547 0.09691207 -0.004913449 -0.027309602 0.24076048 0.07590235 -0.019412534 -0.09276171
0.11784937 0.07167022 0.13453452 0.34286994 -0.114628 0.032521065 0.06008671 -0.16706806
-0.0038114688 0.045359723 0.3251055 0.016648693 -0.06537722 0.25963542 0.35543907 0.32023773
-0.06091876 -0.11872959 -0.07164385 0.13858117 -0.3684674 -0.20909022 0.15066186 0.17062382
-0.056375418 -0.20774572 0.031009179 0.04793704 -0.15648001 0.09286905 -0.05414439 0.0016573857
-0.16114761 -0.17315517 -0.1544561 -0.30307916 -0.18319367 -0.077539854 0.13794492 -0.077944875
-0.06197426 0.019506244 -0.22268769 -0.027029822 0.09806311 0.04149243 -0.21778081 -0.07243245
00000000: 0925 01be 9e18 e3bc b387 943d e010 653c
00000010: e84e df3d ed77 3f3d 546d 953d 2b52 10be
00000020: 21fb 9ebd f5b1 95be 232a 0e3c 1227 a63d
00000030: 1669 5bbe 08f6 2ebe fd17 88bd 77d4 623e
00000040: 6e0d c5bd 4d53 9c3c 72ab bbbe ad1b 12bd
00000050: 5d5e ccbd 4c4e a8bd d0c8 863c 3ad6 38be
00000060: 0948 65bc dd46 b03e 27b8 dc3d 22be 4b3d
00000070: 92c2 e7bd 3a48 29be 2ca9 1cbe 355b 1f3e
00000080: f68e b93c a3b1 98bd 5707 57be 51a4 a1bd
00000090: 9e79 303e 421c 1f3d b1ca 12be 0ffb 0d3e
000000a0: b438 bb3d 3c53 07be 108f 65bb c3a7 cbbd
000000b0: 4680 e03d 58f2 18be fb34 b2bd 2e5e 13be
000000c0: bdbc acbd 5e63 f03d ab88 593e 720a 023e
000000d0: 8f47 a8bc 4504 753b c587 cebc 3438 7bbe
000000e0: f2cd bbbc b466 773e 97c2 3f3e bc46 843d
000000f0: 22a6 13bd 4734 913e 48eb 31be 65cc 6f3e
00000100: 7fde 1ebe 5b76 1fbe d4b7 34be abac 3c3e
00000110: a235 07be 3997 013e ccef 7dbd 676c 953d
00000120: afc4 023e 559b 0ebe 137d dcbc f359 853d
00000130: e857 953e fc44 073e 58fe b93d 3c0a e2bc
00000140: 6db8 6a3e 3cdc c4bd 19b9 b43d f529 9d3e
00000150: c43b 263d 292a 2d3c 441e c2bd e6a3 163d
00000160: 3e96 a63d 23f1 3ebc 849b 4c3e f4c6 d938
00000170: b6a6 903d ffd0 813e 25d2 b13e 46f7 373d
00000180: 7f59 5ebc 6287 c8be 108e b6be 4ac9 29be
00000190: 3a1e a8bd 1911 98be 24d4 9fbd ea92 703d
000001a0: b601 43be 0814 f9bd f665 f9bb 84db 953c
000001b0: df46 1d3f 33da 053d 43ee bfbd 9749 b23d
000001c0: 8752 05be 27fa 38bb 5675 863d 65e8 263d
000001d0: 7fe9 1ebd 3d3a 623e 2a25 e13d 4569 35be
000001e0: 52c7 86bd 6e25 81bd 8992 473e b364 b9bd
000001f0: 88d7 a3bc 04db 643e 5374 ed3d 27bd 303d
00000200: 2f17 60be 4f44 8e3c 0034 8dbb 609f b1be
00000210: e5fe fb3d 96ed 9dbc 3ab5 74bd 1941 3fbe
00000220: 802f ce3b 90a4 b9be d3e3 0f3e 1126 a33b
00000230: bf34 b3be 1a29 2ebe b9b9 5e3d a78e d33d
00000240: 7593 86be 1432 32be b04c dabd 11a8 0f3e
00000250: b8fd 073d 7990 f0bd 6e76 b23d 039b 82bd
00000260: ef9f 38bc bb1e a83e c2d9 d43d 589d 263d
00000270: 0b18 eebd c9be 6cbe 0dcc 88be 6664 7d3e
00000280: 559c 4f3b a4ab d2bb baf0 a63b 078b 13bd
00000290: 82cc 5cbd f87a e53d d7da 543d e480 d3bd
000002a0: c265 e73c 6446 3e39 79bc a7bd a607 9d3d
000002b0: ac4d cabc 441c 2abd 6812 c23d 7bdd c2bd
000002c0: e5f5 68bd b208 853d 58d6 a5bd 0910 f03d
000002d0: 47e3 a63c fa4b 04bb da10 35bd 6131 18bd
000002e0: 3474 02bb 256a c0bc 17e1 39be cb8e 8b3d
000002f0: 328c b4bb a3a2 8bbd 836a b3bc 21a6 48bb
00000300: 8f32 1a3e 266e 5bbc be32 3bbe aeac e33d
00000310: 7b47 0f3e 23ab 213e d77b 6bbe 0071 debd
00000320: becd 5abe d679 c63d ff00 a1bb 63b8 dfbc
00000330: ea89 763e b172 9b3d 0907 9fbc daf9 bdbd
00000340: 035b f13d d6c7 923d 6bc3 093e a68c af3e
00000350: 16c2 eabd cf34 053d 7b1d 763d e413 2bbe
00000360: d6c9 79bb 1ecb 393d 3a74 a63e d762 883c
00000370: 7ee4 85bd efee 843e 1cfc b53e 33f6 a33e
00000380: f385 79bd 8028 f3bd 03ba 92bd 39e8 0d3e
00000390: c2a7 bcbe bf1b 56be 1a47 1a3e 03b8 2e3e
000003a0: e9e9 66bd 4bbb 54be f606 fe3c a159 443d
000003b0: 4c3c 20be 2132 be3d 82c6 5dbd a33c d93a
000003c0: e103 25be 974f 31be bd29 1ebe 312d 9bbe
000003d0: 1f97 3bbe 37cd 9ebd 6f41 0d3e 90a1 9fbd
000003e0: b9d8 7dbd 8fcb 9f3c 3e08 64be a56d ddbc
000003f0: 50d5 c83d f7f3 293d ef01 5fbe 7757 94bd

flows.0.t.0.4.bias f4 [64]
0.14046465 0.4354646 0.2447804 -0.038065847 0.060850844 0.4545491 -0.029477812 -0.034373116
1.0404139 0.29845592 0.06391975 -0.05159924 0.5224212 0.29515532 -0.3740558 -0.29622722
-0.038281128 0.15774351 -0.23988539 -0.039991416 0.18395647 0.12155439 -0.13856158 -0.3463145
0.18236354 -0.088434435 -0.23686923 -0.037453707 -0.16270755 -0.12913892 -0.04581775 -0.0016510535
-0.15603256 0.00531398 -0.16962734 0.15849261 0.1007308 -0.16376103 0.07985452 -0.10654289
-0.017180214 0.076396264 0.17043278 0.09721547 0.15068571 0.051204816 0.066689484 -0.10190503
0.07024339 -0.0134566035 0.10559119 -0.0011934934 -0.08755553 0.13712499 -0.08864626 0.066920914
-0.17203669 0.15780173 0.04320726 0.034900226 0.05054737 -0.10207208 0.07599768 -0.02141045
00000000: f7d5 0f3e 37f5 de3e b7a7 7a3e efea 1bbd
00000010: bc3e 793d a9ba e83e 747b f1bc d3ca 0cbd
00000020: 482c 853f 37cf 983e 5ce8 823d ba59 53bd
00000030: 65bd 053f 991e 973e 3e84 bfbe 18ab 97be
00000040: accc 1cbd 8487 213e 84a4 75be 0ace 23bd
00000050: 165f 3c3e 82f1 f83d 16e3 0dbe 2250 b1be
00000060: 82bd 3a3e 1d1d b5bd d98d 72be 0f69 19bd
00000070: cf9c 26be fe3c 04be 65ab 3bbd 2a68 d8ba
00000080: 00c7 1fbe e520 ae3b cab2 2dbe e34b 223e
00000090: f34b ce3d f9b0 27be c48a a33d 2933 dabd
000000a0: 85bd 8cbc a575 9c3d ee85 2e3e e818 c73d
000000b0: 5b4d 1a3e 24bc 513d 7f94 883d 96b3 d0bd
000000c0: c4db 8f3d 1679 5cbc 3240 d83d fe6e 9cba
000000d0: 5050 b3bd 7e6a 0c3e 2c8c b5bd d50d 893d
000000e0: 632a 30be c796 213e 19fa 303d 8af3 0e3d
000000f0: c20a 4f3d 2b0b d1bd aca4 9b3d f864 afbc

flows.0.t.1.0.weight f4 [32, 64]
-0.014810188 -0.017469238 0.29843432 0.14929298 -0.002890836 -0.050247725 0.32625782 -0.037528493
-0.077889755 -0.058358528 0.23362587 0.03823267 -0.04809657 0.0024196166 -0.079091184 0.28422585
-0.10230565 0.022501139 0.08530928 1.2509286 -0.04642144 -0.043415666 -0.17608252 -0.098624356
0.04784474 -0.004498432 -0.9620085 0.20955937 0.00989925 0.025483599 -0.090226315 0.21212256
-0.08089772 0.02893792 -0.00122419 -0.076583624 -0.06048788 0.07831776 -0.009188652 0.017725617
0.07490973 -0.027278036 -0.0752867 -0.06473823 0.04720193 -0.065087974 -0.003548339 -0.07971826
0.026302472 0.104816094 0.010599732 0.01777573 0.021109149 0.1130787 -0.09367767 -0.038388893
0.022692412 0.0677989 -0.050631717 0.04734248 0.05819279 0.110985026 0.09875728 0.07982206
-0.0016535927 0.026584936 -0.21388666 -0.15491384 0.020182237 0.2624013 -0.37527055 -0.17285389
-0.0052070706 -0.04118387 0.63221085 0.025312968 -0.09081131 -0.03723842 -0.14350033 -0.3457898
-0.07682532 0.022548705 -0.043443903 -0.06523071 -0.07240475 0.009549386 0.018378498 0.07787809
-0.12410609 -0.0637158 0.543623 -0.102755055 0.00060365075 -0.04737138 -0.42814565 -0.21529011
-0.116053626 -0.061930314 -0.11016995 0.053533718 0.095529184 -0.08548455 0.08781631 -0.037011743
-0.033969834 -0.0021267682 0.05873692 -0.024335265 0.049694434 0.0014847666 -0.0067541897 0.07708074
-0.09757681 -0.05706419 0.0424785 0.06798577 -0.057361588 -0.08487728 -0.034820184 -0.12191662
-0.10048813 0.08956547 -0.10831399 -0.06895432 -0.017156392 0.11680435 0.11343908 0.00985153
-0.022363203 0.027506502 0.019645253 0.18040076 0.05151767 0.029813547 0.25859523 0.13257773
0.026626268 0.1016029 -0.19807726 -0.34965107 0.03127987 0.0066720825 -0.24805184 0.19306107
-0.08310321 -0.059643015 0.31182218 -0.2928346 0.033158105 -0.014986937 -0.0103793545 -0.034436285
0.0018231332 0.011331105 0.1565209 -0.22744448 -0.013094794 -0.036959656 0.024421636 0.038196333
0.11654392 0.04831268 0.046332523 0.008871272 0.06968929 0.00482212 -0.024374664 0.073579594
0.02015911 -0.07558225 0.004978001 0.003123492 0.026664525 -0.070013344 0.009910747 -0.12395473
0.043749124 -0.03833078 -0.06680825 -0.060333848 -0.11594887 -0.098315045 -0.090602905 -0.0008633882
0.05073148 0.07026549 0.02460517 -0.07471986 -0.049827084 -0.111576244 0.04490331 -0.09181763
-0.037053656 -0.037224114 -0.13825358 -0.06670851 -0.22115727 0.012436283 -0.019939255 -0.34148204
-0.1144804 -0.042812355 -0.22803818 0.21198624 -0.104756996 -0.07714174 -0.040423147 0.022368139
-0.20141594 0.08519398 -0.07390901 0.0940665 -0.1885161 0.09913458 -0.02641473 -0.021327067
0.11366939 0.060489476 -0.32687354 0.0035404067 0.028499264 0.046520017 -0.109607436 -0.13369192
-0.10126029 -0.075236395 0.08130613 -0.035951853 0.10108271 0.033040226 -0.077530295 0.044425726
-0.09663057 -0.09277347 -0.011244282 0.052952394 -0.08857067 -0.027329087 0.06032519 0.04892546
-0.095370725 0.068654716 -0.053208873 0.033679083 -0.06418568 0.06239593 -0.04395795 0.11577986
-0.023626506 -0.106592596 0.06325938 -0.023067191 -0.028789997 0.030105531 -0.08118035 -0.067257985
00000000: 6ea6 72bc a61b 8fbc 62cc 983e 42e0 183e
00000010: 2e74 3dbb 8fd0 4dbd 440b a73e 7ab7 19bd
00000020: aa84 9fbd 5a09 6fbd 9f3b 6f3e dc99 1c3d
00000030: e900 45bd 6e92 1e3b 8ffa a1bd 0d86 913e
00000040: a085 d1bd 4f54 b83c a2b6 ae3d 6e1e a03f
00000050: 6824 3ebd a0d4 31bd fa4e 34be 91fb c9bd
00000060: d9f8 433d 9567 93bb 3046 76bf bb96 563e
00000070: 7730 223c fbc2 d03c 93c8 b8bd a836 593e
00000080: b4ad a5bd 380f ed3c 0075 a0ba e0d7 9cbd
00000090: 24c2 77bd 1065 a03d 008c 16bc 5035 913c
000000a0: 466a 993d 3076 dfbc ea2f 9abd 7a95 84bd
000000b0: d056 413d d84c 85bd 408b 68bb 5443 a3bd
000000c0: 4878 d73c d2a9 d63d 80aa 2d3c 689e 913c
000000d0: 18ed ac3c ce95 e73d 14da bfbd ac3d 1dbd
000000e0: 70e5 b93c 26da 8a3d 3463 4fbd 30ea 413d
000000f0: 905b 6e3d 1e4c e33d 4241 ca3d c079 a33d
00000100: 5dbd d8ba a7c8 d93c 1b05 5bbe bca1 1ebe
00000110: 3855 a53c 7759 863e 7623 c0be 9c00 31be
00000120: 13a0 aabb 6bb0 28bd 92d8 213f 245d cf3c
00000130: 48fb b9bd 5087 18bd c0f1 12be 5c0b b1be
00000140: 9856 9dbd 10b8 b83c 3cf2 31bd ae97 85bd
00000150: f148 94bd 0775 1c3c 818e 963c 8c7e 9f3d
00000160: 552b febd 6e7d 82bd e02a 0b3f 3e71 d2bd
00000170: 513e 1e3a 7e08 42bd e835 dbbe 0375 5cbe
00000180: 86ad edbd a4aa 7dbd c8a0 e1bd 2c46 5b3d
00000190: cea4 c33d 8612 afbd 0ad9 b33d a099 17bd
000001a0: f423 0bbd 4061 0bbb 2096 703d c05a c7bc
000001b0: 648c 4b3d 809c c23a 4052 ddbb 82dc 9d3d
000001c0: 5ad6 c7bd 24bc 69bd f0fd 2d3d 203c 8b3d
000001d0: fcf3 6abd 24d4 adbd 9c9f 0ebd 6caf f9bd
000001e0: b8cc cdbd 1a6e b73d bad3 ddbd ec37 8dbd
000001f0: 908b 8cbc 1e37 ef3d c052 e83d 5068 213c
00000200: 0933 b7bc 5155 e13c 15ef a03c faba 383e
00000210: 3104 533d 8a3b f43c 9866 843e 75c2 073e
00000220: 551f da3c 2e15 d03d c4d4 4abe 7705 b3be
00000230: 521f 003d 7ca1 da3b 4d01 7ebe cdb1 453e
00000240: 0432 aabd 3c4c 74bd 28a7 9f3e 6bee 95be
00000250: cbd0 073d c58b 75bc 2b0e 2abc 100d 0dbd
00000260: 33f6 ee3a 19a6 393c 0447 203e 35e7 68be
00000270: 8c8b 56bc 0263 17bd e20f c83c c273 1c3d
00000280: 94ae ee3d 84e3 453d 2cc7 3d3d d058 113c
00000290: 42b9 8e3d e002 9e3b 60ad c7bc e6b0 963d
000002a0: b824 a53c deca 9abd 801e a33b 80b3 4c3b
000002b0: 906f da3c 2863 8fbd b060 223c fadb fdbd
000002c0: 4832 333d bc00 1dbd c4d2 88bd a020 77bd
000002d0: 9a76 edbd 6659 c9bd 048e b9bd 0055 62ba
000002e0: d0cb 4f3d 5ae7 8f3d c890 c93c ba06 99bd
000002f0: 7c17 4cbd 1682 e4bd 88ec 373d e20a bcbd
00000300: 93c5 17bd 5078 18bd 5992 0dbe 799e 88bd
00000310: 0d77 62be 8dc1 4b3c a657 a3bc bcd6 aebe
00000320: b374 eabd 025c 2fbd d782 69be ec12 593e
00000330: d68a d6bd 7dfc 9dbd be92 25bd 633d b73c
00000340: fb3f 4ebe 2e7a ae3d 9b5d 97bd f0a5 c03d
00000350: 5d0a 41be 1207 cb3d b463 d8bc 1ab6 aebc
00000360: 7fcb e83d d0c3 773d f85b a7be 2b06 683b
00000370: 4a77 e93c c68b 3e3d dd79 e0bd 89e6 08be
00000380: 8e61 cfbd 8a15 9abd d483 a63d 4042 13bd
00000390: 7404 cf3d 3055 073d 34c8 9ebd c0f7 353d
000003a0: 40e6 c5bd 0400 bebd f039 38bc 9ce4 583d
000003b0: 8a64 b5bd 40e1 dfbc 8c17 773d 1066 483d
000003c0: ba51 c3bd d89a 8c3d 8cf1 59bd 14f3 093d
000003d0: c873 83bd e092 7f3d 400d 34bd fe1d ed3d
000003e0: 608c c1bc 384d dabd 228e 813d 68f7 bcbc
000003f0: 00d9 ebbc e09f f63c e241 a6bd 8ebe 89bd

flows.0.t.1.0.bias f4 [32]
0.12977885 0.07478733 0.12986515 -0.0023880817 0.14557697 0.038890578 0.094781585 -0.0027026213
0.23308529 0.16731444 0.41269562 0.25987095 0.025695149 0.11576611 0.03900294 0.052972425
0.07875874 0.017441528 0.10766044 0.036009185 -0.044158608 0.070805565 -0.23039831 -0.13505943
0.03047443 0.2083316 0.1182545 0.19759102 0.094184555 0.07570231 0.1981672 -0.018525094
00000000: bfe4 043e 1a2a 993d 5ffb 043e 5d81 1cbb
00000010: 2112 153e ba4b 1f3d d91c c23d 761e 31bb
00000020: e9ad 6e3e 7a54 2b3e d74c d33e ce0d 853e
00000030: a27e d23c c816 ed3d 8cc1 1f3d 9df9 583d
00000040: 434c a13d 89e1 8e3c 147d dc3d 5e7e 133d
00000050: a8df 34bd 8202 913d 89ed 6bbe 054d 0abe
00000060: 83a5 f93c e154 553e 6a2f f23d 4d55 4a3e
00000070: d5e3 c03d d009 9b3d 58ec 4a3e f0c1 97bc

flows.0.t.1.2.weight f4 [32, 32]
0.15592661 -0.049463004 9.798041e-05 0.19543472 0.01568379 -0.34617266 0.044699464 0.18031764
-0.09446954 0.07800922 -0.2523579 0.17427824 0.07115803 -0.058860216 -0.08910157 0.1652793
-0.036031477 -0.43575355 -0.07315407 0.19830436 -0.30013087 0.068690255 0.015467428 0.1751184
-0.14285344 -0.03305034 -0.076695345 0.034726582 -0.13962403 -0.36097208 -0.13152786 0.033805165
0.028938234 0.08200773 0.01966199 0.047838118 0.28896192 0.12643999 0.23140873 0.37277794
0.17359278 0.08430876 -0.19008449 -0.046241816 0.019614125 -0.09809077 -0.087195516 0.06287477
-0.103326 0.24811693 0.06586951 -0.022187242 -0.0341232 0.25227144 0.35121748 0.05857093
0.09686158 -0.19046755 0.054385997 0.0008290957 -0.12947226 0.1079101 -0.112296626 -0.17856024
-0.012998929 0.0854894 -0.01078056 0.13357207 0.25107533 -0.021110492 -0.122467384 -0.2003597
0.12908603 0.12301704 0.031668376 0.03473947 0.15311506 -0.20014232 -0.014526337 -0.0400451
0.020571856 -0.023573339 0.036797166 0.20014986 0.1264682 0.06235263 -0.09352844 -0.023926869
-0.15050681 0.07468284 0.15956122 0.1082074 0.11055938 0.05017048 -0.16243641 0.07269062
0.0621543 -0.018720713 0.07612713 -0.20528702 -0.0102350935 0.019739946 0.08791418 -0.11780977
-0.12553929 0.09333915 -0.15075904 0.060536675 -0.0685389 0.007158605 -0.0016034539 -0.040151488
0.08960269 -0.23015161 0.03432837 0.0625951 -0.031230416 -0.22652738 -0.042268824 -0.027124375
0.062185384 0.04809235 0.050873533 -0.08490924 0.16350043 -0.1495679 0.030851442 0.020074153
-0.061253697 0.026077798 0.034145072 -0.27486676 -0.2620903 0.054003928 -0.0028273193 0.13274436
-0.1288398 0.19290268 0.06966316 0.040347174 0.16259938 0.0019287887 0.088707946 0.1269217
0.0908741 -0.06481852 -0.1351828 0.02698759 0.041786432 -0.20012362 0.0802204 0.01692929
-0.054222908 -0.03049945 -0.025014497 0.028647333 0.15504634 -0.05039783 0.12117913 -0.049672678
0.1250272 -0.0252401 0.105361216 -0.23094954 -0.23034687 0.027955996 0.15541685 0.11259696
-0.15185045 -0.006674554 0.008683749 0.08342282 -0.037779644 0.08409183 0.019461624 0.023924997
0.20708756 -0.11550477 0.13736305 -0.14444563 -0.058983393 -0.11989822 0.019308174 -0.07224616
0.18714254 -0.025971044 -0.05431819 0.1406573 0.0996097 0.02098718 0.2106286 0.19916856
-0.18863533 0.18669616 0.066094 -0.003632755 -0.11519633 -0.03713984 0.061780203 0.061574645
-0.009553356 0.17543477 0.066359244 0.043592013 -0.014916074 0.009683965 -0.038486227 0.11142053
-0.11103285 -0.112758994 -0.04393503 0.06933235 0.004400434 0.122897424 -0.112196125 0.05421191
-0.0043031927 0.09769222 -0.05700297 -0.051864978 0.115167916 -0.15351456 0.06893261 -0.116191804
-0.12147809 0.17507571 -0.028764967 0.10604394 0.037409868 0.0661884 -0.16995034 0.06775124
0.00080866594 -0.06691509 -0.18458965 -0.01172154 0.15404105 0.0103655225 0.13689889 -0.0130851595
0.02097672 -0.029627632 -0.14719354 -0.08819715 0.10535015 0.06681102 0.038999464 -0.006372914
-0.055819083 -0.02986812 0.16175789 -0.026479814 0.12541944 -0.07420826 0.09527553 -0.063618526
00000000: 3aab 1f3e b899 4abd d57a cd38 0a20 483e
00000010: 4b7b 803c 8b3d b1be c916 373d 30a5 383e
00000020: 3f79 c1bd 4cc3 9f3d 0e35 81be ff75 323e
00000030: 4dbb 913d 6917 71bd e27a b6bd fa3e 293e
00000040: be95 13bd 171b dfbe cdd1 95bd 4c10 4b3e
00000050: c1aa 99be 7aad 8c3d 186b 7d3c 3d52 333e
00000060: 2c48 12be cb5f 07bd 7312 9dbd 763d 0e3d
00000070: 9af9 0ebe 55d1 b8be 3daf 06be 4977 0a3d
00000080: e00f ed3c abf3 a73d 2f12 a13c e7f1 433d
00000090: d1f2 933e 7c79 013e 69f6 6c3e c0dc be3e
000000a0: 4ec2 313e 12aa ac3d 82a5 42be 0f68 3dbd
000000b0: cdad a03c d0e3 c8bd 9093 b2bd 7dc4 803d
000000c0: 959c d3bd 5d12 7e3e 98e6 863d 05c2 b5bc
000000d0: c5c4 0bbd b929 813e c7d2 b33e 12e8 6f3d
000000e0: 5d5f c63d ed09 43be dac3 5e3d ac57 593a
000000f0: 6094 04be f8ff dc3d c6fb e5bd 7fd8 36be
00000100: 76f9 54bc 1115 af3d f2a0 30bc 1ec7 083e
00000110: f28c 803e e9ef acbc 2ed0 fabd 182b 4dbe
00000120: 212f 043e 5cf0 fb3d b3b6 013d f94a 0e3d
00000130: 32ca 1c3e 1cf2 4cbe e0ff 6dbc 5506 24bd
00000140: 4f86 a83c e01c c1bc a0b8 163d 16f4 4c3e
00000150: e180 013e 7965 7f3d d78b bfbd 4802 c4bc
00000160: 751e 1abe 51f3 983d 0464 233e d79b dd3d
00000170: f56c e23d 907f 4d3d bb55 26be d2de 943d
00000180: 8295 7e3d 2e5c 99bc 8ae8 9b3d c336 52be
00000190: 18b1 27bc abb5 a13c 590c b43d 4046 f1bd
000001a0: 5f8d 00be 9928 bf3d 9460 1abe 4ef5 773d
000001b0: 1f5e 8cbd bb92 ea3b fc2a d2ba e375 24bd
000001c0: 9d81 b73d ddac 6bbe e89b 0c3d dc31 803d
000001d0: eed6 ffbc cbf6 67be 1322 2dbd f033 debc
000001e0: 1ab6 7e3d 7cfc 443d c460 503d e5e4 adbd
000001f0: a86c 273e 5428 19be 2abc fc3c 8d72 a43c
00000200: 28e5 7abd 1ba1 d53c b4db 0b3d 56bb 8cbe
00000210: b330 86be 3933 5d3d 8c4a 39bb 23ee 073e
00000220: 95ee 03be 4888 453e 8fab 8e3d 1443 253d
00000230: 7480 263e 69cf fc3a 83ac b53d c3f7 013e
00000240: 331c ba3d 92bf 84bd 5c6d 0abe 1415 dd3c
00000250: 4028 2b3d 35ed 4cbe 984a a43d 4baf 8a3c
00000260: d718 5ebd fcd9 f9bc 34eb ccbc d0ad ea3c
00000270: 78c4 1e3e f46d 4ebd c42c f83d 9475 4bbd
00000280: 2107 003e 54c4 cebc 9fc7 d73d 097e 6cbe
00000290: 0de0 6bbe f903 e53c 9825 1f3e 3c99 e63d
000002a0: af7e 1bbe 38b6 dabb 4846 0e3c 95d9 aa3d
000002b0: d4be 1abd 5638 ac3d fc6d 9f3c 5bfe c33c
000002c0: c30e 543e c48d ecbd e6a8 0c3e 8ee9 13be
000002d0: 9298 71bd 338d f5bd 2d2c 9e3c cbf5 93bd
000002e0: 4ba2 3f3e 3ac1 d4bc c07c 5ebd 7808 103e
000002f0: 2c00 cc3d 4eed ab3c 06af 573e d8f2 4b3e
00000300: 9f29 41be 472d 3f3e 4b5c 873d 8413 6ebb
00000310: 0eec ebbd f21f 18bd 3d0d 7d3d b235 7c3d
00000320: ae85 1cbc 2ca5 333e 5be7 873d 8a8d 323d
00000330: 8d62 74bc 7ea9 1e3c bca3 1dbd 7230 e43d
00000340: 3165 e3bd 30ee e6bd 38f5 33bd 1efe 8d3d
00000350: 8431 903b a5b1 fb3d 15c7 e5bd 4f0d 5e3d
00000360: cc01 8dbb dc12 c83d f27b 69bd 5f70 54bd
00000370: 28dd eb3d ec32 1dbe 8a2c 8d3d f8f5 edbd
00000380: 81c9 f8bd 0c47 333e 82a4 ebbc 912d d93d
00000390: 173b 193d c98d 873d 7607 2ebe 2ac1 8a3d
000003a0: a7fc 533a c70a 89bd 1205 3dbe b40b 40bc
000003b0: f0bc 1d3e 27d4 293c 392f 0c3e 2363 56bc
000003c0: 5fd7 ab3c a6b5 f2bc e7b9 16be b5a0 b4bd
000003d0: d2c1 d73d 37d4 883d e7bd 1f3d e1d3 d0bb
000003e0: 8da2 64bd fdad f4bc dca3 253e 32ec d8bc
000003f0: f46d 003e 80fa 97bd d11f c33d 6e4a 82bd

flows.0.t.1.2.bias f4 [32]
0.042117935 -0.23627236 -0.0854974 0.05732859 -0.10072418 0.15849575 0.11992641 0.004341516
0.28486416 0.20471686 0.41720152 -0.016018989 -0.021598747 -0.09307759 0.24575873 0.3157086
-0.35471004 0.08957676 -0.0034328408 0.25682846 -0.090129554 0.119913556 0.62416226 0.069315925
0.00018478418 0.16761477 0.078726605 -0.18320633 -0.14697479 -0.15049793 0.15359053 -0.093545355
00000000: db83 2c3d 62f1 71be 4319 afbd 62d1 6a3d
00000010: 7b48 cebd b64c 223e fa9b f53d 4743 8e3b
00000020: b7d9 913e 4ca1 513e 709b d53e 413a 83bc
00000030: dbef b0bc 779f bebd 2da8 7b3e 8fa4 a13e
00000040: 8e9c b5be 0574 b73d 83f9 60bb 057f 833e
00000050: d895 b8bd 3d95 f53d 19c9 1f3f 82f5 8d3d
00000060: a0c2 4139 35a3 2b3e 6a3b a13d 719a 3bbe
00000070: 8f80 16be 211c 1abe d646 1d3e b594 bfbd

flows.0.t.1.4.weight f4 [64, 32]
-0.10660356 0.12729418 -0.08601052 0.0055059167 -0.17520702 0.09411781 -0.14557628 -0.036446635
-0.16256897 0.108312 -0.0676082 -0.10731346 0.024626656 -0.0032830709 0.098862216 -0.16779223
-0.14654931 0.07415988 -0.1593807 -0.14997438 0.039823376 0.024960838 -0.028012818 -0.07075135
0.16699156 0.028750662 0.17084458 0.055852477 -0.050241657 -0.09388552 0.06814863 0.092520595
0.10538082 -0.08488514 0.13372207 0.031340312 0.15420838 0.16963889 -0.15499586 -0.13606967
-0.12265504 -0.11450241 -0.11695687 0.16534805 0.010236036 -0.006414076 0.119159736 0.15892814
-0.010017969 0.06976317 -0.061935656 -0.09147284 -0.08792606 0.16797042 0.03664696 -0.15388957
0.054792166 -0.037306514 0.02715945 0.17061158 -0.14173402 0.013524965 -0.11680955 0.08779363
0.010343701 0.13300093 0.079155765 -0.15366311 -0.082798034 0.06283964 -0.16022263 0.13851029
-0.1465169 0.17339453 -0.071311034 0.03539779 0.0994913 -0.12761001 0.15966743 0.014394202
-0.088942915 -0.08183234 -0.16771752 0.054600716 -0.06945141 0.144867 0.010852307 -0.1317653
0.062395163 0.013735237 -0.07022443 0.07574153 0.086622015 -0.09879386 0.07617731 0.016566303
0.056753535 -0.044724192 0.037226412 -0.01651914 -0.06324853 -0.06964092 -0.14229442 -0.0470531
0.12900712 -0.1572987 0.052892797 -0.040363297 0.097786985 0.05250905 0.009970195 0.11612217
-0.16192076 0.06782286 0.08967538 -0.16496217 -0.15919001 -0.007871346 -0.06306486 -0.15149613
0.00831395 0.03985844 0.04792105 -0.07413382 0.09118249 0.14918672 -0.06573922 -0.11513973
-0.14379181 -0.107537135 0.15606499 -0.057336424 -0.10333457 -0.15935388 0.018177262 -0.09437897
-0.105160914 0.10640406 0.08656931 0.071128346 0.15620413 0.17511076 0.17313786 0.0878617
0.029719934 0.07627498 -0.070395544 -0.009512333 0.0984842 -0.07832067 -0.104535334 0.05860599
0.039619997 -0.15410228 0.09646855 0.0006917351 -0.05720977 -0.044229176 0.12169289 -0.118545994
0.08126663 -0.057136036 -0.13268852 0.115465336 0.027180482 0.033616137 -0.15444905 0.1740286
0.03116909 0.055502824 0.07055696 -0.082886584 0.14773585 0.07359426 -0.06779763 0.17518696
0.0008686255 0.17270748 0.08316639 0.01574836 0.06853745 -0.16111198 -0.0133600235 0.12832376
-0.017727723 0.030579455 0.015016121 0.1359855 0.07513801 -0.008288515 -0.040391978 -0.059638865
0.1247377 0.014644343 -0.1748509 0.13208342 0.13764526 0.0069306907 0.13148108 0.038164075
-0.067642696 0.13659433 -0.13875435 0.10381161 -0.023203146 -0.16285339 0.13973443 0.15174547
-0.17538112 -0.07873035 0.049229752 -0.009460028 -0.053511787 -0.1262638 -0.03366551 -0.10471907
-0.15426534 0.13580203 -0.003162531 -0.024084605 -0.076970555 -0.075411096 -0.069216736 -0.033648927
0.09359182 0.13959989 -0.09034577 -0.110901065 -0.111736454 -0.11255038 -0.08271538 0.10850289
0.07393526 -0.06802415 -0.08624442 -0.016622212 -0.06913219 -0.16336845 0.013647381 0.13288501
-0.06294935 -0.100299805 0.16792278 0.16190046 -0.06804476 -0.09959266 0.17186323 0.04123829
0.04569064 -0.16449243 -0.1015467 -0.13457291 0.16449188 0.075828224 -0.1038936 0.043915436
00000000: f852 dabd 6859 023e 4926 b0bd fa6a b43b
00000010: 7869 33be d7c0 c03d f311 15be 1149 15bd
00000020: 7b78 26be afd2 dd3d 2b76 8abd 29c7 dbbd
00000030: d7bd c93c ca28 57bb 4678 ca3d bad1 2bbe
00000040: 0611 16be 23e1 973d b234 23be e292 19be
00000050: d61d 233d ac7a cc3c 237b e5bc 15e6 90bd
00000060: d6ff 2a3e 8286 eb3c e2f1 2e3e 91c5 643d
00000070: 32ca 4dbd 0d47 c0bd 8291 8b3d 707b bd3d
00000080: e6d1 d73d 43d8 adbd 70ee 083e b35e 003d
00000090: cde8 1d3e d1b5 2d3e 3cb7 1ebe d955 0bbe
000000a0: 9132 fbbd 3d80 eabd 1587 efbd 0051 293e
000000b0: 0cb5 273c 2b2d d2bb 050a f43d 0fbe 223e
000000c0: 6822 24bc fedf 8e3d 3eb0 7dbd 1d56 bbbd
000000d0: 9412 b4bd 7000 2c3e 1f1b 163d 3a95 1dbe
000000e0: c06d 603d b7ce 18bd 7f7d de3c cdb4 2e3e
000000f0: b922 11be d197 5d3c d839 efbd 26cd b33d
00000100: a078 293c 6531 083e 6b1c a23d dd59 1dbe
00000110: 0492 a9bd 12b2 803d 6711 24be a4d5 0d3e
00000120: 8708 16be 568e 313e 850b 92bd 46fd 103d
00000130: 18c2 cb3d 33ac 02be dc7f 233e a9d5 6b3c
00000140: b427 b6bd b797 a7bd 24be 2bbe 00a5 5f3d
00000150: 8a3c 8ebd 0458 143e e0cd 313c 7ced 06be
00000160: 1292 7f3d c209 613c d3d1 8fbd 601e 9b3d
00000170: e266 b13d 6f54 cabd d902 9c3d 0eb6 873c
00000180: 6576 683d b730 37bd b97a 183d 2653 87bc
00000190: 7288 81bd e69f 8ebd a1b5 11be c0ba 40bd
000001a0: 711a 043e e912 21be 1ea6 583d fc53 25bd
000001b0: 8b44 c83d bb13 573d 075a 233c 76d1 ed3d
000001c0: 8ece 25be b6e6 8a3d baa7 b73d d8eb 28be
000001d0: b502 23be d1f6 00bc 2628 81bd cd21 1bbe
000001e0: 3c37 083c 9b42 233d dd48 443d 79d3 97bd
000001f0: e3bd ba3d 67c4 183e 49a2 86bd 61ce ebbd
00000200: 293e 13be 6e3c dcbd 80cf 1f3e 99d9 6abd
00000210: 13a1 d3bd aa2d 23be 7be8 943c c349 c1bd
00000220: 9b5e d7bd 5fea d93d 404b b13d bdab 913d
00000230: faf3 1f3e 3c50 333e 0d4b 313e d6f0 b33d
00000240: 3877 f33c 0f36 9c3d 8a2b 90bd 9ed9 1bbc
00000250: 16b2 c93d 9666 a0bd 9f16 d6bd d60c 703d
00000260: 9448 223d fdcc 1dbe 4e91 c53d 8f55 353a
00000270: cb54 6abd a729 35bd 1f3a f93d 3ec8 f2bd
00000280: 1e6f a63d 7a07 6abd 80df 07be 1779 ec3d
00000290: 9aa9 de3c 13b1 093d e427 1ebe 8e34 323e
000002a0: 5256 ff3c ee56 633d 2b80 903d 71c0 a9bd
000002b0: 1148 173e 96b8 963d 7cd9 8abd 3664 333e
000002c0: 78b4 633a 3bda 303e 2453 aa3d b402 813c
000002d0: 5d5d 8c3d 8afa 24be 00e4 5abc 4e67 033e
000002e0: bb39 91bc c481 fa3c 2d06 763c c83f 0b3e
000002f0: f5e1 993d 8dcc 07bc 0f72 25bd e247 74bd
00000300: 7b76 ff3d d4ee 6f3c 1d0c 33be e040 073e
00000310: e1f2 0c3e d91a e33b faa2 063e ef51 1c3d
00000320: 4188 8abd 62df 0b3e 9f15 0ebe 2e9b d43d
00000330: 8614 bebc 0ac3 26be 8b16 0f3e 2a63 1b3e
00000340: 1c97 33be 613d a1bd 23a5 493d 3cfe 1abc
00000350: 2d2f 5bbd 4c4b 01be d9e4 09bd f476 d6bd
00000360: bcf7 1dbe b00f 0b3e 7742 4fbb 144d c5bc
00000370: bda2 9dbd 2271 9abd 81c1 8dbd 75d3 09bd
00000380: 11ad bf3d 46f3 0e3e 3407 b9bd 1920 e3bd
00000390: 15d6 e4bd d080 e6bd ae66 a9bd c336 de3d
000003a0: 5f6b 973d 3f50 8bbd eaa0 b0bd 4e2b 88bc
000003b0: 2d95 8dbd 0f4a 27be 4499 5f3c 0213 083e
000003c0: 97eb 80bd fc69 cdbd f3f3 2b3e 3cc9 253e
000003d0: 0d5b 8bbd 3df7 cbbd eafc 2f3e 7be9 283d
000003e0: 1c26 3b3d b470 28be b7f7 cfbd 7bcd 09be
000003f0: 8f70 283e d44b 9b3d 2bc6 d4bd ace0 333d

flows.0.t.1.4.bias f4 [64]
-0.07479671 0.15894152 -0.07174333 0.13315164 0.1290821 0.06015413 -0.03312618 0.14994879
0.051922157 0.09671747 0.036645316 0.024623832 -0.066867895 0.06904754 -0.062825605 0.07989276
0.03401729 0.1595754 0.0035567726 -0.13235356 -0.043237902 -0.025370758 -0.09897051 -0.1635609
0.028101243 0.07715554 -0.138183 0.064334065 0.022165239 0.14498651 0.050361227 0.16545674
0.1691532 0.1993093 -0.37099564 0.030596063 0.3094711 0.07049054 -0.33433837 -0.14074981
-0.03253203 0.18245935 -0.39851606 -0.31974202 0.13581054 0.1187024 -0.5405569 -0.24304944
0.10190255 0.35541987 -0.66632557 -0.51213676 0.24160503 0.014639369 -0.109965466 0.0072409054
0.16446304 0.020444017 -0.37162617 -0.025007745 0.33092475 0.2060244 -0.51589835 -0.084047675
00000000: 042f 99bd 91c1 223e 2bee 92bd e758 083e
00000010: 192e 043e 2d64 763d 51af 07bd 2d8c 193e
00000020: 54ac 543d cf13 c63d 6619 163d ebb7 c93c
00000030: 09f2 88bd cc68 8d3d b6aa 80bd d19e a33d
00000040: b755 0b3d bc67 233e be18 693b b187 07be
00000050: 3a1a 31bd 56d6 cfbc 0db1 cabd 827c 27be
00000060: 9434 e63c b903 9e3d d87f 0dbe 94c1 833d
00000070: e093 b53c 5877 143e 9347 4e3d 7e6d 293e
00000080: 7f36 2d3e bd17 4c3e 24f3 bdbe 98a4 fa3c
00000090: ff72 9e3e 585d 903d 662e abbe b820 10be
000000a0: 4e40 05bd a0d6 3a3e 4c0a ccbe 3ab5 a3be
000000b0: eb11 0b3e 3e1a f33d f061 0abf f4e1 78be
000000c0: 49b2 d03d 98f9 b53e 5094 2abf 651b 03bf
000000d0: 4f67 773e f7d9 6f3c 9335 e1bd 1e45 ed3b
000000e0: 0069 283e 367a a73c c945 bebe 0bdd ccbc
000000f0: f86e a93e 0ff8 523e ea11 04bf 3021 acbd
