exp/code_for_Boids/Data/model_16birds_2groups_2path_kde_noise_04_800000.pkl (torch, 548793 bytes, 196 tensors)

flows.0.mask f4 [6, 64]
000000 00 00 00 00 00 00 00 00 00 00 00 00 00 00 00 00
       0.0 0.0 0.0 0.0
000010 00 00 00 00 00 00 00 00 00 00 00 00 00 00 00 00
       0.0 0.0 0.0 0.0
000020 00 00 00 00 00 00 00 00 00 00 00 00 00 00 00 00
       0.0 0.0 0.0 0.0
000030 00 00 00 00 00 00 00 00 00 00 00 00 00 00 00 00
       0.0 0.0 0.0 0.0
000040 00 00 00 00 00 00 00 00 00 00 00 00 00 00 00 00
       0.0 0.0 0.0 0.0
000050 00 00 00 00 00 00 00 00 00 00 00 00 00 00 00 00
       0.0 0.0 0.0 0.0
000060 00 00 00 00 00 00 00 00 00 00 00 00 00 00 00 00
       0.0 0.0 0.0 0.0
000070 00 00 00 00 00 00 00 00 00 00 00 00 00 00 00 00
       0.0 0.0 0.0 0.0
000080 00 00 80 3f 00 00 80 3f 00 00 80 3f 00 00 80 3f
       1.0 1.0 1.0 1.0
000090 00 00 80 3f 00 00 80 3f 00 00 80 3f 00 00 80 3f
       1.0 1.0 1.0 1.0
0000a0 00 00 80 3f 00 00 80 3f 00 00 80 3f 00 00 80 3f
       1.0 1.0 1.0 1.0
0000b0 00 00 80 3f 00 00 80 3f 00 00 80 3f 00 00 80 3f
       1.0 1.0 1.0 1.0
0000c0 00 00 80 3f 00 00 80 3f 00 00 80 3f 00 00 80 3f
       1.0 1.0 1.0 1.0
0000d0 00 00 80 3f 00 00 80 3f 00 00 80 3f 00 00 80 3f
       1.0 1.0 1.0 1.0
0000e0 00 00 80 3f 00 00 80 3f 00 00 80 3f 00 00 80 3f
       1.0 1.0 1.0 1.0
0000f0 00 00 80 3f 00 00 80 3f 00 00 80 3f 00 00 80 3f
       1.0 1.0 1.0 1.0
000100 00 00 80 3f 00 00 80 3f 00 00 80 3f 00 00 80 3f
       1.0 1.0 1.0 1.0
000110 00 00 80 3f 00 00 80 3f 00 00 80 3f 00 00 80 3f
       1.0 1.0 1.0 1.0
000120 00 00 80 3f 00 00 80 3f 00 00 80 3f 00 00 80 3f
       1.0 1.0 1.0 1.0
000130 00 00 80 3f 00 00 80 3f 00 00 80 3f 00 00 80 3f
       1.0 1.0 1.0 1.0
000140 00 00 80 3f 00 00 80 3f 00 00 80 3f 00 00 80 3f
       1.0 1.0 1.0 1.0
000150 00 00 80 3f 00 00 80 3f 00 00 80 3f 00 00 80 3f
       1.0 1.0 1.0 1.0
000160 00 00 80 3f 00 00 80 3f 00 00 80 3f 00 00 80 3f
       1.0 1.0 1.0 1.0
000170 00 00 80 3f 00 00 80 3f 00 00 80 3f 00 00 80 3f
       1.0 1.0 1.0 1.0
000180 00 00 00 00 00 00 00 00 00 00 00 00 00 00 00 00
       0.0 0.0 0.0 0.0
000190 00 00 00 00 00 00 00 00 00 00 00 00 00 00 00 00
       0.0 0.0 0.0 0.0
0001a0 00 00 00 00 00 00 00 00 00 00 00 00 00 00 00 00
       0.0 0.0 0.0 0.0
0001b0 00 00 00 00 00 00 00 00 00 00 00 00 00 00 00 00
       0.0 0.0 0.0 0.0
0001c0 00 00 00 00 00 00 00 00 00 00 00 00 00 00 00 00
       0.0 0.0 0.0 0.0
0001d0 00 00 00 00 00 00 00 00 00 00 00 00 00 00 00 00
       0.0 0.0 0.0 0.0
0001e0 00 00 00 00 00 00 00 00 00 00 00 00 00 00 00 00
       0.0 0.0 0.0 0.0
0001f0 00 00 00 00 00 00 00 00 00 00 00 00 00 00 00 00
       0.0 0.0 0.0 0.0
000200 00 00 00 00 00 00 00 00 00 00 00 00 00 00 00 00
       0.0 0.0 0.0 0.0
000210 00 00 00 00 00 00 00 00 00 00 00 00 00 00 00 00
       0.0 0.0 0.0 0.0
000220 00 00 00 00 00 00 00 00 00 00 00 00 00 00 00 00
       0.0 0.0 0.0 0.0
000230 00 00 00 00 00 00 00 00 00 00 00 00 00 00 00 00
       0.0 0.0 0.0 0.0
000240 00 00 00 00 00 00 00 00 00 00 00 00 00 00 00 00
       0.0 0.0 0.0 0.0
000250 00 00 00 00 00 00 00 00 00 00 00 00 00 00 00 00
       0.0 0.0 0.0 0.0
000260 00 00 00 00 00 00 00 00 00 00 00 00 00 00 00 00
       0.0 0.0 0.0 0.0
000270 00 00 00 00 00 00 00 00 00 00 00 00 00 00 00 00
       0.0 0.0 0.0 0.0
000280 00 00 80 3f 00 00 80 3f 00 00 80 3f 00 00 80 3f
       1.0 1.0 1.0 1.0
000290 00 00 80 3f 00 00 80 3f 00 00 80 3f 00 00 80 3f
       1.0 1.0 1.0 1.0
0002a0 00 00 80 3f 00 00 80 3f 00 00 80 3f 00 00 80 3f
       1.0 1.0 1.0 1.0
0002b0 00 00 80 3f 00 00 80 3f 00 00 80 3f 00 00 80 3f
       1.0 1.0 1.0 1.0
0002c0 00 00 80 3f 00 00 80 3f 00 00 80 3f 00 00 80 3f
       1.0 1.0 1.0 1.0
0002d0 00 00 80 3f 00 00 80 3f 00 00 80 3f 00 00 80 3f
       1.0 1.0 1.0 1.0
0002e0 00 00 80 3f 00 00 80 3f 00 00 80 3f 00 00 80 3f
       1.0 1.0 1.0 1.0
0002f0 00 00 80 3f 00 00 80 3f 00 00 80 3f 00 00 80 3f
       1.0 1.0 1.0 1.0
000300 00 00 80 3f 00 00 80 3f 00 00 80 3f 00 00 80 3f
       1.0 1.0 1.0 1.0
000310 00 00 80 3f 00 00 80 3f 00 00 80 3f 00 00 80 3f
       1.0 1.0 1.0 1.0
000320 00 00 80 3f 00 00 80 3f 00 00 80 3f 00 00 80 3f
       1.0 1.0 1.0 1.0
000330 00 00 80 3f 00 00 80 3f 00 00 80 3f 00 00 80 3f
       1.0 1.0 1.0 1.0
000340 00 00 80 3f 00 00 80 3f 00 00 80 3f 00 00 80 3f
       1.0 1.0 1.0 1.0
000350 00 00 80 3f 00 00 80 3f 00 00 80 3f 00 00 80 3f
       1.0 1.0 1.0 1.0
000360 00 00 80 3f 00 00 80 3f 00 00 80 3f 00 00 80 3f
       1.0 1.0 1.0 1.0
000370 00 00 80 3f 00 00 80 3f 00 00 80 3f 00 00 80 3f
       1.0 1.0 1.0 1.0
000380 00 00 00 00 00 00 00 00 00 00 00 00 00 00 00 00
       0.0 0.0 0.0 0.0
000390 00 00 00 00 00 00 00 00 00 00 00 00 00 00 00 00
       0.0 0.0 0.0 0.0
0003a0 00 00 00 00 00 00 00 00 00 00 00 00 00 00 00 00
       0.0 0.0 0.0 0.0
0003b0 00 00 00 00 00 00 00 00 00 00 00 00 00 00 00 00
       0.0 0.0 0.0 0.0
0003c0 00 00 00 00 00 00 00 00 00 00 00 00 00 00 00 00
       0.0 0.0 0.0 0.0
0003d0 00 00 00 00 00 00 00 00 00 00 00 00 00 00 00 00
       0.0 0.0 0.0 0.0
0003e0 00 00 00 00 00 00 00 00 00 00 00 00 00 00 00 00
       0.0 0.0 0.0 0.0
0003f0 00 00 00 00 00 00 00 00 00 00 00 00 00 00 00 00
       0.0 0.0 0.0 0.0

flows.0.t.0.0.weight f4 [32, 64]
000000 ce a7 ce bd b8 f1 79 3d 60 99 f2 bd 8e 1a c7 3d
       -0.100906 0.061021537 -0.1184566 0.09721862
000010 60 69 9e 3c 30 35 0e bc e0 91 8f 3d 28 03 81 3c
       0.019337356 -0.008679673 0.07010245 0.015748575
000020 70 3d c6 bc 40 46 20 3b 44 3c 12 3d a0 5a 92 bd
       -0.024199218 0.0024455935 0.035702005 -0.071461916
000030 f6 e8 bd 3d 24 46 5c 3d 70 ad 96 bc 50 67 e5 bc
       0.092729494 0.05377783 -0.018393248 -0.028003365
000040 ba e2 a9 bd c8 45 e6 3c a0 f4 13 3c c0 bf 9f bb
       -0.08295198 0.028109446 0.009030491 -0.0048751533
000050 cc 26 9e bd b8 f9 84 3d 24 c9 45 bd 98 a1 c4 bd
       -0.07722244 0.064929426 -0.048287526 -0.09601134
000060 ac 45 37 3d 2e 25 ed bd 9e 8e ec bd f8 0c df 3d
       0.04474418 -0.11579357 -0.115506396 0.108911455
000070 92 85 8a bd 1a 36 d5 bd a6 19 ff bd 30 40 3a 3d
       -0.06763758 -0.1041071 -0.12456064 0.04547137
000080 5e fd 17 3d 16 e2 40 3d 16 0a fc bd b4 0a 65 3c
       0.037106864 0.047090612 -0.12306611 0.013979603
000090 b6 dd 7b bd 0b 9d 02 3b 8f 87 8c be 41 9a b9 be
       -0.061490737 0.001993003 -0.27447173 -0.362505
0000a0 f4 d3 db bd 57 05 83 3d 52 b3 1b 3e 9b c4 ad be
       -0.10733786 0.06397503 0.15205124 -0.3393906
0000b0 d8 ec 78 bc c9 e4 57 bc 0b aa 03 bf 73 5f 69 3b
       -0.015193187 -0.013177105 -0.5143134 0.003560987
0000c0 31 de 32 bc 33 ba a5 bc d5 3d 11 be 54 71 dc bd
       -0.010917232 -0.020230388 -0.14183743 -0.10763803
0000d0 42 e5 d8 3c 01 7b 84 3b 23 2f 8b 3b 92 f0 ad 3e
       0.026476506 0.0040429835 0.0042475625 0.33972603
0000e0 18 e4 73 bd 55 e4 bc bc 31 1e 61 3d 8f 7c c8 be
       -0.0595437 -0.023058096 0.054960433 -0.3915753
0000f0 2e 64 e4 bd 87 aa b4 3c 2e 2c 50 be 76 88 2e be
       -0.1115192 0.02205397 -0.20329353 -0.17044243
000100 98 39 2d bd 3c 9b 4e bd b0 d3 46 bc 00 03 67 3a
       -0.042291254 -0.05044101 -0.012135431 0.0008812398
000110 34 51 e6 bd 08 5c 5f bd c0 b7 76 3d 54 2a 4f bd
       -0.11245957 -0.054531127 0.06023383 -0.050577477
000120 a0 31 f5 bc 9c d8 2a bd 38 04 cb bc 76 8c 8f 3d
       -0.02993089 -0.04171048 -0.024782285 0.07009213
000130 8c 7a d7 bd 76 4d ac bd 9c 7a 8d bd 5c 97 12 bd
       -0.10521421 -0.08413212 -0.069081515 -0.03578888
000140 c0 fe 15 bd d0 a6 83 bc ea c4 bc 3d 66 78 ca bd
       -0.0366199 -0.016070753 0.09217246 -0.098862454
000150 38 a2 fd bd 8a 84 ca 3d 6e cc a8 bd 9a cc d8 bd
       -0.123844564 0.09888561 -0.08242117 -0.105859
000160 7c f2 d1 bd ec 7c 0a 3d 1a 50 c1 3d 9a ee bf bd
       -0.10251328 0.03381054 0.09439106 -0.093716815
000170 20 92 c5 3b e8 e1 e7 bc 20 82 c6 3c 28 8a 26 3d
       0.0060293823 -0.028305963 0.02423197 0.0406591
000180 5c 20 0b 3e 24 2c aa bd 09 74 74 3d 7a db 92 bd
       0.13586563 -0.083092004 0.059680972 -0.07170768
000190 d0 44 e0 3d e5 02 80 bd 44 d4 25 3e 88 b3 0f bc
       0.10950625 -0.06250552 0.16194254 -0.008770831
0001a0 78 5f 96 3e 5e ae 1e 3e dd ae ac 3d 98 42 1f 3e
       0.29369712 0.15496203 0.0843179 0.15552747
0001b0 63 0e 23 3d 29 f7 88 3d b8 da c3 3d 42 61 cf bd
       0.039808642 0.06687767 0.09563202 -0.10125972
0001c0 bc ab 9b 3e 27 3f 85 bd cf e3 ba 3c a9 aa d8 bd
       0.3040446 -0.06506186 0.022813706 -0.10579426
0001d0 c7 26 5e 3e 52 d7 ab ba 0a 22 4b 3d 9c 5a 89 3d
       0.2169448 -0.0013110435 0.04959301 0.067067355
0001e0 0d c0 24 bd 6f 4a 1b 3e 33 0a 82 3e 0b f5 29 3d
       -0.040222216 0.15165113 0.25398406 0.041493457
0001f0 b1 19 8d 3b b5 67 0f 3e af 1d cc 3d 32 e6 8f 3d
       0.004306041 0.14004405 0.09966599 0.07026328
000200 94 15 58 bd de 50 a7 3d 18 e0 99 3c ea 98 8c 3d
       -0.052754954 0.08169721 0.018783614 0.068651035
000210 00 9f 98 3b bc 48 9a bd c6 f6 a3 3d 0a 4d f1 3d
       0.004657626 -0.07533404 0.08006053 0.11782272
000220 50 29 9a bc 00 67 91 ba e4 01 09 bd 18 fd e0 3c
       -0.018818527 -0.0011093318 -0.03344907 0.027464435
000230 be a9 bf bd 10 bd 4a 3d ba f9 be 3d 9a 5a 99 3d
       -0.09358548 0.04949671 0.09324975 0.07487984
000240 fa c6 8f bd 90 7e 87 bd d0 1c c9 bc 50 84 ce 3c
       -0.07020374 -0.06615937 -0.024549872 0.025209576
000250 3e d4 bb 3d d0 26 83 bd 56 bd fd 3d f0 2d 59 bd
       0.09171341 -0.06403887 0.123896286 -0.053022325
000260 e2 29 ff bd d4 2f 7d 3d 3c 4e 4b bd 00 c4 5f bb
       -0.124591604 0.06181319 -0.049635157 -0.0034143925
000270 80 e1 60 bd 3a 22 c4 bd 90 e4 1a 3c 38 c0 ce 3d
       -0.054902554 -0.09576841 0.009453908 0.100952566
000280 f9 57 ec bb e0 eb 57 3d 78 ab 0f 3e e9 0d 90 bb
       -0.0072126356 0.052715182 0.14030254 -0.0043961895
000290 e7 99 80 bd 63 a5 8c 3d 74 e7 48 bd 4a 07 b4 bd
       -0.062793545 0.068674825 -0.049048856 -0.08790453
0002a0 f0 a4 f7 bd a7 f4 0b 3d cc cf a2 bd 92 9e 8a bb
       -0.12092006 0.034168866 -0.0794979 -0.004230329
0002b0 d8 2f b7 bb 51 0a 49 3c 3a 72 f0 bd fc eb 3e 3e
       -0.00559042 0.012270526 -0.11740537 0.18644708
0002c0 00 a4 cb bd c2 ad 18 bd 71 6c 7d bd 3b 61 af bd
       -0.0994339 -0.037275083 -0.061870996 -0.08563467
0002d0 a2 e7 84 bd a5 c1 90 3c fe 7d f7 3a 38 9c 15 3e
       -0.06489493 0.017670462 0.0018882153 0.14610374
0002e0 66 2e d1 bc 73 e5 40 3d 21 1d 7f be cb 1f b4 3e
       -0.02553482 0.04709382 -0.24913456 0.35180506
0002f0 60 75 00 3d e3 5f 8b bb fc 87 a1 be f7 54 8c 3d
       0.031361938 -0.004253374 -0.3154906 0.06852143
000300 00 26 b4 ba c4 fb 7e 3d 14 93 4b 3d 20 47 78 3d
       -0.0013744235 0.06225182 0.04970081 0.060614705
000310 92 d8 ab bd 36 71 81 bd 68 dc 5a bd a0 f9 7a 3d
       -0.08390917 -0.063204214 -0.053432852 0.061273217
000320 10 4f 4b 3c 8a 4d b7 bd 54 51 c5 3d 30 66 b1 3c
       0.012408987 -0.08950336 0.09634653 0.021655172
000330 0c 97 bd bd be 44 a4 bd 1c 3f 13 bd 7c 98 f7 bd
       -0.092573255 -0.08020924 -0.035948858 -0.12089631
000340 20 73 20 bd 08 ab 91 bd bc 7f eb bd 18 e2 86 bc
       -0.03917229 -0.071127 -0.11498973 -0.016465232
000350 d4 b1 33 3d 9e 5d 88 bd 98 a9 3e 3d c8 d8 e2 3d
       0.043870762 -0.06658481 0.046548456 0.11076504
000360 ac 9d fe 3d 10 7f 3f 3c 60 a2 6c bd 18 99 ba 3c
       0.12432417 0.011688009 -0.05777204 0.022778079
000370 5c 00 52 3d fe a7 84 3d ac 05 cb bd 02 dd b2 3d
       0.051269874 0.064773545 -0.09913191 0.0873356
000380 ae b0 ee 3c 04 6e 4b bd c1 43 36 3e 4c c9 c1 be
       0.029136982 -0.049665466 0.17799284 -0.3784889
000390 49 14 82 3d e4 da 5c 3c f6 39 56 3e 9c f4 fc be
       0.06351525 0.013479922 0.20920548 -0.49405372
0003a0 80 74 63 3d 24 d9 52 3d 94 ee 7e 3e 3e 28 ed 3c
       0.055531025 0.051476613 0.24895698 0.028949853
0003b0 e8 a0 e2 3d 7a b6 c5 ba be 3a 27 be 48 41 34 be
       0.11065847 -0.001508429 -0.16331002 -0.17603028
0003c0 ba 36 47 3e df 9c 16 3c 4b dc 36 bc 8a fa 52 be
       0.1945447 0.009192674 -0.01116092 -0.20603386
0003d0 a1 42 22 3e 35 1d 81 3c 03 f7 89 3d 8a 49 38 3e
       0.1584573 0.015760997 0.06736567 0.17996803
0003e0 a0 06 c0 3d 3b 6b de bb a8 2e e6 3d ae 4e 8b 3b
       0.093762636 -0.006787685 0.11239368 0.0042513227
0003f0 40 c9 18 3d d1 98 ad 3d 85 1d 32 3e ac ef 07 be
       0.037301302 0.08476413 0.17394073 -0.13275021

flows.0.t.0.0.bias f4 [32]
000000 1c da c2 3e a0 a1 90 be 5a 6a 92 be 37 05 4f bd
       0.3805703 -0.2824831 -0.28596765 -0.050542083
000010 18 ed d8 be e7 8a 5a 3d 20 b1 56 bd e6 cb be 3e
       -0.42368388 0.053355124 -0.052415013 0.37264937
000020 53 c0 0a 3e dd e7 2b 3e 47 ec cd 3d dc 31 95 3e
       0.13549928 0.16787668 0.10054832 0.29139602
000030 9d 5d a5 3d 23 86 6e bb 03 6e 0c 3e 86 c6 d2 bc
       0.08074496 -0.003639587 0.13713841 -0.025729429
000040 55 ee 06 3e 78 38 15 3f 88 e3 84 3e 91 bc 81 3e
       0.13176854 0.5828929 0.25954843 0.25339177
000050 8d 75 47 3e 97 e5 cc be db cb 0c 3e d9 d7 d1 3e
       0.19478436 -0.40018913 0.1374964 0.4098499
000060 cf f8 3c 3c eb d0 38 3e f5 1f 96 3b bb ae a5 bd
       0.01153393 0.18048446 0.0045814463 -0.08089968
000070 3d 71 13 3d e6 c7 8d 3e a5 9e 5e bc 6c ee 00 3e
       0.035996664 0.27691573 -0.0135876285 0.1259095

flows.0.t.0.2.weight f4 [32, 32]
000000 1a 2c 0d be 96 65 15 be 1f 66 92 3d 93 1d 7c 3d
       -0.13786355 -0.14589533 0.07148384 0.06155164
000010 22 88 69 be 14 6c bc 3e a1 e7 95 bb 5c 14 86 3d
       -0.22805837 0.36801207 -0.0045747315 0.06546852
000020 61 1b f4 bd f5 43 2a be a8 eb 9a be 0a 84 49 bd
       -0.119192846 -0.16627486 -0.30257916 -0.049198188
000030 c1 ad f7 bd 89 84 aa bd 8c 5a 85 3c 71 67 e7 bd
       -0.12093688 -0.0832606 0.016278528 -0.11299027
000040 e5 b6 01 be 0f 6e 50 3d 10 df 39 3e 3c a7 e2 bd
       -0.12667425 0.05088621 0.18151498 -0.11067054
000050 5f d9 2b be 10 2b 88 be 1f ed 7c 3c ea 2f 22 3c
       -0.16782139 -0.26595354 0.015437393 0.009899119
000060 ae f4 09 3d cc 38 c5 bd 70 c1 bf 3e 69 bc 93 3e
       0.03368061 -0.09629974 0.3745227 0.28854683
000070 46 12 86 3c 85 92 00 bd 1d 2e 70 be a6 d8 83 3d
       0.016366135 -0.031389732 -0.23455091 0.06437807
000080 01 0c 17 3e 27 92 14 bd d1 36 26 bb 42 c7 7e bd
       0.14750673 -0.036272194 -0.0025362263 -0.062201746
000090 b6 9a 78 bd d9 68 6f 3d ef 13 9a bd 34 a3 ed 3c
       -0.06069442 0.0584496 -0.07523333 0.029008485
0000a0 ba d0 f8 3c 8c 10 cc 3d 71 5d 13 bc d4 f9 ef 3d
       0.030372966 0.099640936 -0.008994446 0.11717573
0000b0 34 56 1c be bb 3c 16 3e ee cf 3d 3e ec cf e4 bd
       -0.15267259 0.14671604 0.1853635 -0.111724705
0000c0 86 ef 33 3e 7f 6b 93 bd 5a ed 20 be a5 58 51 3e
       0.1757184 -0.07198238 -0.15715542 0.20443971
0000d0 9a 9b c4 3d 99 73 0f 3e 20 b5 41 3e c2 e6 ee 3d
       0.09599991 0.14008941 0.1891675 0.11665107
0000e0 c9 82 47 3e 1e 64 bd 3b 42 15 2d 3e 2c 7c a2 bd
       0.19483484 0.005779757 0.1690264 -0.0793384
0000f0 92 0e 28 3e 06 a4 24 3e 0e ad 3f 3c f4 8e 0b bd
       0.16411808 0.16078195 0.011698974 -0.034071878
000100 52 5f 63 bd 3e 2f 1e 3d f1 12 8e bc a9 0f 2a 3e
       -0.055510826 0.038619272 -0.017343016 0.16607536
000110 f5 0e 95 3e 39 ce a1 3d 01 11 89 be 62 17 3f be
       0.29112974 0.07900662 -0.26770785 -0.18661264
000120 f1 b8 44 be a4 85 e7 3d c8 76 56 3e 73 de 45 bc
       -0.19211175 0.11304787 0.20943749 -0.012076962
000130 a6 c1 3e 3e 6d 3b a9 bc 4f 41 5d bd 26 0f b2 3d
       0.18628559 -0.02065822 -0.05401736 0.086942956
000140 5d 04 89 3d 79 ff 3b 3c 67 b6 73 3e 0a 48 ca bd
       0.06690285 0.011474484 0.2380005 -0.098770216
000150 7c 02 86 3d b2 e4 0d be 47 25 ba 3d 65 f5 ff bc
       0.065434426 -0.13856772 0.09089141 -0.031244943
000160 af 87 c3 bd d4 89 39 be 4e 24 0a be 6a e3 fc 3d
       -0.09547364 -0.18118984 -0.13490412 0.12348063
000170 41 b8 3b be 10 fe ad 3d 0a 4c 02 be 8e 84 9d bd
       -0.18332006 0.08495724 -0.12724319 -0.076912984
000180 67 d8 18 be 94 4b 04 be e7 fe df bd ff 80 33 be
       -0.14926301 -0.12919456 -0.10937291 -0.17529677
000190 93 ba d0 3b 8b ee 27 bd 9d 6a 10 be 51 f2 dd 3d
       0.0063698976 -0.040998977 -0.1410317 0.10837234
0001a0 53 7d 0b 3e e2 14 7b be 06 b1 61 3e 37 a7 35 3e
       0.13622026 -0.24519685 0.22040185 0.17739569
0001b0 1f d7 59 3e 5e fd f4 3d 89 12 86 3d 2e 17 dd 3d
       0.21273468 0.119623885 0.06546504 0.10795437
0001c0 c0 d7 8b 3d 1e 70 1b 3e 11 80 2b 3e c4 bc 45 3e
       0.068282604 0.15179488 0.16748072 0.1931029
0001d0 49 03 83 3c 7b 68 be bc a9 07 0d be 60 30 eb 3d
       0.015992777 -0.02324318 -0.13772453 0.11483836
0001e0 82 ec fb bd d7 cd 33 bc 19 4e 56 3d 75 a7 15 be
       -0.1230097 -0.010974369 0.052320573 -0.14614661
0001f0 5b 08 04 bd 90 7d ff 3d 16 a9 20 3d bb b8 86 be
       -0.03223453 0.12475121 0.039223753 -0.26312813
000200 37 ec 31 be 35 e7 1e bf 2c 7d e9 be c4 56 22 3e
       -0.17375265 -0.62071544 -0.4560331 0.15853411
000210 70 aa 81 3e c2 9e 91 bc 04 2a ae bd fe 4b d4 be
       0.25325346 -0.017775897 -0.085041076 -0.41464227
000220 2d 99 b7 bc 82 9e d2 bd 8b 44 db 3d 89 5d 9c 3d
       -0.022411907 -0.10284139 0.10706433 0.07635028
000230 55 50 1f bd b3 10 c7 3e fc 81 d6 3d 1c b1 54 be
       -0.03889497 0.38879928 0.10474011 -0.20770687
000240 f9 d1 11 3e d8 85 31 be 86 f2 7c bd a3 18 af 3d
       0.14240254 -0.17336214 -0.061754726 0.08549621
000250 a1 bd b0 3c 85 67 45 be fe f1 c3 be d8 40 50 3e
       0.021574797 -0.19277771 -0.38270563 0.20337236
000260 8c 5c 8a be 84 86 e8 bc f9 42 54 3e 5d 17 06 3e
       -0.27023733 -0.028384455 0.20728673 0.1309485
000270 be 71 4a 3e 2a 17 6a 3d 36 55 1e be 83 59 8a be
       0.19769952 0.057150997 -0.15462193 -0.27021417
000280 e8 2f 95 bd f3 59 38 3d 19 65 07 3e 81 3f 81 bd
       -0.07284528 0.045007657 0.1322216 -0.063109405
000290 f0 2a 5a 3e c6 ed 4c be 0d a4 6b 3c 18 85 13 3d
       0.21305442 -0.20012578 0.0143823745 0.0360156
0002a0 ea 55 a6 bc 5e ad 2c be e1 93 35 3d 3d aa 11 be
       -0.020304639 -0.1686301 0.04433048 -0.14225097
0002b0 d9 ab 9b bd d3 71 86 be 62 cc 4e 3e a1 35 6c bd
       -0.07601137 -0.26258716 0.20195153 -0.057668332
0002c0 56 fe f0 bc 63 43 8a 3d 85 ee db be b9 43 f8 3c
       -0.029418152 0.06751134 -0.42955413 0.03030573
0002d0 c5 b9 7c be d7 f7 c5 bd 2d 89 d8 bd 62 ff f2 bc
       -0.2468024 -0.09666412 -0.10573039 -0.029662792
0002e0 79 53 03 be 04 b5 55 3d dc c7 69 3c a6 d6 76 be
       -0.12824811 0.052174583 0.014268842 -0.2410532
0002f0 00 27 fd bd cf df cb 3c 23 17 d3 3c 89 31 9a bc
       -0.12360954 0.024886994 0.025767868 -0.018822448
000300 ae 9c 96 3d 00 91 56 3e 8a 52 a2 bd 7d 46 97 bc
       0.07354103 0.2095375 -0.07925899 -0.018466229
000310 0f 93 32 3e 76 f4 6a 3c 11 1c 6c 3e b4 0a 04 bd
       0.17438911 0.014340511 0.23057581 -0.03223677
000320 cf 09 12 bd c6 62 24 3e fa dd 1f 3d ae ba b4 3d
       -0.035653885 0.16053304 0.039030053 0.08824669
000330 0d 28 01 3c 31 28 e6 3d b6 95 b8 3d 10 90 bb 3d
       0.007883084 0.11238135 0.0901293 0.09158337
000340 0a 74 ee 3d 32 68 ed ba 8e 93 53 3e 63 37 cf bd
       0.116432264 -0.0018112718 0.20661756 -0.10117986
000350 84 08 42 3d 5e c3 89 be 51 a2 c5 3d 04 10 ce 3d
       0.047371402 -0.26906866 0.096501 0.100616485
000360 bf 7e 19 3e fb ff 79 3b 87 71 07 3e 50 bd 7a bc
       0.14989756 0.003814696 0.13226901 -0.015303925
000370 3f 3b 4d be a5 5c a9 3c 17 86 a6 b9 e2 f8 6d bd
       -0.20042132 0.02067406 -0.00031761892 -0.05809868
000380 0d 2e 75 bd 6c 70 80 be 85 d9 48 be e9 41 91 bc
       -0.05985837 -0.2508577 -0.19614227 -0.017731624
000390 68 18 33 3e c9 63 1d 3d be 67 72 bc f5 85 89 3e
       0.17489779 0.03842524 -0.014795242 0.26860014
0003a0 16 fe e7 3d 00 fb 8c be 71 7a 88 3d 4d 45 42 be
       0.1132776 -0.27535248 0.06663979 -0.18971749
0003b0 30 d9 84 3d 77 37 e6 3a 54 ba e9 3d df 88 74 3e
       0.06486738 0.0017564137 0.114124924 0.23880337
0003c0 b0 7c 2e bd 9b a0 6c bc ed 1e e9 3d 62 d9 05 3d
       -0.04259938 -0.014442588 0.11382852 0.032678016
0003d0 1a 63 d8 3e ce ed 7d bc bf f3 62 bd 47 df c7 bd
       0.42263108 -0.015498592 -0.055408236 -0.09759384
0003e0 98 d2 e5 3c 55 84 65 3e 9b 94 22 bd b6 ac e3 bc
       0.02805452 0.22413762 -0.039692502 -0.027792316
0003f0 c7 53 55 bd 07 cf 88 bd f1 d9 e1 bd 01 ea c6 bd
       -0.05208185 -0.06680112 -0.11027897 -0.097126015

flows.0.t.0.2.bias f4 [32]
000000 ea ae f1 3e 1f 37 04 3e cd 93 1d 3e 0f ca 8d 3e
       0.4720376 0.12911652 0.15388413 0.2769322
000010 76 1d 8c 39 1f 7e 19 3d 7c 1c 97 3e 24 d5 8c 3e
       0.0002672483 0.037473794 0.2951392 0.27506363
000020 6f f5 ee 3e 1a 70 61 3e b8 db 37 3d 50 e4 9e 3d
       0.46671626 0.2201542 0.044887275 0.07758391
000030 ce ee 86 3d da 77 d3 be 39 e8 17 3f 6b f4 da 3e
       0.06588517 -0.41302377 0.5933872 0.427646
000040 2f 77 86 3e 1d bf ce be 96 53 80 be b6 b5 29 3e
       0.26262805 -0.40380183 -0.2506377 0.16573223
000050 22 5a 97 bc ed 52 f0 bd 36 c7 87 3e 5b b4 af be
       -0.018475596 -0.11734567 0.26519173 -0.34317288
000060 1c 98 4d bd 78 47 de 3d 78 89 07 be 00 e9 d7 bd
       -0.05019389 0.10853475 -0.13236034 -0.10542488
000070 78 b3 fb bd c2 5c 40 be a0 34 a8 3e 1c da 4c ba
       -0.1229009 -0.18785384 0.3285265 -0.0007814483

flows.0.t.0.4.weight f4 [64, 32]
000000 e8 c7 07 3e 1d 79 9f 3d 76 ea 14 3e e4 13 44 3e
       0.13259852 0.077867724 0.14542565 0.19148213
000010 63 5f ae bf 23 c5 1a 3e 92 67 61 ba 42 a4 cf 3d
       -1.362286 0.15114264 -0.0008598502 0.101387516
000020 51 c9 14 3d 43 0a 07 be 5a 84 b2 3e 72 c3 41 3e
       0.036324803 -0.13187508 0.348666 0.18922213
000030 5c b1 30 3e 25 08 c9 be 88 40 0c 3e 65 82 6a 3e
       0.17255157 -0.39264026 0.13696492 0.22901304
000040 70 ef 8f b9 bf 2e a0 bd 51 25 b3 bc d7 5e d5 38
       -0.0002745348 -0.07821416 -0.02186838 0.00010174297
000050 ef cd 67 3d 99 77 db 3e aa 81 e3 bb 15 6b 1a be
       0.056592878 0.42864683 -0.0069429474 -0.15079911
000060 ed 76 58 3e 46 ba fa 3d fc 4d c1 3d 9d b0 7e 3e
       0.21139117 0.1224256 0.094387025 0.2487206
000070 b0 63 18 3d cc f8 28 3e 19 af 26 be de fa 20 be
       0.037204444 0.16501158 -0.16277732 -0.15720698
000080 70 78 3c 3e bf ee c0 bd 3a 64 8f bd 07 ea 38 3c
       0.18405318 -0.09420537 -0.070015386 0.011286265
000090 ed 3f 07 3f 7f 3b d4 bd 75 e2 ac 3d b5 54 f2 bd
       0.5283192 -0.103629105 0.08441631 -0.11832563
0000a0 4a 2e cd 3d f4 f6 1f bd f4 5c 67 3e e4 e1 22 be
       0.100185946 -0.039053872 0.22594053 -0.15906483
0000b0 77 07 57 be 26 dd 8b be 4c 80 52 3e c7 46 48 3e
       -0.20998941 -0.2731716 0.20556754 0.1955825
0000c0 a0 6e 12 bc df 9b 80 be 41 b0 fb 3d d8 55 c1 bc
       -0.008937508 -0.2511892 0.12289477 -0.023600504
0000d0 cc 4f 1b bd 79 b4 2b be 3a 61 76 3e aa ed 35 be
       -0.037917897 -0.16768064 0.24060526 -0.17766443
0000e0 5a fe e8 be d3 1c 5b 3e a4 b6 c4 bd af ed 8f 3c
       -0.45506555 0.21397714 -0.096051484 0.017569391
0000f0 05 6c 02 be 8d 9b af 3e 45 7a d7 3a bb be a1 be
       -0.12736519 0.34298363 0.0016439637 -0.31590828
000100 25 79 3f be b8 a5 25 be 9d 8b 1f be 5f 68 56 3e
       -0.18698557 -0.16176498 -0.15580602 0.20938252
000110 59 6f 0a 3e 3d 13 04 bd 5b db e6 bd 8c b1 0b be
       0.13519038 -0.03224491 -0.112723075 -0.13641948
000120 50 74 56 3e 8a 6a a4 3c b2 d1 21 be 71 e1 ae 3e
       0.20942807 0.020070333 -0.15802649 0.34156373
000130 8e 03 b3 3c cb 18 cb 3d cb ae 28 be d8 0e 03 bd
       0.021852281 0.09916838 -0.16472928 -0.031996578
000140 b8 98 43 3d c0 13 c9 bd cd 4d c4 bd d1 e9 a0 3d
       0.047753066 -0.0981822 -0.09585152 0.07857097
000150 f2 ac dd 3c fa 33 d9 bb 73 42 43 bd 4a c2 e5 3c
       0.027060006 -0.0066285105 -0.047670793 0.028046746
000160 c0 59 16 3e fd 16 9c 3b a9 6d 84 3c 62 0d 14 be
       0.14682674 0.0047634826 0.016165571 -0.1445823
000170 2f fc dc 3c 3f 24 9a 3c 52 32 62 bb f5 a0 3b 3e
       0.02697572 0.018816112 -0.0034514857 0.18323119
000180 db f8 9f bc f6 7f a6 bb 91 00 a5 bd db 04 18 be
       -0.019527843 -0.005081172 -0.08056749 -0.14845602
000190 96 ad b9 3e 18 42 25 be a1 c3 55 bc f9 a1 50 be
       0.36265248 -0.16138494 -0.01304713 -0.20374288
0001a0 5d c3 59 3e c0 9a 10 be 09 d6 9f bc 83 93 09 3b
       0.21265931 -0.14121532 -0.01951124 0.0020992465
0001b0 fd 4e c3 3c c3 da 5d 3e b4 cd b2 bd 2c f8 80 3e
       0.023841375 0.21665482 -0.08730641 0.2518934
0001c0 ee 9f 09 be 9e 48 1b be 3c da b3 bd 9a 87 83 be
       -0.13439915 -0.1516442 -0.08781859 -0.25689393
0001d0 f3 66 b4 3d e6 ea 96 3e d3 c9 40 3e a4 5b 4f be
       0.088086985 0.29476088 0.1882699 -0.20249802
0001e0 95 2b ec bb c0 50 a7 bb 79 e3 30 3e a2 70 6a bd
       -0.007207344 -0.0051060617 0.17274274 -0.05723632
0001f0 02 9d c8 bc 46 48 11 3e 6e 34 38 be b4 5f 00 bc
       -0.02448893 0.14187726 -0.1798875 -0.007835317
000200 d6 33 12 3e 8c 0b 04 be f4 97 ed bc f7 df ad bd
       0.14277586 -0.1289503 -0.029003121 -0.084899835
000210 33 87 fb 3d 55 f3 c6 3e 47 9e c5 bd 39 53 45 be
       0.122816466 0.38857523 -0.0964933 -0.19270028
000220 7e a2 53 bd 34 1e 23 be cc bc 6f 3e 62 0d 78 bd
       -0.051668637 -0.1592949 0.23411864 -0.060559638
000230 9b 25 ee 3b ba 4d 50 be 59 42 ce 3d 72 7c 87 3d
       0.0072676665 -0.2034215 0.100712486 0.06615533
000240 16 60 a6 3d 89 db 85 bd e7 f2 63 3d 9f 78 c8 3e
       0.08123796 -0.06536014 0.05565157 0.39154527
000250 2c 58 af bc b8 d8 d7 3d 10 1d c8 3d dd ef 21 be
       -0.021404348 0.10539383 0.09771168 -0.15814157
000260 e0 21 86 bc f1 57 6e 3d 40 56 81 3e c0 c8 3a bd
       -0.016373575 0.058189336 0.25261116 -0.045601606
000270 79 d4 0b 3e 94 f8 33 be 88 22 21 be d5 c5 08 bd
       0.1365527 -0.17575294 -0.15735829 -0.033391792
000280 f4 91 11 3d 66 72 e1 3c 15 0c 51 3d a7 a2 de bc
       0.035539582 0.02752037 0.051036913 -0.027177168
000290 2b 6a 1b 3c df dd f2 bd 25 aa 0d 3e f4 6a 55 bd
       0.009485762 -0.11858725 0.13834436 -0.05210395
0002a0 34 cc 64 3c c6 af 72 3c 1f a3 2c bd 2a 3b 11 3c
       0.013964701 0.0148124155 -0.042147752 0.0088642035
0002b0 0e c9 73 3c 2b c5 24 3d c4 b3 a1 3d c5 6b 15 bd
       0.014879478 0.040227097 0.07895616 -0.03647973
0002c0 9a 88 9e ba 58 cf 05 bc e5 24 01 be 1e 36 a0 bc
       -0.0012095154 -0.00816711 -0.1261173 -0.019557055
0002d0 9a ff b3 3d 84 f7 18 3b ec a9 ad bd 87 65 9c 3b
       0.087889865 0.002334089 -0.08479676 0.004772845
0002e0 47 02 fb ba f8 58 18 bd 68 b9 cd bd da cd 5c 3d
       -0.0019150459 -0.037194222 -0.10045129 0.053907253
0002f0 c6 30 61 3c 57 45 b3 bd 1c f8 38 bb d6 1b 1b 3d
       0.013744539 -0.0875346 -0.0028224057 0.037868343
000300 62 33 a7 3d 8e 2e 17 bc 7f c9 2a be c2 07 0f 3e
       0.08164097 -0.009227408 -0.16678427 0.13967803
000310 9a f3 d5 3d b7 85 3e 3e 11 5e 3c be 24 cc e2 3d
       0.10446854 0.18605696 -0.18395258 0.11074093
000320 3f 44 a1 bd 4c c6 97 3d 4c 12 ea 3d 33 40 f4 bd
       -0.07874345 0.07410869 0.11429271 -0.119263075
000330 ec 67 e4 3d f9 90 0d bd 81 72 31 3e c1 92 f1 3c
       0.11152634 -0.034562085 0.17328836 0.029488923
000340 c5 4c 2a bd e8 e0 18 bd 03 89 bc 3d 67 fd a1 3e
       -0.04157712 -0.037323862 0.092058204 0.31638643
000350 63 6c d0 bd e4 72 af 3d 91 a6 8c 3d 8e b2 e1 bc
       -0.10176923 0.085668355 0.068677075 -0.027550962
000360 8b a6 b7 3d 55 b6 59 3c 71 51 05 3e d4 d7 8d 3d
       0.089673124 0.0132881 0.13019349 0.069259316
000370 16 b0 0e bd c8 94 a0 3b 05 0f 00 3e 35 26 f1 3c
       -0.034835897 0.0049005486 0.1250573 0.029437164
000380 bc 61 86 3d 0b a9 18 be 6b af 83 bc f7 17 f5 3d
       0.0656161 -0.14908235 -0.016074857 0.119674616
000390 00 de 86 3e a2 4a 0b bc c6 7c b1 3c 31 05 80 3d
       0.26341248 -0.008501681 0.021665942 0.0625099
0003a0 fa 58 28 3c 71 ce 14 bd 48 90 84 bd 71 3c 42 3e
       0.01027512 -0.03632969 -0.06472832 0.18968369
0003b0 e6 c5 71 3d 47 2e 4b 3b 85 e4 0e be 73 fd 8d bb
       0.05902662 0.0031002925 -0.13954361 -0.004333192
0003c0 a7 be c1 3d 27 5b 4e 3d 9f ed 43 3d 27 11 be bd
       0.09460192 0.0503799 0.047834035 -0.09280615
0003d0 8c fe d0 bd 27 1a e9 3d da 19 32 3e 64 ed 99 3c
       -0.10204801 0.11381941 0.17392674 0.018789954
0003e0 f9 5b 93 3d c4 37 9d bd 6d a5 84 bd 65 bf 8e 3d
       0.07195277 -0.07676652 -0.06476865 0.06970099
0003f0 43 d4 97 bc 34 f8 fe 3d d7 c6 aa bc 59 5e 64 3b
       -0.018533831 0.12449685 -0.020846767 0.0034846275

flows.0.t.0.4.bias f4 [64]
000000 9b 38 e9 3d 89 5e a8 3e 74 dd cc 3e 67 f1 40 be
       0.1138775 0.32884625 0.40012705 -0.18842088
000010 17 66 35 3e 62 b6 07 3f c1 08 39 3e 08 69 87 3d
       0.17714725 0.5301267 0.18069746 0.0661183
000020 f7 e1 d8 3e 52 1c 1f 3d 6d 98 d3 be 9c 0e e2 bc
       0.42359897 0.038845368 -0.4132723 -0.027594857
000030 e7 5f ab 3e 93 73 05 3f 91 62 96 be 7d c9 59 be
       0.33471605 0.5212948 -0.29372075 -0.21268268
000040 6a e5 cd 3d b2 f7 83 3e 2e 78 a0 be 6f b0 6e be
       0.10053523 0.25774914 -0.3134169 -0.23309492
000050 d4 04 cd 3e 53 24 f7 3d bd ff d2 be ed 5c ab be
       0.40042746 0.12067475 -0.41210738 -0.33469334
000060 0e b8 82 3c 14 52 b8 3e a1 dd 9e 3d 88 91 4e be
       0.015956905 0.3600012 0.07757116 -0.20172703
000070 a6 18 37 3d d9 6c 81 be d6 b6 a2 bd 46 99 07 3d
       0.04470124 -0.25278357 -0.079450294 0.033105157
000080 00 c7 1f be e5 20 ae 3b ca b2 2d be e3 4b 22 3e
       -0.15603256 0.00531398 -0.16962734 0.15849261
000090 f3 4b ce 3d f9 b0 27 be c4 8a a3 3d 29 33 da bd
       0.1007308 -0.16376103 0.07985452 -0.10654289
0000a0 85 bd 8c bc a5 75 9c 3d ee 85 2e 3e e8 18 c7 3d
       -0.017180214 0.076396264 0.17043278 0.09721547
0000b0 5b 4d 1a 3e 24 bc 51 3d 7f 94 88 3d 96 b3 d0 bd
       0.15068571 0.051204816 0.066689484 -0.10190503
0000c0 c4 db 8f 3d 16 79 5c bc 32 40 d8 3d fe 6e 9c ba
       0.07024339 -0.0134566035 0.10559119 -0.0011934934
0000d0 50 50 b3 bd 7e 6a 0c 3e 2c 8c b5 bd d5 0d 89 3d
       -0.08755553 0.13712499 -0.08864626 0.066920914
0000e0 63 2a 30 be c7 96 21 3e 19 fa 30 3d 8a f3 0e 3d
       -0.17203669 0.15780173 0.04320726 0.034900226
0000f0 c2 0a 4f 3d 2b 0b d1 bd ac a4 9b 3d f8 64 af bc
       0.05054737 -0.10207208 0.07599768 -0.02141045

flows.0.t.1.0.weight f4 [32, 64]
000000 b0 f9 a1 3b 3e 55 cf 3c 2b dd 6e 3e a9 c2 03 3d
       0.004943095 0.025309201 0.23326556 0.032168064
000010 2c fd 3f 3d 10 87 ad 3d 50 9e 66 3e 73 61 6f 3d
       0.046872303 0.08473027 0.22521329 0.058442544
000020 9b c7 9c bd 1c 95 ef 3c 58 fa a0 3e 9e e5 a9 bd
       -0.07655259 0.029245906 0.31440997 -0.08295749
000030 6f f8 13 3d 62 3c 82 3d 95 83 4d be 10 df c3 bd
       0.036125597 0.06359173 -0.20069726 -0.0956403
000040 ec cc 95 3b 91 d0 9b 3b dc 93 f4 bd 43 75 70 be
       0.0045715477 0.0047550877 -0.119422644 -0.23482232
000050 e0 d5 87 bd 93 49 b8 bd 44 31 09 be a9 15 6d be
       -0.0663259 -0.08998408 -0.133977 -0.23152794
000060 e0 b9 c6 3b 7a 20 8d bd d4 5a 1f 3d 36 71 4b be
       0.0060646385 -0.0689096 0.03890498 -0.19867405
000070 5f b6 4f bd ed 62 b6 3b 44 7e 27 be a9 cd b0 3d
       -0.050711032 0.005565992 -0.1635676 0.086329766
000080 b4 ad a5 bd 38 0f ed 3c 00 75 a0 ba e0 d7 9c bd
       -0.08089772 0.02893792 -0.00122419 -0.076583624
000090 24 c2 77 bd 10 65 a0 3d 00 8c 16 bc 50 35 91 3c
       -0.06048788 0.07831776 -0.009188652 0.017725617
0000a0 46 6a 99 3d 30 76 df bc ea 2f 9a bd 7a 95 84 bd
       0.07490973 -0.027278036 -0.0752867 -0.06473823
0000b0 d0 56 41 3d d8 4c 85 bd 40 8b 68 bb 54 43 a3 bd
       0.04720193 -0.065087974 -0.003548339 -0.07971826
0000c0 48 78 d7 3c d2 a9 d6 3d 80 aa 2d 3c 68 9e 91 3c
       0.026302472 0.104816094 0.010599732 0.01777573
0000d0 18 ed ac 3c ce 95 e7 3d 14 da bf bd ac 3d 1d bd
       0.021109149 0.1130787 -0.09367767 -0.038388893
0000e0 70 e5 b9 3c 26 da 8a 3d 34 63 4f bd 30 ea 41 3d
       0.022692412 0.0677989 -0.050631717 0.04734248
0000f0 90 5b 6e 3d 1e 4c e3 3d 42 41 ca 3d c0 79 a3 3d
       0.05819279 0.110985026 0.09875728 0.07982206
000100 31 64 b9 bc 55 0c d9 3d f7 f3 2f bd 24 49 45 bd
       -0.022630783 0.10598055 -0.042957272 -0.048165455
000110 16 43 5e 3d b4 82 af bd 91 d6 41 be 1b a5 4d bc
       0.054263197 -0.085698515 -0.18929507 -0.012551571
000120 04 39 88 3b db 3a 0a be f4 24 6c be de c1 3a 3e
       0.0041571874 -0.13499014 -0.23060971 0.18238017
000130 93 de 18 bd 89 44 80 3c c5 6b c9 3d 3b 7a b8 3d
       -0.03732164 0.01565768 0.098350085 0.090076886
000140 f1 66 af be d4 99 7b 3d 6a 0f e0 be da 3c 21 3f
       -0.34258226 0.061426 -0.4376176 0.6298348
000150 2d 2e 91 bd f4 56 55 3b 71 59 f8 3c 03 cd 3e 3e
       -0.070888855 0.0032553049 0.030316086 0.18632893
000160 98 67 2d be 98 2e 25 bc 08 6f 9c 3e 2c 95 8f 3d
       -0.16934049 -0.01008191 0.3055346 0.07010874
000170 b2 d7 91 bc ab c3 e4 bd 03 a4 9d be db a8 42 bd
       -0.017803047 -0.11170133 -0.30789194 -0.047524314
000180 86 ad ed bd a4 aa 7d bd c8 a0 e1 bd 2c 46 5b 3d
       -0.116053626 -0.061930314 -0.11016995 0.053533718
000190 ce a4 c3 3d 86 12 af bd 0a d9 b3 3d a0 99 17 bd
       0.095529184 -0.08548455 0.08781631 -0.037011743
0001a0 f4 23 0b bd 40 61 0b bb 20 96 70 3d c0 5a c7 bc
       -0.033969834 -0.0021267682 0.05873692 -0.024335265
0001b0 64 8c 4b 3d 80 9c c2 3a 40 52 dd bb 82 dc 9d 3d
       0.049694434 0.0014847666 -0.0067541897 0.07708074
0001c0 5a d6 c7 bd 24 bc 69 bd f0 fd 2d 3d 20 3c 8b 3d
       -0.09757681 -0.05706419 0.0424785 0.06798577
0001d0 fc f3 6a bd 24 d4 ad bd 9c 9f 0e bd 6c af f9 bd
       -0.057361588 -0.08487728 -0.034820184 -0.12191662
0001e0 b8 cc cd bd 1a 6e b7 3d ba d3 dd bd ec 37 8d bd
       -0.10048813 0.08956547 -0.10831399 -0.06895432
0001f0 90 8b 8c bc 1e 37 ef 3d c0 52 e8 3d 50 68 21 3c
       -0.017156392 0.11680435 0.11343908 0.00985153
000200 40 6a ed bc 37 7e e3 3c b6 8e d1 3d 4a b2 7c 3d
       -0.028981328 0.027770145 0.10232298 0.061693467
000210 94 f9 a7 3d 52 4c 17 bc 4e ae 86 3e 18 30 19 be
       0.082019 -0.009234505 0.2630486 -0.14959753
000220 14 f8 34 3c ff 35 fe 3d 0e 6b 1a be a3 dc 7d be
       0.011045475 0.12412643 -0.150799 -0.24791197
000230 6c 5f a0 bc ee d3 74 bc 2c 2a 17 3e b4 ee b7 bd
       -0.01957675 -0.014943106 0.14762181 -0.08981076
000240 20 3f 55 bd 84 0f 83 bd 39 0e 6d 3e 36 39 a6 3d
       -0.052062154 -0.06399444 0.23149957 0.08116381
000250 47 ef 04 bc ca 67 38 3c 12 06 8c 3d d0 49 40 3c
       -0.008113689 0.011255214 0.06837095 0.011736348
000260 81 78 2c 3c e5 24 ba 3b c4 bb 18 3e 4d 49 76 3e
       0.010526777 0.0056806677 0.14915377 0.240514
000270 d5 d7 8c bd 44 12 4b bd 4f 17 f5 3c 83 dd 2f 3d
       -0.06877104 -0.049577966 0.029918341 0.04293586
000280 94 ae ee 3d 84 e3 45 3d 2c c7 3d 3d d0 58 11 3c
       0.11654392 0.04831268 0.046332523 0.008871272
000290 42 b9 8e 3d e0 02 9e 3b 60 ad c7 bc e6 b0 96 3d
       0.06968929 0.00482212 -0.024374664 0.073579594
0002a0 b8 24 a5 3c de ca 9a bd 80 1e a3 3b 80 b3 4c 3b
       0.02015911 -0.07558225 0.004978001 0.003123492
0002b0 90 6f da 3c 28 63 8f bd b0 60 22 3c fa db fd bd
       0.026664525 -0.070013344 0.009910747 -0.12395473
0002c0 48 32 33 3d bc 00 1d bd c4 d2 88 bd a0 20 77 bd
       0.043749124 -0.03833078 -0.06680825 -0.060333848
0002d0 9a 76 ed bd 66 59 c9 bd 04 8e b9 bd 00 55 62 ba
       -0.11594887 -0.098315045 -0.090602905 -0.0008633882
0002e0 d0 cb 4f 3d 5a e7 8f 3d c8 90 c9 3c ba 06 99 bd
       0.05073148 0.07026549 0.02460517 -0.07471986
0002f0 7c 17 4c bd 16 82 e4 bd 88 ec 37 3d e2 0a bc bd
       -0.049827084 -0.111576244 0.04490331 -0.09181763
000300 36 4a a2 3c 6d 69 7a 3c 87 44 1a be 68 4e 5e be
       0.019810777 0.0152839245 -0.15065204 -0.21709597
000310 4c f2 4f be 4d ad 07 3d 5a e4 20 3d c8 fc c8 bd
       -0.20307273 0.033124257 0.039280273 -0.09813839
000320 5a 27 af bc e9 26 a5 bc 43 37 83 be 7c 46 9d 3e
       -0.021381069 -0.020160155 -0.256281 0.30717838
000330 da 63 34 bd ac 34 16 be a0 1e cc bd e1 49 cd 3e
       -0.04404054 -0.1466853 -0.09966779 0.40095428
000340 e4 a3 80 be 7f 0f f6 3d 12 27 aa 3e 7e bb 3e be
       -0.2512504 0.120146744 0.33232933 -0.1862621
000350 bf b8 54 be c2 2d 80 3d cf c7 e6 bd 64 e4 bc bc
       -0.207736 0.062587276 -0.11268579 -0.023058124
000360 6a ab cf 3d 90 bf 77 3d 1a fe 11 be cc 79 a9 bd
       0.101401165 0.060485423 -0.14257088 -0.08275184
000370 17 77 0a bd 4d dd 08 bc 81 42 e5 ba 95 44 89 be
       -0.03380498 -0.0083535435 -0.0017491133 -0.26810136
000380 8e 61 cf bd 8a 15 9a bd d4 83 a6 3d 40 42 13 bd
       -0.10126029 -0.075236395 0.08130613 -0.035951853
000390 74 04 cf 3d 30 55 07 3d 34 c8 9e bd c0 f7 35 3d
       0.10108271 0.033040226 -0.077530295 0.044425726
0003a0 40 e6 c5 bd 04 00 be bd f0 39 38 bc 9c e4 58 3d
       -0.09663057 -0.09277347 -0.011244282 0.052952394
0003b0 8a 64 b5 bd 40 e1 df bc 8c 17 77 3d 10 66 48 3d
       -0.08857067 -0.027329087 0.06032519 0.04892546
0003c0 ba 51 c3 bd d8 9a 8c 3d 8c f1 59 bd 14 f3 09 3d
       -0.095370725 0.068654716 -0.053208873 0.033679083
0003d0 c8 73 83 bd e0 92 7f 3d 40 0d 34 bd fe 1d ed 3d
       -0.06418568 0.06239593 -0.04395795 0.11577986
0003e0 60 8c c1 bc 38 4d da bd 22 8e 81 3d 68 f7 bc bc
       -0.023626506 -0.106592596 0.06325938 -0.023067191
0003f0 00 d9 eb bc e0 9f f6 3c e2 41 a6 bd 8e be 89 bd
       -0.028789997 0.030105531 -0.08118035 -0.067257985

flows.0.t.1.0.bias f4 [32]
000000 ae 58 39 3e ac 09 b8 bd be 86 cd 3d af b0 e4 3d
       0.18100235 -0.0898622 0.10035466 0.11166512
000010 c8 a1 e9 3c ee a9 33 3e a5 eb 59 3e 93 73 79 3e
       0.028519526 0.17545292 0.21281298 0.24360494
000020 de 8c e0 3e a9 1c 78 3e a5 d3 9c 3e 29 41 0e 3e
       0.43857473 0.24229683 0.30630222 0.13892044
000030 42 2a d0 3d 21 af 04 bc 66 2b b7 bc 7c a2 28 3e
       0.1016431 -0.008098395 -0.022359561 0.16468233
000040 87 9d 58 3d 18 e5 2e be bb 9d ae 3d 1f b2 e2 3d
       0.052884605 -0.1707958 0.085261784 0.1106913
000050 8c c7 7f 3f 18 48 44 3e 55 d3 cc 3c 29 5a 7c 3e
       0.9991386 0.19168127 0.025003115 0.24643768
000060 63 43 30 3c fa 5b 51 3e 80 8e b4 3e b8 01 2a 3e
       0.010758254 0.20445243 0.3526497 0.16602218
000070 76 0f e1 3d 06 6e e6 bd c5 6e ca 3d 51 9e 2d be
       0.10989277 -0.11251454 0.09884409 -0.16954924

flows.0.t.1.2.weight f4 [32, 32]
000000 89 af 36 3e c8 cf 46 3d f7 43 2e 3d 34 d0 d9 3c
       0.17840399 0.048538 0.042545285 0.026588537
000010 2b ea f1 bd 2f ee 93 bd 59 d9 b7 3d ea 58 ec 3c
       -0.11812242 -0.07223164 0.08977003 0.028850991
000020 90 6f 43 3e 28 f7 29 3d ea f2 e1 ba c4 2e 38 3e
       0.19085526 0.041495472 -0.0017238532 0.1798659
000030 81 5f 20 bd 67 e5 b6 bd 38 5c dc bd ca 83 34 3d
       -0.03915358 -0.08930474 -0.10759777 0.044070996
000040 6d 25 13 bc 71 0b 8e 3e d6 fa a8 bd f4 ff 6d be
       -0.008981091 0.27743104 -0.08250968 -0.2324217
000050 35 1c 3b bf 42 51 3c be 04 1a 94 3d 15 c2 80 bf
       -0.73089916 -0.18390372 0.072315246 -1.0059229
000060 4e d2 22 be e5 ae 50 bf 75 2d 80 3b 35 d1 27 3d
       -0.15900537 -0.8151687 0.003911669 0.040971
000070 89 26 cb bd 32 0b 31 be 02 65 01 be 84 a6 2f 3e
       -0.099194594 -0.17289427 -0.12636188 0.17153364
000080 93 9a df 3b 56 9b cc bd 98 a5 13 bd cb 4e bb 3d
       0.0068238466 -0.099905655 -0.036046594 0.09145888
000090 6c 48 1e 3e 58 76 5e 3e 1c 3f 6b 3e b6 10 22 3e
       0.15457314 0.21724832 0.22973293 0.15826687
0000a0 b9 c5 69 3e 38 ed 0d 3e 3f ca 11 be 86 a1 b1 bd
       0.22829331 0.13860023 -0.14237307 -0.08673386
0000b0 c8 bd 2b 3c d3 a7 80 3d 7d 5c 37 bd 4a ec e0 3d
       0.010482259 0.0628201 -0.044765938 0.109825686
0000c0 92 fc c9 bd c1 0d d1 3d 27 56 39 3e c4 b6 39 bd
       -0.09862627 0.102077015 0.18099271 -0.045340315
0000d0 08 b5 6f 3e 45 d9 0e 3e 04 79 9d 3e 2d de 41 3d
       0.23408902 0.13950069 0.3075639 0.047331024
0000e0 9c 5f 2e 3e dd 49 6c be 9f 12 10 bb df e9 62 3c
       0.1702866 -0.23075052 -0.0021983755 0.0138497045
0000f0 eb f4 05 be 5d 1a ab bc 76 c3 82 bd af 62 31 bd
       -0.1308171 -0.020886594 -0.063849375 -0.043307003
000100 ed 2c ec bd 90 16 41 3e 79 32 21 bb ff 71 3c 3e
       -0.115320064 0.18856263 -0.0024596734 0.18402861
000110 68 ad 5d 3e 94 67 e1 bc 78 cf fa bd 90 59 04 be
       0.2164818 -0.02751521 -0.12246603 -0.1292479
000120 bf 03 bc 3d 60 87 37 3e 21 7b 5f bd da 2d ca 3b
       0.09180402 0.17922735 -0.054560784 0.0061700167
000130 30 ca ef 3d 35 cf 63 be a5 d4 d4 3d be 5b f7 bc
       0.11708486 -0.22247012 0.10392121 -0.030195113
000140 af 19 4a 3c 4d e4 cb bd 11 61 e3 3d 13 f3 4a 3e
       0.012335225 -0.09955654 0.11102498 0.19819288
000150 4e 9e f9 3e f6 ae dd 3c 80 33 d7 3c d3 04 45 3e
       0.4875359 0.027060967 0.026269674 0.19240122
000160 d4 9c 56 be 03 9e 84 3e 66 59 90 3e a6 7b bb 3d
       -0.20958263 0.25901803 0.28193206 0.091544434
000170 3a 12 c6 3d 6f 11 c9 3d 60 b0 ee bd 9b ff 23 3d
       0.09671445 0.09817778 -0.116547346 0.040038686
000180 29 c3 3c 3d 73 8c 1d 3e 5c 89 b3 3b 43 27 69 be
       0.046084557 0.15385608 0.005479021 -0.22768883
000190 19 e0 05 bd e9 59 27 bd e6 a4 ab 3d 3f ca 4d bd
       -0.03268442 -0.04085723 0.08381061 -0.050241705
0001a0 62 4d 43 be 5d 03 bd 3d 08 c9 6d bc 55 b8 b5 3d
       -0.19072488 0.09229157 -0.014513262 0.08873049
0001b0 a9 2b 74 bd db ab 9e bb 33 85 71 bc b3 09 56 bd
       -0.05961195 -0.004842264 -0.01474123 -0.052255344
0001c0 be 43 a5 3d c6 8e d6 bd 2f 9c aa 3d 5b 1e 13 3d
       0.080695614 -0.104764506 0.08330571 0.03591762
0001d0 9b f8 74 be fa a2 6b be 9b 93 0a be d7 82 54 3d
       -0.2392296 -0.2301139 -0.1353287 0.05188259
0001e0 9f 23 3a 3d 70 4c 98 bb 27 a0 4d bc 3f dd 66 bd
       0.045444127 -0.004647784 -0.01255039 -0.05636334
0001f0 ce e7 40 3e 15 9d 8e bd cb 7d 0e 3d 87 a2 27 bc
       0.18838426 -0.06963555 0.034787934 -0.010231621
000200 d4 28 b5 bd 0e 2f ce bc 34 8a 29 3d 01 b7 5a be
       -0.08845678 -0.025168922 0.041391566 -0.21358873
000210 bb 3b 4f be 32 76 ad 3d 84 b3 fb bc 87 9e 23 3e
       -0.20237629 0.084698096 -0.030725248 0.15978442
000220 98 5e ed bd 48 bd 2e 3e 36 cd 56 3c 3a 49 0b ba
       -0.11590308 0.17064393 0.01311045 -0.0005313341
000230 8d d1 7a 3e a0 e0 e0 3d 2a 4a b2 3d 25 46 02 3e
       0.24494 0.10980344 0.08705552 0.1272207
000240 3a a6 71 3d 8f 77 75 bd 80 c4 25 be fc c3 cb 3d
       0.058996417 -0.059928473 -0.1618824 0.099494904
000250 66 7c 81 bd cc 18 20 be fd 65 71 3d 03 94 fc bd
       -0.06322555 -0.1563446 0.058935154 -0.123329185
000260 10 ab f2 bc bd 52 0d bd d3 67 28 bc 0f 15 9d bb
       -0.029622585 -0.034502733 -0.01027866 -0.00479377
000270 1d 9e d4 3d 59 4a a3 39 d4 52 e4 3d 9a 33 67 bd
       0.1038172 0.00031145176 0.11148611 -0.056445695
000280 cd c1 77 3e e0 7e 62 be 71 ea 00 3e 8a 3b 6d be
       0.24195023 -0.22118711 0.12589432 -0.23167244
000290 a0 46 99 be 30 f5 a2 3d bc bf 38 3e bb c4 e6 3d
       -0.29936695 0.07956922 0.18041891 0.11267992
0002a0 7c 57 85 bd 10 28 6d 3c 3a 50 bd 3c a9 ca 8a 3d
       -0.06510827 0.014474884 0.023109544 0.067769356
0002b0 89 2a 9d 3d 43 a2 8d 3e e6 af 05 3d fc fd 97 3d
       0.076741286 0.27662858 0.032638453 0.074214906
0002c0 7b 78 81 3e 35 ec a4 bd b3 ca 60 3e 07 4e 80 be
       0.25287232 -0.080528654 0.21952324 -0.2505953
0002d0 66 04 b0 bd 59 bb 32 be 4e 18 82 3d 0d 90 25 be
       -0.08594589 -0.1745428 0.06352292 -0.16168232
0002e0 43 66 52 3e 17 98 cc bd f9 0d 36 b7 52 8c 30 3e
       0.20546822 -0.09989946 -1.0851299e-05 0.17241028
0002f0 2e b0 ff 3d 97 3b 71 3d 30 9a 7a 3e dc bf 51 3e
       0.124847755 0.05889472 0.2447288 0.20483345
000300 d4 14 ac bd 7f f7 27 3e ee f3 1e 3c 09 f5 ae bd
       -0.0840241 0.16403006 0.009701712 -0.085428305
000310 b0 98 36 be c1 e9 f4 bd e3 c5 af 3d 3d 96 19 3e
       -0.17831683 -0.119586475 0.08582666 0.14998718
000320 72 a5 16 be 3e 31 58 3e 80 9b 5d 3e 8f c2 3c 3d
       -0.1471155 0.21112534 0.2164135 0.046083983
000330 0d 03 5d bd 35 48 68 3d be 53 05 bd 91 ff ed 3d
       -0.053957988 0.056709487 -0.032550566 0.11621011
000340 72 2a 86 bd e0 2f ee bd 36 bf d8 3c 57 21 96 3d
       -0.065510646 -0.11630225 0.026458364 0.07330578
000350 97 9d 0f 3c dd d8 c2 3d d5 08 11 be 9c e3 d9 3c
       0.0087656 0.0951402 -0.14163525 0.02659779
000360 30 4a d6 bd 32 6f 7b 3d 55 3a 1e be 5e c3 02 bd
       -0.10463369 0.06138534 -0.1545194 -0.031924598
000370 03 98 1b 3e 61 72 22 bd c4 16 c1 3d 41 39 8e bd
       0.15194707 -0.03965986 0.0942817 -0.06944514
000380 47 76 18 be 6e 8c 20 3e 0e ad fe bd 56 38 d3 3d
       -0.14888869 0.1567857 -0.12435351 0.103134796
000390 f7 09 30 bd 06 31 8e 3d a0 d3 38 be 61 ba 52 3d
       -0.042978253 0.06942944 -0.18049479 0.051447276
0003a0 73 5b 32 bd 35 1b 9a bd f1 8e 53 be ed 4e fe ba
       -0.043544244 -0.075247206 -0.20659997 -0.0019402184
0003b0 bd 39 55 3e 91 64 90 3d f0 9c 29 3e bd ec 4a 3b
       0.20822807 0.070504315 0.16563773 0.003096386
0003c0 db ab 41 3d fe 2d 8c 3d f9 2a ac bd f5 12 0f be
       0.047283035 0.0684471 -0.08406634 -0.13972075
0003d0 f9 a3 52 3d 53 9b 82 3d a0 d9 9c 3d a6 10 e7 3b
       0.051425908 0.06377282 0.07658696 0.007051545
0003e0 d4 e0 89 bd 23 86 06 bd c5 26 d2 3b 83 f9 e5 bc
       -0.06732336 -0.032842766 0.006413313 -0.028073078
0003f0 92 95 0b 3e c3 c1 90 3d 64 94 e2 3d 92 99 12 3a
       0.13631275 0.07068207 0.110634595 0.0005592342

flows.0.t.1.2.bias f4 [32]
000000 39 2a c2 3c 20 fb e1 3d 93 f9 bf 3e cc b7 b3 3d
       0.023701774 0.110342264 0.37495098 0.08775291
000010 e1 d3 c0 bd 6d 66 40 3e 71 6e 77 3e ba 2d 72 b9
       -0.09415413 0.18789072 0.24163224 -0.00023095953
000020 44 b2 1e 3e fd cb a4 3e cf 4a df bd 12 33 27 3e
       0.1549769 0.3218688 -0.109029405 0.16328076
000030 d3 bf 0f 3e c0 70 1b be 03 fe fd 3c 0e 7f b1 3e
       0.14038019 -0.1517973 0.031004911 0.34667248
000040 9d ac 11 bf a8 b2 e3 bc 52 f9 ba bd cd 7c 4c 3d
       -0.5690401 -0.02779515 -0.09129585 0.049923707
000050 80 49 99 bd d6 3a 90 bc b0 f2 dc 3e d5 c9 af 3d
       -0.07484722 -0.01760618 0.43153906 0.08583418
000060 8a 36 bb 3d af 6c 8d 3d e0 e4 8f 3e c8 2c 74 3d
       0.09141262 0.069054954 0.28104305 0.05961302
000070 43 09 08 bb ee ab 95 bd 10 72 5e bc c3 4d 4e be
       -0.0020757474 -0.073081836 -0.013576999 -0.20146851
